best_model.pth (torch, 518882 bytes, 30 tensors)

scale f4 [31]
0.771543 0.732038 0.65430784 0.76634884 0.65248764 0.6528188 0.65537274 0.6603782
0.53016114 0.3847346 0.5768268 0.44361418 0.5884615 0.4636925 0.3554207 0.57270825
0.46821806 0.39356884 0.43516994 0.58680063 0.54859984 0.56084096 0.5766089 0.6520672
0.662233 0.6011274 0.48120186 0.62588173 0.57932353 0.62412333 0.5125588
00000000: d883 453f d866 3b3f b880 273f 702f 443f
00000010: 6e09 273f 221f 273f 82c6 273f 8c0e 293f
00000020: a4b8 073f effb c43e ecaa 133f 6621 e33e
00000030: 6aa5 163f 1a69 ed3e b4f9 b53e 029d 123f
00000040: 47ba ef3e db81 c93e 98ce de3e 9138 163f
00000050: 0a71 0c3f 4693 0f3f a49c 133f e0ed 263f
00000060: 1a88 293f 7ce3 193f 1760 f63e c939 203f
00000070: 8c4e 143f 8cc6 1f3f 0e37 033f

shift f4 [31]
0.009574394 -0.007286002 0.0075265663 -0.01427588 0.0063476446 -0.00031205168 -0.0034460695 0.008332603
-0.010370783 -0.011534857 -0.015732676 -0.019254575 -0.011850855 -0.011781897 -0.02612814 -0.010563443
-0.027358096 -0.008154238 -0.016130192 -0.016145296 -0.020878747 -0.0029073418 -0.0154134855 -0.023237891
-0.00836453 -0.012747776 0.0034825902 -0.008067884 -0.01500234 -0.011913497 -0.003135632
00000000: ebdd 1c3c 6abf eebb 6aa1 f63b 61e5 69bc
00000010: e7ff cf3b de9a a3b9 74d7 61bb 7885 083c
00000020: 37ea 29bc b2fc 3cbc d0e1 80bc c5bb 9dbc
00000030: 172a 42bc dc08 41bc ae0a d6bc 4b12 2dbc
00000040: 161e e0bc 5a99 05bc 7723 84bc 2443 84bc
00000050: e809 abbc 1a89 3ebb d888 7cbc 645d bebc
00000060: 620b 09bc 0cdc 50bc 2b3c 643b 282f 04bc
00000070: 60cc 75bc d430 43bc 2d7f 4dbb

attention.0.weight f4 [31, 31]
0.093214184 0.14696696 -0.057675473 0.13161898 0.06360263 -0.09781319 -0.027161717 0.12179155
0.012563902 0.038858216 0.025062384 -0.03123008 0.08585963 0.009342245 -0.104124695 0.047054753
-0.0786576 0.035044644 -0.0458239 0.10080919 0.055605214 0.0574832 -0.031744696 0.10273756
-0.009199694 0.10376234 0.04354547 -0.018760063 -0.112014145 -0.13760844 0.08838889 -0.036110565
0.16183807 -0.053203985 0.37323117 -0.067667946 0.029833985 -0.034653958 -0.081536084 0.065309554
-0.014729618 -0.099848464 -0.059406027 -0.019242838 -0.020244975 -0.0134307435 0.025588961 0.04413817
-0.0046216142 0.0059946217 -0.029537693 -0.024193654 0.032930125 -0.05991862 0.05929774 0.05851678
0.060629964 -0.020129144 0.0996224 0.039528586 -0.0062734364 -0.017374711 0.30010766 0.002437854
-0.14511985 -0.08870672 0.27426136 -0.108641416 -0.096456036 -0.12685165 -0.09421229 0.14407298
0.041381568 0.00623488 0.13421984 0.0010596784 -0.13125215 0.096241295 0.10381855 0.00050103775
0.09314941 0.061288096 0.008413947 -0.12898834 -0.06855625 -0.07311897 0.20708522 -0.03694106
-0.15731426 -0.0197817 0.11006269 0.009970876 0.20841444 0.0603406 0.24156086 0.05590292
-0.07006997 0.023646725 -0.026115004 0.0692963 0.1353299 0.011523179 0.045457713 0.04485953
0.14315179 -0.021411449 -0.011397356 0.04981423 -0.049726233 -0.024701878 -0.019392066 0.00188981
0.015945021 0.11195968 0.021216769 0.0008426315 0.06070424 0.08441667 -0.099724725 0.054294303
-0.10818976 -0.13680393 -0.13102545 0.06414342 -0.074983254 0.13622592 0.1387659 0.077975824
0.08895607 -0.15967521 -0.013364231 0.1831499 0.12521943 0.041711893 0.12551063 -0.10515657
0.14942604 -0.075948775 0.0328551 -0.015594258 -0.05774302 -0.08879958 -0.10943384 0.08820654
-0.08488295 -0.025463758 0.16577823 0.006262772 -0.06743932 -0.04432598 -0.11297274 0.20775375
0.14255154 0.14156914 -0.0014696578 0.08168776 0.00028473663 0.05138894 0.051928185 -0.049078174
0.1610358 0.07387194 -0.18271513 0.043798395 -0.046975166 -0.08817883 -0.01799766 0.08872071
-0.034041334 -0.015328286 0.1463592 -0.028203722 -0.11861021 -0.061278395 0.23066442 0.049203277
-0.050383404 0.20703793 0.18546543 0.17573315 0.09161484 -0.031648293 -0.02425704 -0.06259311
0.14918324 0.22822061 0.009410726 0.08155017 0.06006614 -0.004898812 -0.079845734 0.034298122
0.23172897 -0.16545609 0.0028653676 0.03743866 0.053802624 0.07148166 0.11180482 -0.117725104
-0.10747808 0.14160869 -0.07048628 0.07724433 0.02985347 0.0057087885 0.12883064 0.116256535
0.15838076 0.048418403 0.2562365 -0.044422418 -0.063683614 -0.05376941 0.014071607 0.16550703
-0.022619821 -0.0071659707 0.10546787 0.010644657 0.21674086 0.030734412 -0.12735029 0.0678707
0.19767252 0.060328066 -0.06701416 0.09297037 -0.06293474 0.11885287 0.06403421 0.17153254
-0.12611198 -0.05242367 -0.0287693 -0.039539985 -0.08297242 0.07107822 -0.0939357 0.14530697
-0.073588684 0.11027655 0.116930544 0.061138645 -0.08630377 -0.13072681 0.046400588 0.14399603
0.05655934 -0.04110322 -0.10254054 0.12826887 -0.0360573 0.025145508 0.20242141 -0.10283572
00000000: 14e7 be3d 827e 163e 1e3d 6cbd 20c7 063e
00000010: 1842 823d 4852 c8bd 4082 debc d96d f93d
00000020: d3d8 4d3c cb29 1f3d a14f cd3c 3ad6 ffbc
00000030: 2cd7 af3d 3710 193c 543f d5bd 7cbc 403d
00000040: 3c17 a1bd f98a 0f3d d7b1 3bbd 0c75 ce3d
00000050: 4bc2 633d 8173 6b3d ba06 02bd 1268 d23d
00000060: 50ba 16bc 5a81 d43d bc5c 323d b4ae 99bc
00000070: ac67 e5bd 3ae9 0cbe 3c05 b53d ace8 13bd
00000080: e1b8 253e 6cec 59bd 2818 bf3e 7e95 8abd
00000090: 6766 f43c 4ff1 0dbd 64fc a6bd 04c1 853d
000000a0: 7f54 71bc 5a7d ccbd bc53 73bd 28a3 9dbc
000000b0: cad8 a5bc 9f0c 5cbc f19f d13c 3aca 343d
000000c0: e970 97bb 886e c43b 08f9 f1bc c531 c6bc
000000d0: bde1 063d 3a6d 75bd 30e2 723d 4baf 6f3d
000000e0: 2057 783d e0e5 a4bc d406 cc3d bae8 213d
000000f0: 6691 cdbb 6955 8ebc b6a7 993e 67c4 1f3b
00000100: 4c9a 14be deab b5bd fc6b 8c3e 647f debd
00000110: be8a c5bd 66e5 01be 60f2 c0bd de87 133e
00000120: b87f 293d f74d cc3b ed70 093e e8e4 8a3a
00000130: f766 06be 281a c53d d29e d43d 1358 033a
00000140: 1ec5 be3d 3a09 7b3d a7da 093c 8515 04be
00000150: 3867 8cbd 66bf 95bd 260e 543e 824f 17bd
00000160: fd16 21be 3b0d a2bc 8c68 e13d e35c 233c
00000170: 986a 553e b427 773d bb5b 773e 76fa 643d
00000180: d880 8fbd c7b6 c13c 22ef d5bc 38eb 8d3d
00000190: ec93 0a3e b7cb 3c3c de31 3a3d a0be 373d
000001a0: 6296 123e 1067 afbc fabb 3abc 020a 4c3d
000001b0: bcad 4bbd 985b cabc 1cdc 9ebc 80b3 f73a
000001c0: 229f 823c 1e4b e53d cace ad3c 0be4 5c3a
000001d0: 02a5 783d a6e2 ac3d 7a3c ccbd b463 5e3d
000001e0: 9892 ddbd 5416 0cbe 892b 06be a05d 833d
000001f0: d290 99bd cf7e 0b3e a618 0e3e cab1 9f3d
00000200: 9a2e b63d e681 23be a6f5 5abc a68b 3b3e
00000210: 8639 003e 17da 2a3d dc85 003e 545c d7bd
00000220: 2403 193e 088b 9bbd 1293 063d 0f7f 7fbc
00000230: f283 6cbd 8edc b5bd d91e e0bd a1a5 b43d
00000240: 1dd7 adbd 5f99 d0bc c5c1 293e f037 cd3b
00000250: a01d 8abd 298f 35bd 405e e7bd 66bd 543e
00000260: 08f9 113e 80f7 103e 88a1 c0ba ea4b a73d
00000270: b448 9539 367d 523d a6b2 543d 3206 49bd
00000280: 92e6 243e 2c4a 973d ad19 3bbe f265 333d
00000290: 0869 40bd 1a97 b4bd d46f 93bc 34b3 b53d
000002a0: ed6e 0bbd 7e23 7bbc 30df 153e 7e0b e7bc
000002b0: e9e9 f2bd 0eff 7abd 4b33 6c3e 6089 493d
000002c0: d45e 4ebd c001 543e a6ea 3d3e 64f3 333e
000002d0: 90a0 bb3d a4a1 01bd b3b6 c6bc d130 80bd
000002e0: 7ec3 183e aab2 693e 722f 1a3c c703 a73d
000002f0: ea07 763d 3786 a0bb 2986 a3bd 307c 0c3d
00000300: 5c4a 6d3e 526d 29be e4c8 3b3b 4859 193d
00000310: 2460 5c3d fa64 923d edf9 e43d dc19 f1bd
00000320: 781d dcbd de01 113e 1c5b 90bd 4632 9e3d
00000330: 448f f43c ca10 bb3b 2eec 033e e817 ee3d
00000340: 912e 223e 6052 463d 6e31 833e 48f4 35bd
00000350: 8e6c 82bd 503d 5cbd 998c 663c ad7a 293e
00000360: 344d b9bc 85d0 eabb 8aff d73d ed66 2e3c
00000370: 51f1 5d3e bcc6 fb3c 1d68 02be cbff 8a3d
00000380: aa6a 4a3e 901a 773d b83e 89bd 4067 be3d
00000390: eee3 80bd 2269 f33d 5e24 833d 3aa6 2f3e
000003a0: 8023 01be 34ba 56bd 98ad ebbc aef4 21bd
000003b0: 72ed a9bd 7591 913d 5c61 c0bd 5acb 143e
000003c0: aab5 96bd acd8 e13d 4879 ef3d 846c 7a3d
000003d0: 08c0 b0bd 40dd 05be 8b0e 3e3d b273 133e
000003e0: c4aa 673d da5b 28bd c600 d2bd ea58 033e
000003f0: d2b0 13bd f4fd cd3c 8f47 4f3e 899b d2bd

attention.0.bias f4 [31]
0.41748178 -0.14681953 -0.061177902 0.35701376 -0.1398793 -0.135241 0.012972536 -0.06144213
-0.25881624 -0.11444661 -0.23811284 -0.19131157 -0.41479972 -0.3157763 0.038621426 -0.29770193
-0.019547809 -0.30993694 -0.29934114 -0.031918827 -0.25915688 -0.32488135 -0.14766084 -0.2304306
-0.18333155 -0.4897002 -0.45402503 -0.03889685 -0.20128396 0.077971905 -0.1799523
00000000: 2cc0 d53e dc57 16be ae95 7abd 82ca b63e
00000010: 853c 0fbe 9e7c 0abe c28a 543c beaa 7bbd
00000020: 9083 84be fc62 eabd dad3 73be 2ee7 43be
00000030: a160 d4be 6ead a1be 8031 1e3d 636c 98be
00000040: ba22 a0bc 0eb0 9ebe 3e43 99be 51bd 02bd
00000050: 36b0 84be d956 a6be 6734 17be 00f6 6bbe
00000060: 44bb 3bbe fcb9 fabe f875 e8be 4e52 1fbd
00000070: 621d 4ebe bcaf 9f3d 6a45 38be

enc1.0.weight f4 [256, 31]
-0.049436226 0.057677403 0.043964334 0.041062415 0.014321182 -0.08645286 -0.09428698 -0.09797332
0.00044606635 0.025442414 -0.14913036 0.017803341 0.053340495 0.09910352 -0.057569876 0.07023622
-0.08748785 0.17196175 -0.027928632 -0.055534765 -0.10460636 -0.1214374 -0.11304193 -0.14863029
0.1126284 -0.027512686 0.03623332 0.16051705 -0.16545154 0.09969605 -0.13688952 0.016236672
-0.080273256 0.10694936 0.20737723 0.14445022 0.12691455 0.10943465 -0.15304673 -0.12183831
0.08054762 0.13723433 0.049712002 0.088608675 0.08108038 0.040801406 -0.06196887 -0.07241057
-0.05649011 0.091272086 0.075469226 0.041752137 0.050010197 0.07540819 0.06739993 -0.005806312
0.058379147 -0.044901706 -0.056598082 0.11819248 0.016957797 -0.1332218 -0.1510055 -0.015600032
0.029628072 0.10453282 -0.08108726 -0.00170228 0.00027922008 -0.0048192395 -0.0002487315 -0.11468494
-0.07845459 -0.057882547 0.021258108 -0.14262804 -0.039580572 -0.06418544 -0.029389974 0.08314919
0.007838809 0.10935845 -0.040046144 0.094761655 -0.02356343 -0.097155415 0.0712935 -0.055715844
-0.079110056 0.10573201 0.042845987 -0.017319579 0.1256642 0.21245077 0.1556372 0.057841185
0.11112648 -0.13587141 0.018297302 0.03713152 0.17595886 0.059179936 -0.16627279 -0.123791456
-0.12905008 0.13413665 -0.047527023 0.0057268827 0.009555573 0.01318787 0.13931711 0.012588506
-0.07324675 0.028579975 0.053996574 -0.14138559 0.12664054 0.12162523 -0.0030173603 0.08094445
0.073507845 -0.13742799 -0.07189431 0.1043729 0.114355385 -0.08735263 -0.12388566 -0.21457846
0.03546021 0.0601603 -0.07176612 -0.02686147 -0.04994203 -0.08974591 0.020334784 -0.1058113
-0.09665692 0.01165131 -0.12881534 0.024909262 -0.16551352 0.15260604 0.14759605 -0.030327398
-0.022576075 0.12033854 -0.10514296 0.14923161 -0.12731138 -0.102864996 -0.0076715867 0.029297173
0.018751767 0.024187744 0.14356445 -0.18470892 -0.022927077 0.005804667 -0.030275904 -0.087463155
0.08661997 -0.018544022 0.013841411 0.05778344 0.12474495 0.04306678 -0.05177679 -0.1227465
-0.09422529 -0.04801678 -0.12168451 -0.08454916 0.07674633 -0.10377848 -0.032814585 0.038606312
0.093036085 -0.040825203 0.07492991 -0.048165925 -0.028729422 -0.008748649 -0.08882819 0.07340291
-0.13631427 0.16327858 -0.10479264 -0.020011377 -0.032872245 -0.10214741 0.079336695 -0.14998025
0.10495825 -0.095378384 0.027848348 0.08008814 -0.112279706 0.10306527 -0.021645565 0.031480215
0.034796294 0.06501612 0.02487457 -0.046612907 0.12621003 -0.04957188 -0.12679616 -0.08553351
0.07369843 0.00032328247 -0.036384843 -0.081776 -0.043272644 0.121220864 0.010837162 0.005482856
-0.10036998 0.029371671 -0.003076449 -0.07421701 -0.20722052 -0.049678814 0.09421116 -0.0993907
0.15414517 -0.06960554 -0.15231657 -0.07851654 -0.12433285 0.08310233 0.10141264 -0.059677385
-0.07412624 0.113746434 0.0466955 0.045495234 -0.07823096 0.045118637 -0.08608561 0.12717323
-0.035154104 0.06967987 -0.06668912 -0.08342306 0.122533344 -0.108434364 -0.055374127 -0.06692611
-0.19487578 -0.08844653 0.0648082 0.09388344 -0.017693896 -0.016680066 0.08852479 0.007948864
00000000: a47d 4abd 243f 6c3d f213 343d 1031 283d
00000010: 64a3 6a3c 320e b1bd 8819 c1bd 3ca6 c8bd
00000020: 03de e939 9c6c d03c a1b5 18be 50d8 913c
00000030: 907b 5a3d c9f6 ca3d 64ce 6bbd 02d8 8f3d
00000040: d42c b3bd be16 303e 96ca e4bc 6c78 63bd
00000050: dc3b d6bd 2cb4 f8bd 8782 e7bd 8a32 18be
00000060: b8a9 e63d 4962 e1bc 6469 143d 955e 243e
00000070: 216c 29be 712d cc3d c42c 0cbe c502 853c
00000080: 4e66 a4bd 4408 db3d b25a 543e c2ea 133e
00000090: e3f5 013e 461f e03d 48b8 1cbe 5d86 f9bd
000000a0: 27f6 a43d 2887 0c3e d09e 4b3d 7778 b53d
000000b0: 780d a63d 601f 273d 12d3 7dbd fe4b 94bd
000000c0: 2c62 67bd dcec ba3d 9c8f 9a3d 4a04 2b3d
000000d0: 7ed7 4c3d 9c6f 9a3d f908 8a3d e042 bebb
000000e0: f91e 6f3d daea 37bd 64d3 67bd e60e f23d
000000f0: 14eb 8a3c 4c6b 08be 30a1 1abe 4797 7fbc
00000100: 92b6 f23c 4e15 d63d 1411 a6bd 0a1f dfba
00000110: 4964 9239 b6ea 9dbb 2d68 82b9 f0df eabd
00000120: cdac a0bd 4016 6dbd 7c25 ae3c 160d 12be
00000130: 3d1f 22bd a873 83bd 3ec3 f0bc 1f4a aa3d
00000140: 596e 003c 53f7 df3d 6d07 24bd 6612 c23d
00000150: 1808 c1bc 6bf9 c6bd 5402 923d 4c36 64bd
00000160: 7404 a2bd 068a d83d 467f 2f3d cae1 8dbc
00000170: 1eae 003e b28c 593e 5c5f 1f3e e1ea 6c3d
00000180: 4896 e33d e021 0bbe 39e4 953c 3917 183d
00000190: 8f2e 343e a966 723d 6a43 2abe 6086 fdbd
000001a0: b425 04be 1e5b 093e b2ab 42bd 93a8 bb3b
000001b0: fa8e 1c3c f011 583c 25a9 0e3e 0540 4e3c
000001c0: 6402 96bd 8d20 ea3c 832b 5d3d 62c7 10be
000001d0: 0fae 013e a616 f93d e8be 45bb 34c6 a53d
000001e0: 488b 963d ecb9 0cbe 533d 93bd 76c1 d53d
000001f0: 2833 ea3d f0e5 b2bd c4b7 fdbd 75ba 5bbe
00000200: ba3e 113d a66a 763d 1efa 92bd 960c dcbc
00000210: 0490 4cbd b4cc b7bd 2295 a63c 98b3 d8bd
00000220: 10f4 c5bd 23e5 3e3c 2be8 03be 820e cc3c
00000230: 607c 29be c244 1c3e 6b23 173e 2a71 f8bc
00000240: 76f1 b8bc 0d74 f63d 3155 d7bd 2cd0 183e
00000250: ea5d 02be e2aa d2bd ef61 fbbb a000 f03c
00000260: 4e9d 993c 6025 c63c 8f02 133e 5624 3dbe
00000270: 91d1 bbbc 1335 be3b 2c05 f8bc e21f b3bd
00000280: d065 b13d a2e9 97bc 16c7 623c 54ae 6c3d
00000290: 487a ff3d cb66 303d e613 54bd 8462 fbbd
000002a0: 30f9 c0bd 3ead 44bd ba35 f9bd 1c28 adbd
000002b0: 2e2d 9d3d d089 d4bd 9668 06bd a721 1e3d
000002c0: b489 be3d 5438 27bd da74 993d a249 45bd
000002d0: f759 ebbc 7e56 0fbc 8eeb b5bd 4454 963d
000002e0: f895 0bbe 8032 273e 869d d6bd e6ee a3bc
000002f0: 0ca5 06bd a932 d1bd 477b a23d 6c94 19be
00000300: 5af4 d63d be55 c3bd 3822 e43c 4005 a43d
00000310: e7f2 e5bd e213 d33d 0a52 b1bc 66f1 003d
00000320: 8f86 0e3d 2c27 853d c1c5 cb3c 2ded 3ebd
00000330: 343d 013e e20b 4bbd dad6 01be 312c afbd
00000340: 34ef 963d 3d7e a939 4608 15bd 2d7a a7bd
00000350: a83e 31bd a542 f83d 5a8e 313c 88a9 b33b
00000360: c78e cdbd dc9c f03c 409e 49bb 16ff 97bd
00000370: 9e31 54be 037c 4bbd c8f1 c03d 5a8d cbbd
00000380: 3bd8 1d3e 598d 8ebd e0f8 1bbe 48cd a0bd
00000390: 39a2 febd 8e31 aa3d 6eb1 cf3d 4670 74bd
000003a0: 80cf 97bd e4f3 e83d c843 3f3d 3659 3a3d
000003b0: 8e37 a0bd 52ce 383d a74d b0bd b339 023e
000003c0: c0fd 0fbd 52b4 8e3d 4e94 88bd b6d9 aabd
000003d0: c3f2 fa3d d612 debd fbcf 62bd 8e10 89bd
000003e0: 848d 47be 7423 b5bd 29ba 843d f645 c03d
000003f0: caf2 90bc a2a4 88bc 7c4c b53d f43b 023c

enc1.0.bias f4 [256]
-0.15770587 -0.11775313 -0.18355995 -0.074234575 -0.093676664 0.0055247415 -0.093379885 -0.2006971
-0.02944914 -0.121138215 -0.18219535 0.019568462 -0.0063922442 -0.08134338 0.017412875 -0.0114567615
-0.09439471 -0.14603192 -0.14887896 -0.17010301 -0.19183919 0.030909643 0.054872476 -0.073104426
-0.05902087 -0.040814985 -0.16692388 -0.07044579 -0.0007830195 -0.111758575 -0.076193124 -0.004930281
-0.06839424 0.008761533 0.08717221 -0.027989633 -0.24814427 0.040990263 0.044061042 -0.07813448
0.09888004 -0.171426 -0.12922788 0.037658304 -0.2014636 0.037476983 -0.19980034 -0.088014424
-0.20823555 0.024664527 -0.12972088 -0.10130569 -0.0645262 0.07359916 -0.042571574 -0.18603238
-0.26854336 -0.20671839 -0.05859174 -0.04891506 -0.074648574 0.019648703 -0.009655043 -0.12815726
-0.1395492 -0.122309566 -0.16674429 -0.031707183 -0.0055758622 0.08390917 -0.02804135 -0.06984386
-0.21490067 -0.13298503 0.056494106 -0.16731119 -0.15594232 0.005078114 0.064009026 -0.062398367
0.0077563864 -0.15896606 -0.065714434 -0.17823356 -0.0057131383 -0.042118017 -0.14509371 -0.12358101
0.02418596 0.0030569828 -0.10510962 0.09863354 -0.056420304 -0.10196711 -0.16870232 -0.2077574
-0.014363136 0.123577595 -0.07877174 -0.18081781 -0.10163279 0.063950345 -0.094724916 0.01625747
-0.122613624 -0.19299448 0.08319557 0.090277955 -0.07975539 0.030897241 -0.098629855 0.0691634
-0.16534655 -0.20256177 0.058962543 0.034924373 0.025774486 0.04784285 -0.18467867 -0.22368136
0.03525572 0.0036483225 -0.030407228 -0.07871859 -0.20507 0.06161166 -0.13683563 0.13994053
0.060144637 0.08977833 0.017201949 0.008713614 0.017646324 -0.045468062 -0.011661316 -0.1772306
-0.052576058 -0.07391831 0.029872006 0.05467747 -0.039754253 0.18183315 -0.08691561 0.05277317
-0.065915674 -0.11220072 0.054792926 0.03152408 -0.030815521 0.054251187 -0.120891005 -0.008886235
0.0204072 -0.08294584 -0.044751376 0.12312141 -0.20606577 -0.08447692 0.0046884366 -0.032631636
0.00961522 0.01506076 0.17151302 0.0033808486 -0.14334378 0.07615855 0.13697405 -0.16222963
-0.024616107 -0.20164108 0.08351576 0.10231507 -0.14554256 -0.022518575 -0.048126504 0.03123609
0.08986587 0.15491995 -0.07924375 0.006306546 0.11235458 -0.07891138 -0.044974178 -0.09628758
0.011685213 -0.17529185 -0.17242339 -0.17570287 -0.005790757 0.18316491 0.028950261 -0.041240238
0.1332111 -0.018789556 -0.15497908 0.19457269 -0.14598909 0.035717685 0.018977016 -0.16063114
-0.17365462 -0.01844638 -0.103571385 0.17277092 0.066401035 -0.14573923 0.10815333 0.055839665
-0.14752586 0.10277623 0.03737753 0.022523127 -0.049174566 -0.073254414 0.06448318 -0.04860434
-0.20662753 0.030931922 -0.054665953 -0.055584036 -0.06598515 -0.009581683 -0.079568796 0.063503146
0.02338056 -0.10495317 -0.055622578 -0.18602018 -0.1624836 0.028782891 -0.06906496 -0.13513297
-0.042140424 -0.07856366 0.04179848 -0.03954137 -0.094542086 0.04584254 -0.12881592 -0.042803936
0.044687543 -0.10244357 0.024644824 -0.09937434 0.10491803 0.04615334 -0.06820288 0.0037050818
0.120117664 0.051149357 -0.19453223 0.06483944 -0.11206866 -0.13294955 -0.2092871 -0.10113661
00000000: a67d 21be 8e28 f1bd 24f7 3bbe 4c08 98bd
00000010: 8dd9 bfbd e408 b53b f43d bfbd 8a83 4dbe
00000020: 533f f1bc 5017 f8bd 6b91 3abe 0a4e a03c
00000030: 0876 d1bb 5c97 a6bd 72a5 8e3c 24b5 3bbc
00000040: 0452 c1bd 6489 15be ba73 18be 7c2f 2ebe
00000050: 7e71 44be 3836 fd3c f6c1 603d c6b7 95bd
00000060: debf 71bd 9d2d 27bd 18ee 2abe e245 90bd
00000070: 8d43 4dba aee1 e4bd 240b 9cbd 328e a1bb
00000080: 4812 8cbd 888c 0f3c 5887 b23d 844a e5bc
00000090: 8819 7ebe 68e5 273d 5a79 343d f804 a0bd
000000a0: 9e81 ca3d 4c8a 2fbe 5054 04be 983f 1a3d
000000b0: 794c 4ebe 7781 193d 7698 4cbe e840 b4bd
000000c0: b33b 55be 430d ca3c 8dd5 04be 5c79 cfbd
000000d0: 5026 84bd 28bb 963d 885f 2ebd 467f 3ebe
000000e0: 847e 89be fcad 53be e4fd 6fbd 285b 48bd
000000f0: 5ae1 98bd 51f6 a03c 2f30 1ebc a83b 03be
00000100: fce5 0ebe 707d fabd 04bf 2abe 64df 01bd
00000110: b9b5 b6bb 92d8 ab3d f9b6 e5bc 4c0a 8fbd
00000120: ec0e 5cbe 3a2d 08be 5d66 673d a053 2bbe
00000130: 58af 1fbe 4f66 a63b 2a17 833d 6e95 7fbd
00000140: 4929 fe3b 00c8 22be 4a95 86bd dc82 36be
00000150: 4735 bbbb f183 2cbd 7293 14be 0a18 fdbd
00000160: a221 c63c a957 483b b643 d7bd 6200 ca3d
00000170: fa18 67bd 22d4 d0bd 4dc0 2cbe 5bbe 54be
00000180: 5c53 6bbc 4016 fd3d 1453 a1bd 4e28 39be
00000190: da24 d0bd 66f8 823d 23ff c1bd 632e 853c
000001a0: da1c fbbd 58a0 45be 7062 aa3d a6e3 b83d
000001b0: cb56 a3bd 361c fd3c 73fe c9bd 8aa5 8d3d
000001c0: 9b50 29be 5a6c 4fbe b582 713d dc0c 0f3d
000001d0: 0425 d33c ddf6 433d 681c 3dbe ba0c 65be
000001e0: 4d68 103d b218 6f3b 9418 f9bc 3637 a1bd
000001f0: dffd 51be 825c 7c3d a41e 0cbe 924c 0f3e
00000200: 395a 763d b3dd b73d 1aeb 8c3c 8cc3 0e3c
00000210: 068f 903c b83c 3abd 1b0f 3fbc f07b 35be
00000220: fe59 57bd 7c62 97bd 23b6 f43c 7cf5 5f3d
00000230: 5bd5 22bd 7832 3a3e d000 b2bd ae28 583d
00000240: ccfe 86bd 7ec9 e5bd 8c6e 603d 651f 013d
00000250: d570 fcbc 7e36 5e3d b495 f7bd 9297 11bc
00000260: 002d a73c 82df a9bd 384d 37bd 1427 fc3d
00000270: e802 53be 3c02 adbd 75a1 993b c0a8 05bd
00000280: 2889 1d3c 68c1 763c 1ca1 2f3e 3a91 5d3b
00000290: b6c8 12be 04f9 9b3d ed42 0c3e 861f 26be
000002a0: b8a7 c9bc 007b 4ebe 500a ab3d 908a d13d
000002b0: 1c09 15be e078 b8bc 4c20 45bd d4e2 ff3c
000002c0: 990b b83d 56a3 1e3e 8c4a a2bd 24a7 ce3b
000002d0: 281a e63d 4a9c a1bd d836 38bd 6c32 c5bd
000002e0: 5673 3f3c b57f 33be c28f 30be 74eb 33be
000002f0: 64c0 bdbb 958f 3b3e 1929 ed3c 86eb 28bd
00000300: 7e68 083e 8eec 99bc d6b2 1ebe 103e 473e
00000310: 2a7e 15be b54c 123d b075 9b3c 7d7c 24be
00000320: 84d2 31be dd1c 97bc 3c1d d4bd dcea 303e
00000330: 44fd 873d aa3c 15be 7e7f dd3d 22b8 643d
00000340: 0511 17be 587c d23d 2e19 193d 6c82 b83c
00000350: 456b 49bd 6906 96bd c20f 843d 5815 47bd
00000360: 2b96 53be f164 fd3c 68e9 5fbd 16ac 63bd
00000370: 3923 87bd 7efc 1cbc f7f4 a2bd f00d 823d
00000380: 9788 bf3c b0f1 d6bd 80d4 63bd 137c 3ebe
00000390: 1a62 26be 19ca eb3c ee71 8dbd 4c60 0abe
000003a0: 709b 2cbd fce5 a0bd e234 2b3d 22f6 21bd
000003b0: 489f c1bd 63c5 3b3d 52e8 03be 2e53 2fbd
000003c0: 490a 373d efcd d1bd f1e3 c93c c684 cbbd
000003d0: 44df d63d 490b 3d3d f4ad 8bbd f5d0 723b
000003e0: 4000 f63d fd81 513d 7533 47be 8aca 843d
000003f0: 4184 e5bd ed23 08be 5c4f 56be b620 cfbd

enc2.0.weight f4 [128, 256]
-0.074806154 -0.017469386 -0.046101823 -0.019313127 0.032260135 -0.05057643 0.00051055575 0.03316764
0.043464385 -0.027265811 -0.04092878 -0.01722973 -0.031513657 0.0071133683 -0.03476506 0.0754402
0.03162796 0.04626949 -0.008754557 -0.054521434 -0.003491231 -0.029434415 0.0043992973 -0.020450244
-0.009470462 -0.048035394 -0.017180549 -0.01951481 0.053871542 0.05706592 0.054622434 0.007658562
0.004411512 0.049170315 0.034790944 0.019546771 -0.03287357 0.029240996 0.04122226 -0.002094881
-0.029107746 -0.013050788 -0.0045364196 0.041635353 -0.024622697 0.04890979 -0.021302884 0.048470493
-0.02204682 -0.04093986 -0.009214449 0.045588166 -0.072253704 0.04474713 -0.016432662 -0.009923878
-0.05969672 0.0056960676 -0.021648575 0.05273442 0.0068379086 -0.026110187 -0.023592524 0.04399941
0.0452455 -0.006822392 -0.06783808 0.06610074 0.00398941 0.05591426 0.0067775617 -0.013582032
-0.034422483 0.029446522 0.0065954546 0.02657707 0.0076540043 0.028462583 -0.011481145 -0.028284147
0.045402415 0.0492887 -0.030609952 -0.056034975 -0.0072604734 -0.0004243391 -0.0036030542 0.024325246
0.08217855 0.054533876 -0.007534151 -0.022901952 -0.023998752 -0.06852384 0.02702271 0.0108857155
0.015198469 -0.05268403 -0.069647044 -0.02187179 -0.01564541 0.038262323 -0.03570001 0.028115619
0.013932363 -0.013255667 0.05447372 0.024775155 -0.0070830355 -0.023763523 -0.025719684 -0.016400788
-0.022963861 0.054135025 0.009066537 0.055302724 0.0588951 -0.005198774 -0.038856234 0.024891727
-0.008795799 -0.006420678 -0.0031889766 0.037498854 0.014342817 0.016743446 -0.0073615876 0.07464717
0.03785245 0.0024218773 0.012597996 -0.050827157 0.00961502 0.012598261 0.031327903 -0.01832591
0.039990265 -0.007883044 -0.049802773 0.011938436 0.028206674 0.02476211 0.005481411 0.065095365
0.07032019 -0.010398795 0.037669398 0.029490482 0.02328658 -0.039494257 -0.024339374 0.06478155
0.021974761 0.00018188305 0.037319064 0.08838266 -0.033238985 -0.041120514 0.018690856 0.03430782
0.0036217892 0.0375464 0.062206037 0.013856669 -0.0140677765 -0.033362933 0.099914834 -0.087199226
-0.016086033 -0.049646344 0.011986327 0.0141502 0.022426777 0.03805448 -0.024377486 0.037920155
-0.00089603936 0.056947134 0.013800226 0.0737724 -0.037807394 0.039851848 0.05819257 0.04969632
-0.01511384 -0.008203772 -0.05750215 -0.004119282 -0.036929473 0.06360492 -0.024256736 -0.077384084
0.07971901 -0.020559857 -0.024917377 0.096647404 -0.027196314 -0.026408777 -0.014800714 0.026166292
-0.021597322 0.026808044 -0.027111037 -0.0031969794 0.0342549 0.014940302 0.024240075 -0.04169966
-0.03966136 0.0267148 0.032692373 -0.019469315 0.027147496 0.034627277 -0.0068083443 0.0012449379
-0.0010670308 0.03842088 0.020079114 0.013834294 0.059943423 -0.024770867 -0.036602125 0.08424886
0.022663513 0.018538702 -0.019658983 -0.035481155 0.026049608 0.01280726 0.04111267 -0.018690713
-0.04754086 0.024495333 0.0018122129 -0.025279274 -0.0040984973 0.04494677 0.008269052 0.054485306
-0.03490089 0.0013966573 0.022835495 0.045844816 0.065820776 0.026330017 -0.012995497 0.031750258
0.015169961 -0.026305337 0.05107227 0.03972197 -0.056254942 -0.023664655 0.023298157 0.011699121
00000000: f833 99bd f51b 8fbc 44d5 3cbd 9036 9ebc
00000010: 3423 043d 3b29 4fbd d1d6 053a cbda 073d
00000020: b607 323d 8d5c dfbc f0a4 27bd 5d25 8dbc
00000030: 7714 01bd 4217 e93b cf65 0ebd 6480 9a3d
00000040: 528c 013d 1485 3d3d 466f 0fbc de51 5fbd
00000050: 23cd 64bb 7120 f1bc fb27 903b 4587 a7bc
00000060: ff29 1bbc c3c0 44bd 39be 8cbc 86dd 9fbc
00000070: 68a8 5c3d f4bd 693d c6bb 5f3d adf4 fa3b
00000080: 728e 903b d066 493d f380 0e3d 8d20 a03c
00000090: 70a6 06bd d08a ef3c acd8 283d 454a 09bb
000000a0: 5e73 eebc f9d2 55bc 3fa6 94bb d589 2a3d
000000b0: 8ab5 c9bc a255 483d 6383 aebc ff88 463d
000000c0: 889b b4bc 8eb0 27bd 33f8 16bc a8ba 3a3d
000000d0: c0f9 93bd c448 373d ca9d 86bc c397 22bc
000000e0: 8c84 74bd 14a6 ba3b 5a58 b1bc 0c00 583d
000000f0: 8910 e03b 08e5 d5bc 1c45 c1bc ba38 343d
00000100: 5853 393d 5f8e dfbb b1ee 8abd d35f 873d
00000110: 99b9 823b 5a06 653d 4f16 de3b 2c87 5ebc
00000120: 97fe 0cbd d539 f13c af1e d83b 28b8 d93c
00000130: 71ce fa3b 5d2a e93c 6a1b 3cbc 28b4 e7bc
00000140: e2f7 393d f3e2 493d b9c1 fabc ee84 65bd
00000150: 44e9 edbb d479 deb9 3821 6cbb bd45 c73c
00000160: 3a4d a83d ea5e 5f3d 0ae1 f6bb e09c bbbc
00000170: 0899 c4bc 3a56 8cbd bb5e dd3c 005a 323c
00000180: 0003 793c 36cb 57bd 1ca3 8ebd 782c b3bc
00000190: ce2a 80bc f4b8 1c3d 2c3a 12bd ba52 e63c
000001a0: 9144 643c 4c2e 59bc d61f 5f3d 44f5 ca3c
000001b0: cf18 e8bb b8ab c2bc 16b2 d2bc f25a 86bc
000001c0: b51e bcbc b0bc 5d3d d08b 143c 1c85 623d
000001d0: fd3b 713d 7a5a aabb b727 1fbd bce9 cb3c
000001e0: 411c 10bc 8d64 d2bb 26fe 50bb 6698 193d
000001f0: 22fe 6a3c 8d29 893c 7939 f1bb 9ee0 983d
00000200: 2c0b 1b3d 5cb8 1e3b d367 4e3c 2330 50bd
00000210: 5188 1d3c f068 4e3c b051 003d 3820 96bc
00000220: d5cc 233d e227 01bc fefd 4bbd 6e99 433c
00000230: af11 e73c e9d9 ca3c 689d b33b b850 853d
00000240: 0804 903d b55f 2abc 3a4b 1a3d 0696 f13c
00000250: 7fc3 be3c bbc4 21bd 5e63 c7bc 30ac 843d
00000260: 6a04 b43c dcb7 3e39 e0db 183d f801 b53d
00000270: 9a25 08bd fc6d 28bd 911d 993c 5b86 0c3d
00000280: 8a5b 6d3b 41ca 193d c2cb 7e3d 1507 633c
00000290: 887c 66bc 92a7 08bd 26a0 cc3d 8295 b2bd
000002a0: dbc6 83bc f759 4bbd 4d62 443c 3ed6 673c
000002b0: 5cb8 b73c 04df 1b3d 4bb3 c7bc 2a52 1b3d
000002c0: 2fe4 6aba 6641 693d 581a 623c fc15 973d
000002d0: eddb 1abd b13b 233d 555b 6e3d 5e8e 4b3d
000002e0: 0aa0 77bc 1d69 06bc 6087 6bbd 0bfb 86bb
000002f0: 5c43 17bd 4c43 823d 10b6 c6bc 8c7b 9ebd
00000300: b843 a33d 256d a8bc 871f ccbc 13ef c53d
00000310: ceca debc 3857 d8bc b27e 72bc b15a d63c
00000320: deec b0bc 8b9c db3c f717 debc 6a84 51bb
00000330: de4e 0c3d 2bc8 743c 1f93 c63c 43cd 2abd
00000340: f373 22bd ffd8 da3c 70e8 053d 1d7e 9fbc
00000350: 6d64 de3c 55d5 0d3d 8818 dfbb 2f2d a33a
00000360: 9ddb 8bba 365f 1d3d f47c a43c 3ca9 623c
00000370: 3c87 753d 46ec cabc 1cec 15bd ab8a ac3d
00000380: d5a8 b93c 7ade 973c e00b a1bc b054 11bd
00000390: fd65 d53c 8bd5 513c c265 283d 441d 99bc
000003a0: 34ba 42bd 70aa c83c c687 ed3a 7b16 cfbc
000003b0: b04c 86bb 1b1a 383d eb7a 073c fc2b 5f3d
000003c0: 3cf4 0ebd 0b10 b73a 8111 bb3c c6c7 3b3d
000003d0: 0bcd 863d 0cb2 d73c 11eb 54bc 8f0c 023d
000003e0: 6e8b 783c 4a7e d7bc 2831 513d 81b3 223d
000003f0: 956b 66bd 61dc c1bc c7db be3c acad 3f3c

enc2.0.bias f4 [128]
0.08593361 0.12258945 -0.10904107 0.1581881 0.11666027 0.074428365 0.05134332 0.055525273
0.16582045 0.06362184 0.071308315 -0.005529943 0.02862076 0.020120975 -0.087011136 0.02367877
0.17005937 0.10022205 0.1626842 0.0794695 -0.014279873 0.071941994 0.0952837 0.05583538
0.04983403 0.0729612 0.026882356 0.026786204 0.032435887 0.2407408 0.13294497 0.03148058
0.020588638 0.08148329 -0.02262954 0.01117537 0.03362423 0.1103989 0.007954539 0.016731216
0.16552985 0.020114036 0.08651082 0.13183826 0.099982515 0.036209945 0.051001843 -0.0030649465
0.15687028 0.033579536 0.014238657 0.009862253 0.0747813 0.08986859 0.07582235 0.06794524
0.009030472 0.06208155 0.0055906167 0.06012938 0.07457572 0.071759224 -0.016304862 0.13939461
0.05742271 -0.0051998426 0.12415314 -0.10997754 0.03514408 0.044453487 0.06413428 0.11008038
0.00010748839 0.13933471 0.06656678 0.045207556 -0.027229177 -0.023826811 0.06270149 0.013993473
0.033153974 0.057091348 0.024632102 0.016323354 -0.0998234 0.0401171 0.108029 0.04740493
0.108767405 -0.06606451 0.008522518 -0.06527538 0.10750821 -0.0055968906 0.09206951 0.05384058
-0.041537806 0.10975808 -0.007670105 0.041051775 0.011933863 0.04788091 0.0023357004 0.14002627
0.14374776 0.08326401 0.02841024 0.17157781 0.05922909 0.04479689 -0.08613991 0.089847684
0.08981708 0.089290254 0.09480441 -0.0630433 0.06518306 0.108476095 0.08406721 -0.026844747
0.09753063 0.04106059 -0.088652685 0.09846157 0.080284506 0.078345194 0.08712725 0.2085157
00000000: f6fd af3d 2d10 fb3d ed50 dfbd 10fc 213e
00000010: 94eb ee3d e66d 983d 604d 523d 786e 633d
00000020: d6cc 293e 2b4c 823d 180a 923d 8634 b5bb
00000030: 1676 ea3c bed4 a43c e532 b2bd fbf9 c13c
00000040: 0b24 2e3e 3841 cd3d b096 263e e8c0 a23d
00000050: 21f6 69bc 5356 933d 1a24 c33d a4b3 643d
00000060: c51e 4c3d ae6c 953d 6338 dc3c be6e db3c
00000070: 7edb 043d c284 763e ba22 083e c8f1 003d
00000080: 81a9 a83c b6e0 a63d 9661 b9bc e618 373c
00000090: 90b9 093d d218 e23d c153 023c e70f 893c
000000a0: a880 293e 31c6 a43c 962c b13d 9c00 073e
000000b0: a2c3 cc3d e150 143d 4fe7 503d 45dd 48bb
000000c0: 9aa2 203e b28a 093d 4249 693c 4a95 213c
000000d0: f026 993d 060d b83d c048 9b3d e026 8b3d
000000e0: 8bf4 133c 3949 7e3d 7e31 b73b 3a4a 763d
000000f0: 28bb 983d 80f6 923d c691 85bc 76bd 0e3e
00000100: 1334 6b3d 7163 aabb 0044 fe3d e83b e1bd
00000110: 3df3 0f3d dc14 363d d558 833d d371 e13d
00000120: 646b e138 c2ad 0e3e 2a54 883d 8f2b 393d
00000130: b90f dfbc 7230 c3bc a469 803d e144 653c
00000140: 76cc 073d 9ed8 693d 43c9 c93c 8eb8 853c
00000150: 3670 ccbd d451 243d 4f3e dd3d ac2b 423d
00000160: 72c1 de3d d44c 87bd 08a2 0b3c 19af 85bd
00000170: 442d dc3d 1f66 b7bb f08e bc3d f187 5c3d
00000180: 8c23 2abd d8c8 e03d 8155 fbbb e825 283d
00000190: 4086 433c c61e 443d 8d12 193b 0c63 0f3e
000001a0: 9d32 133e 5286 aa3d 97bc e83c 18b2 2f3e
000001b0: 349a 723d f27c 373d 1f6a b0bd 1002 b83d
000001c0: 04f2 b73d cfdd b63d d128 c23d d81c 81bd
000001d0: b27e 853d b728 de3d 6e2b ac3d 84e9 dbbc
000001e0: 24be c73d 262f 283d 8a8f b5bd 38a6 c93d
000001f0: 346c a43d 7273 a03d c66f b23d 2485 553e

enc2.2.weight f4 [128]
0.89820135 0.90325785 0.91358614 0.90527016 0.9207219 0.9235339 0.9099219 0.90755004
0.9371187 0.8977462 0.91725206 0.8936473 0.9117284 0.8927582 0.9116169 0.9023432
0.9390453 0.8821892 0.88034534 0.90769756 0.89890116 0.9187354 0.8849772 0.91569716
0.893672 0.91878027 0.91182613 0.93265414 0.9159039 0.94311273 0.94343454 0.9273735
0.8839774 0.9151052 0.88861746 0.9232087 0.91516805 0.91932213 0.923576 0.8823893
0.8740038 0.9201318 0.9008916 0.9099591 0.87289643 0.9086116 0.9032166 0.9038631
0.90953565 0.8606597 0.92234325 0.9131316 0.9000119 0.9137566 0.92154837 0.90536356
0.90953094 0.9021917 0.91804194 0.9125335 0.9051236 0.90902877 0.9139317 0.85650945
0.90860605 0.9075946 0.92833304 0.90250015 0.89510095 0.91007435 0.90561396 0.9212729
0.90379965 0.9022969 0.90147334 0.92554164 0.8933597 0.9045632 0.88095766 0.9082624
0.92565036 0.8949218 0.9092829 0.90918005 0.92135215 0.89108396 0.91956055 0.89104664
0.92305523 0.92203987 0.8971553 0.91490644 0.89243877 0.9030018 0.91615844 0.92246866
0.91231555 0.9379393 0.8967595 0.922837 0.90868783 0.8980816 0.9017525 0.89238155
0.9013127 0.893383 0.926263 0.8955718 0.8998145 0.91520286 0.91567385 0.9167359
0.9124215 0.90561014 0.9211062 0.91538227 0.87821805 0.87114275 0.88839793 0.8860266
0.8997555 0.85778457 0.91515064 0.9311826 0.89576936 0.93569434 0.9224057 0.9415288
00000000: 86f0 653f e83b 673f c8e0 693f c9bf 673f
00000010: 6eb4 6b3f b86c 6c3f a4f0 683f 3355 683f
00000020: 03e7 6f3f b2d2 653f 08d1 6a3f 12c6 643f
00000030: 0867 693f cd8b 643f ba5f 693f f7ff 663f
00000040: 4665 703f 27d7 613f 505e 613f de5e 683f
00000050: 631e 663f 3e32 6b3f de8d 623f 216b 6a3f
00000060: b0c7 643f 2f35 6b3f 706d 693f 6cc2 6e3f
00000070: ae78 6a3f d66f 713f ed84 713f 5a68 6d3f
00000080: 584c 623f 5644 6a3f 6f7c 633f 6857 6c3f
00000090: 7448 6a3f b258 6b3f 7a6f 6c3f 44e4 613f
000000a0: b7be 5f3f c28d 6b3f d5a0 663f 14f3 683f
000000b0: 2476 5f3f c59a 683f 3439 673f 9263 673f
000000c0: 54d7 683f 3254 5c3f b01e 6c3f fec2 693f
000000d0: 2e67 663f f4eb 693f 98ea 6b3f e8c5 673f
000000e0: 05d7 683f 09f6 663f cc04 6b3f cc9b 693f
000000f0: 2eb6 673f 1cb6 683f 6ef7 693f 3444 5b3f
00000100: 689a 683f 1f58 683f 3ca7 6d3f 400a 673f
00000110: 5625 653f a2fa 683f 51d6 673f 8ad8 6b3f
00000120: 6a5f 673f eefc 663f f5c6 663f 4cf0 6c3f
00000130: 39b3 643f 7491 673f 7186 613f e283 683f
00000140: 6cf7 6c3f 9819 653f c4c6 683f 06c0 683f
00000150: bcdd 6b3f 141e 643f 5268 6b3f a21b 643f
00000160: 594d 6c3f ce0a 6c3f f8ab 653f 4f37 6a3f
00000170: de76 643f 202b 673f 5c89 6a3f e826 6c3f
00000180: 838d 693f ca1c 703f 0892 653f 0c3f 6c3f
00000190: c49f 683f ade8 653f 40d9 663f 1e73 643f
000001a0: 6ebc 663f c0b4 643f 921f 6d3f 3244 653f
000001b0: 3e5a 663f bc4a 6a3f 9a69 6a3f 34af 6a3f
000001c0: 7594 693f 11d6 673f 9ecd 6b3f 7e56 6a3f
000001d0: e6d2 603f 3603 5f3f 0c6e 633f a4d2 623f
000001e0: 6056 663f c597 5b3f 5047 6a3f fc61 6e3f
000001f0: 2451 653f aa89 6f3f c822 6c3f 0808 713f

enc2.2.bias f4 [128]
0.06586604 -0.016065352 -0.072300255 0.049053796 0.047910307 0.024336575 -0.081405744 0.028841
-0.07249142 -0.062382497 -0.030001704 0.013035983 0.124728546 0.097164094 -0.02947247 0.016722433
0.029990386 -0.09475438 0.02912577 -0.011752069 -0.06423826 0.03928518 0.06776483 0.12558511
-0.04831501 0.050024517 -0.0018671944 0.07784221 -0.08581734 0.07304914 -0.040350683 0.11121182
-0.08325392 0.008556575 0.0076317852 -0.009730448 -0.055681407 -0.058724217 0.08942196 0.015616048
0.13565767 -0.07056536 -0.02797421 0.06691591 -0.11598593 0.14554755 -0.04081299 0.006728966
-0.13748679 0.027517846 -0.036773853 -0.1465763 0.051504113 0.049443267 -0.015909974 0.065485895
-0.17468688 -0.032022215 0.07792278 -0.07754505 -0.058512345 0.09820743 0.048587523 -0.1345458
-0.07990421 -0.028028961 0.024759319 0.12725425 0.026826954 0.04827614 0.0072512687 0.09628836
0.020751122 -0.09229276 0.017901823 -0.034864552 -0.00631268 0.102613494 0.07209723 -0.00824066
-0.043537296 0.029834762 -0.053810008 0.09921752 -0.09321736 -0.07773723 -0.10183367 0.054936223
0.018017048 -0.036948398 -0.044303343 0.036188595 -0.056696396 -0.0176762 0.06640838 -0.090076685
0.022430358 0.0412625 0.018238816 -0.11496687 -0.13551864 0.17211992 -0.106119774 -0.024416912
-0.12743664 0.01304668 0.08470936 -0.017685434 -0.0059783086 0.1153512 -0.013722072 0.06724028
-0.011887359 -0.108586155 -0.07865748 0.052932307 -0.038667127 0.010086961 0.11978277 -0.030269068
0.10152905 0.058427583 0.006141077 0.05309452 -0.12434636 0.0068622082 -0.0923246 0.11203891
00000000: c6e4 863d 7c9b 83bc 2812 94bd a2ec 483d
00000010: 993d 443d 7f5d c73c 0eb8 a6bd f643 ec3c
00000020: 6276 94bd ca84 7fbd 22c6 f5bc e094 553c
00000030: ae71 ff3d f8fd c63d 4070 f1bc 7cfd 883c
00000040: 66ae f53c 960e c2bd 2b99 ee3c c08b 40bc
00000050: 598f 83bd 7fe9 203d 4ac8 8a3d 6299 003e
00000060: f6e5 45bd 82e6 4c3d a6bc f4ba bd6b 9f3d
00000070: 00c1 afbd ca9a 953d c246 25bd 06c3 e33d
00000080: 0881 aabd e030 0c3c 0e14 fa3b 756c 1fbc
00000090: 3012 64bd ce88 70bd dc22 b73d 74da 7f3c
000000a0: d8e9 0a3e 9284 90bd 2c2a e5bc 350b 893d
000000b0: 088a edbd 6b0a 153e 862b 27bd a87e dc3b
000000c0: 56c9 0cbe 1b6d e13c 2ea0 16bd 1918 16be
000000d0: faf5 523d 0685 4a3d a255 82bc 781d 863d
000000e0: 1ee1 32be ba29 03bd fa95 9f3d f0cf 9ebd
000000f0: a4aa 6fbd fa20 c93d b603 473d 60c6 09be
00000100: d2a4 a3bd fe9c e5bc 0ed4 ca3c f04e 023e
00000110: 33c4 db3c 34bd 453d 0d9c ed3b d532 c53d
00000120: 42fe a93c fd03 bdbd d8a6 923c 22ce 0ebd
00000130: 99da cebb 0627 d23d b6a7 933d d503 07bc
00000140: 2a54 32bd 0868 f43c e267 5cbd 8e32 cb3d
00000150: bee8 bebd b234 9fbd 2c8e d0bd ce04 613d
00000160: 7d98 933c 3457 17bd 6c77 35bd 7e3a 143d
00000170: 7b3a 68bd aecd 90bc 1e01 883d 207a b8bd
00000180: dfbf b73c de02 293d 9269 953c c073 ebbd
00000190: 66c5 0abe 3440 303e 5355 d9bd fa05 c8bc
000001a0: c07e 02be bec1 553c 1a7c ad3d 0be1 90bc
000001b0: b0e5 c3bb 403d ec3d 8bd2 60bc 46b5 893d
000001c0: 33c3 42bc 6b62 debd 2c17 a1bd 8ccf 583d
000001d0: 6c61 1ebd c843 253c ab50 f53d d6f6 f7bc
000001e0: 76ee cf3d c351 6f3d 163b c93b a479 593d
000001f0: 4ea9 febd 60dc e03b ae14 bdbd a874 e53d

enc2.2.running_mean f4 [128]
0.39620095 0.36092368 -0.046398997 0.21236268 0.3151224 0.33034605 0.34157836 0.2942539
0.14416 0.38976768 0.32571545 0.23064218 0.2382006 0.14821652 0.14114341 0.2846045
0.15900962 0.29670382 0.35983655 0.34910005 0.24718504 0.30560544 0.36992687 0.3203272
0.23480107 0.34949955 0.34338316 0.3136309 0.30572683 0.19980597 0.099702135 0.33867544
0.2955571 0.36323425 0.114282474 0.2936893 0.273395 0.1884766 0.31296337 0.17156935
0.2582347 0.37102044 0.29506814 0.1803363 0.3314449 0.30965826 0.314151 0.17133754
0.30266464 0.13079907 0.32965463 0.36814433 0.22191791 0.2564059 0.31497154 0.3027014
0.18891594 0.31332758 0.16422279 0.32537484 0.35289592 0.37799639 0.25624305 0.29536164
0.30987224 0.29792807 0.3584935 -0.045978867 0.32049286 0.15156879 0.30199665 0.13174441
0.16236244 0.19174334 0.2985698 0.36002383 0.12934051 0.2579562 0.16949943 0.18015155
0.29529107 0.3374769 0.1773238 0.292595 -0.041952442 0.29607347 0.19849686 0.18045297
0.29369473 0.28663954 0.27613872 -0.04221901 0.42966276 0.186482 0.36535904 0.31911245
-0.039622907 0.2230335 0.2762518 0.3279767 0.26724893 0.3480049 0.16893892 0.27869442
0.22640063 0.1990854 0.25975567 0.29440746 0.26994145 0.14179172 -0.04510833 0.2796985
0.33776286 0.34044355 0.30484402 -0.044389095 0.13539292 0.17889717 0.30099535 0.21308546
0.32483226 0.19819103 -0.044840578 0.13448006 0.3066806 0.28791672 0.20786193 0.09466204
00000000: dada ca3e fdca b83e e00c 3ebd 9a75 593e
00000010: b957 a13e 1e23 a93e 5ce3 ae3e 72a8 963e
00000020: ae9e 133e a18f c73e 2dc4 a63e 772d 6c3e
00000030: dcea 733e 12c6 173e e687 103e aeb7 913e
00000040: 6bd3 223e 90e9 973e 7f3c b83e 3ebd b23e
00000050: 131e 7d3e 5178 9c3e 0e67 bd3e ed01 a43e
00000060: b16f 703e 9bf1 b23e ebcf af3e 3b94 a03e
00000070: 3a88 9c3e f099 4c3e a230 cc3d de66 ad3e
00000080: 4353 973e d7f9 b93e ee0c ea3d 725e 963e
00000090: 6efa 8b3e 0300 413e bc3c a03e e0af 2f3e
000000a0: 5737 843e 64f6 bd3e 2c13 973e 14aa 383e
000000b0: 25b3 a93e 878b 9e3e 66d8 a03e 1c73 2f3e
000000c0: dcf6 9a3e 31f0 053e 7ec8 a83e 6a7d bc3e
000000d0: 733e 633e a247 833e f343 a13e aefb 9a3e
000000e0: 2e73 413e 796c a03e 052a 283e 8897 a63e
000000f0: c6ae b43e be88 c13e 4a32 833e a439 973e
00000100: 93a7 9e3e 078a 983e 768c b73e 5654 3cbd
00000110: a417 a43e d934 1b3e 4e9f 9a3e 02e8 063e
00000120: 5742 263e 5e58 443e 24de 983e 0b55 b83e
00000130: d771 043e d612 843e 4291 2d3e a679 383e
00000140: 6430 973e c6c9 ac3e 5f94 353e 03cf 953e
00000150: 53d6 2bbd f196 973e c342 4b3e aac8 383e
00000160: 285f 963e 6bc2 923e 0e62 8d3e d7ed 2cbd
00000170: c2fc db3e 23f5 3e3e 5710 bb3e b562 a33e
00000180: a14b 22bd e562 643e e070 8d3e 90ec a73e
00000190: dad4 883e b32d b23e 53fe 2c3e 09b1 8e3e
000001a0: 91d5 673e 0bdd 4b3e b2fe 843e 93bc 963e
000001b0: c435 8a3e d931 113e 83c3 38bd a434 8f3e
000001c0: 41ef ac3e 9e4e ae3e 8414 9c3e 57d1 35bd
000001d0: 71a4 0a3e d230 373e 101c 9a3e 1333 5a3e
000001e0: 6a50 a63e 97f2 4a3e c1aa 37bd 24b5 093e
000001f0: 3d05 9d3e d269 933e c2d9 543e 2cde c13d

enc2.2.running_var f4 [128]
0.15405346 0.08082598 0.0017550113 0.056399945 0.16535278 0.14127713 0.16777804 0.16273174
0.04265883 0.107203804 0.20526879 0.17506726 0.1394439 0.07436983 0.062165953 0.17741399
0.047764085 0.09657347 0.08550164 0.15818998 0.18978412 0.15255243 0.097673275 0.16806741
0.114976875 0.18527377 0.20753585 0.23066553 0.21114975 0.039466403 0.04285484 0.18930689
0.09042766 0.21019427 0.044365115 0.1680012 0.18192288 0.08823001 0.16515712 0.0902062
0.044427354 0.22050488 0.13903959 0.065203756 0.07938065 0.15122811 0.18461144 0.08430879
0.071467176 0.037624173 0.2230477 0.20731667 0.06446569 0.1268593 0.16873927 0.14044814
0.08671586 0.169922 0.08527437 0.15026227 0.13327989 0.25426176 0.11980208 0.07003119
0.21731542 0.20798683 0.20866492 0.0018809474 0.1195121 0.07393407 0.13562891 0.063650034
0.0778398 0.052572887 0.16706082 0.18929791 0.05159353 0.18869232 0.03966562 0.096315205
0.1373267 0.20425422 0.089171 0.19529149 0.0015502878 0.09221837 0.102133535 0.09187595
0.14197667 0.17771903 0.14649247 0.0015613651 0.115318045 0.10202521 0.21920061 0.18992718
0.0014153507 0.08864268 0.13033547 0.16059521 0.14917637 0.12983224 0.08224069 0.07244488
0.0563028 0.08792547 0.17638104 0.044734012 0.12781566 0.06777573 0.0019711943 0.1342375
0.17233008 0.13492064 0.064872265 0.0014458165 0.058085434 0.02848211 0.11681471 0.13160697
0.16617581 0.07900598 0.0016346122 0.059570312 0.107567474 0.16007996 0.1309172 0.027259495
00000000: 31c0 1d3e 1788 a53d 6808 e63a a103 673d
00000010: 3d52 293e f4aa 103e 02ce 2b3e 26a3 263e
00000020: 06bb 2e3d ab8d db3d fb31 523e d544 333e
00000030: 62ca 0e3e 364f 983d baa1 7e3d 03ac 353e
00000040: 46a4 433d 50c8 c53d 7c1b af3d 8efc 213e
00000050: c556 423e b436 1c3e ed08 c83d dd19 2c3e
00000060: ff78 eb3d 68b8 3d3e 4784 543e 9633 6c3e
00000070: a437 583e 86a7 213d 8f88 2f3d aad9 413e
00000080: 2332 b93d 2b3d 573e 32b8 353d 8208 2c3e
00000090: fe49 3a3e efb1 b43d f31e 293e 07be b83d
000000a0: 75f9 353d 08cc 613e 6560 0e3e 8c89 853d
000000b0: 5292 a23d 8bdb 1a3e c80a 3d3e 16aa ac3d
000000c0: 625d 923d ce1b 1a3d 9e66 643e d24a 543e
000000d0: 9606 843d 68e7 013e fdc9 2c3e a3d1 0f3e
000000e0: 1698 b13d 0800 2e3e 54a4 ae3d 5ade 193e
000000f0: 867a 083e 992e 823e cb5a f53d 836c 8f3d
00000100: ef87 5e3e 80fa 543e 42ac 553e 1f8a f63a
00000110: c3c2 f43d bf6a 973d 4ee2 0a3e f35a 823d
00000120: 796a 9f3d ab56 573d fe11 2b3e 50d7 413e
00000130: bd53 533d 8f38 413e 6b78 223d e840 c53d
00000140: 5f9f 0c3e 0528 513e 499f b63d 7efa 473e
00000150: 0733 cb3a fcdc bc3d 632b d13d 7529 bc3d
00000160: 5562 113e fafb 353e 1f02 163e b8a6 cc3a
00000170: de2b ec3d 98f2 d03d 2076 603e 457c 423e
00000180: 4a83 b93a 4b8a b53d a976 053e 1273 243e
00000190: b1c1 183e bef2 043e cf6d a83d fb5d 943d
000001a0: c49d 663d 4512 b43d 3b9d 343e 033b 373d
000001b0: 1ce2 023e 00ce 8a3d 272f 013b 8e75 093e
000001c0: 4c77 303e a328 0a3e c0db 843d 8d81 bd3a
000001d0: feea 6d3d 5053 e93c 8d3c ef3d fac3 063e
000001e0: fe29 2a3e e3cd a13d 7c40 d63a 0000 743d
000001f0: 564c dc3d 00ec 233e 290f 063e 4e4f df3c

fc_mu.weight f4 [24, 128]
0.047856063 0.013424188 0.025079947 -0.004050849 0.011307317 -0.038435563 -0.06055724 -0.038009055
-0.009203092 -0.0061298227 -0.0022090625 0.03532295 0.017765522 0.012462549 0.039739564 -0.015759205
0.014854989 0.015447707 0.017221956 0.028855195 -0.017292058 0.041210234 -0.003994625 -0.03196492
0.009699051 0.015862463 -0.072412476 0.016801933 -0.031537287 -0.008072022 -0.043669157 0.065015495
-0.020811183 0.043820165 -0.0065157944 0.044139225 -0.0005295838 -0.021818856 0.035344183 -0.03352064
-0.006289918 0.05369868 0.06265818 -0.0057198373 -0.025492378 0.01137503 -0.023048108 0.023345653
-0.012043196 0.006951238 0.041881025 -0.005644589 0.0108630285 0.027698444 -0.025241386 -0.0018864634
0.0053387824 -0.010393327 -0.00690338 0.049317915 -0.01185568 -0.027976291 0.015752716 -0.0015971015
0.029411988 -0.014721341 0.00035381483 0.009318192 0.013421143 0.00147659 0.02154733 -0.04141387
0.00038030554 -0.030542506 0.027090626 -0.040248126 -0.018410696 0.026752608 0.004853573 -0.0399765
-0.0142239 -0.011738242 -0.0075147613 -0.005024444 0.003846341 -0.030141877 0.050676674 0.002943934
0.030101236 -0.037680164 -0.028050026 -0.0035410172 -0.036749884 0.053546764 -0.04553769 -0.00802402
-0.010106229 0.0028999022 0.017799705 -0.027268084 -0.017336905 -0.021918004 0.021912351 -0.0030078494
0.0035474799 -0.00098083 -0.023518251 0.0013099356 -0.00800774 0.0177238 -0.027279407 0.033168845
-0.013927338 -0.007261336 0.037138857 0.04121641 -0.0007799144 0.00973408 -0.021398796 -0.041850332
0.012532574 -0.028899454 -0.031669505 0.031392734 -0.03092519 0.0073201936 -0.02329305 -0.005139661
-0.011646404 -0.039498985 0.020083614 0.014334724 0.03633757 -0.03326667 -0.0011120426 -0.027761262
0.014620309 -0.0017953671 0.049919784 0.014687377 -0.009554529 -0.020482829 0.0037511433 0.019880328
-0.010034709 -0.028464094 -0.044871755 -0.023131892 -0.017475415 0.045103364 0.0031126833 0.026742056
0.004765048 0.030895902 0.0015471393 -0.017408062 0.0045093237 0.0032206913 0.0073440415 0.05132044
0.032327928 0.024792114 -0.0074283206 0.060785957 0.010350071 -0.01752032 0.04898306 0.023009673
-0.015387766 0.041636705 -0.030544396 0.011061111 -0.03274814 0.025481163 -0.0079709515 -0.014060522
-0.015901305 -0.0031388614 -0.052007012 0.011786415 0.016545229 -0.024281526 -0.022588855 0.0010620414
-0.0016389283 0.03332761 -0.009288952 -0.004860922 0.018867724 -0.020905936 -0.04761239 0.012536533
0.029404651 0.010248332 -0.036949657 -0.0038947212 -0.021180015 0.009239843 -0.009954632 0.024767783
0.02166825 0.018209478 -0.030387193 -0.016693968 -0.0042435075 0.00015411734 0.013597475 -0.021777805
0.024798678 0.036231473 0.016669733 -0.04043468 -0.033480354 0.0013385543 -0.00986556 -0.022648375
-0.03871899 -0.037400886 0.040765263 0.004846038 0.025713226 0.0699075 0.016483415 -0.040533304
-0.042222023 -0.010645107 -0.0061000455 -0.05280859 -0.030777546 -0.010919311 -0.020827642 0.003695483
-0.031295277 -0.010005048 -0.02945166 0.022651652 -0.016480323 -0.022984674 -0.019129543 0.036976762
-0.019262787 0.03668184 0.016585281 0.03317607 0.022542208 -0.012535281 0.004995477 0.024528142
-0.0024109709 -0.0013460396 0.006749415 -0.006405745 -0.027955841 -0.05206111 0.0139229465 0.010890095
00000000: b804 443d 20f1 5b3c 7674 cd3c fcbc 84bb
00000010: 5342 393c 9c6e 1dbd de0a 78bd 62af 1bbd
00000020: 91c8 16bc aedc c8bb ebc5 10bb ccae 103d
00000030: 0089 913c b82f 4c3c f4c5 223d 7319 81bc
00000040: 5762 733c 6118 7d3c 0f15 8d3c bb61 ec3c
00000050: 13a8 8dbc 10cc 283d 58e5 82bb a6ed 02bd
00000060: c5e8 1e3c fff1 813c fe4c 94bd 35a4 893c
00000070: 3e2d 01bd 8440 04bc 6ede 32bd d826 853d
00000080: 377c aabc c67c 333d 7282 d5bb 55cb 343d
00000090: c4d3 0aba 75bd b2bc 10c5 103d f04c 09bd
000000a0: a81b cebb 26f3 5b3d ef52 803d 796d bbbb
000000b0: 64d5 d0bc 555e 3a3c 63cf bcbc 623f bf3c
000000c0: d350 45bc 36c7 e33b 708b 2b3d 3ff6 b8bb
000000d0: d8fa 313c d9e7 e23c 06c7 cebc 3543 f7ba
000000e0: f4f0 ae3b c648 2abc c035 e2bb 9501 4a3d
000000f0: 533e 42bc 892e e5bc d70b 813c d555 d1ba
00000100: 69f1 f03c c831 71bc 3980 b939 54ab 183c
00000110: 5be4 5b3c 248a c13a 0784 b03c 97a1 29bd
00000120: bf63 c739 4734 fabc 29ed dd3c 38db 24bd
00000130: 07d2 96bc 4928 db3c b90a 9f3b 66be 23bd
00000140: 5c0b 69bc c151 40bc 633e f6bb 17a4 a4bb
00000150: e512 7c3b 19ec f6bc 5892 4f3d 04ef 403b
00000160: de96 f63c 8456 1abd 2bc9 e5bc 6910 68bb
00000170: 0c87 16bd da53 5b3d bb85 3abd 2e77 03bc
00000180: 9994 25bc 490c 3e3b b0d0 913c 5161 dfbc
00000190: 2006 8ebc 638d b3bc 8881 b33c 571f 45bb
000001a0: d67c 683b 328f 80ba 59a9 c0bc 25b2 ab3a
000001b0: e532 03bc 8131 913c 1079 dfbc 0edc 073d
000001c0: 7d2f 64bc 80f0 edbb ea1e 183d 8ad2 283d
000001d0: 2b73 4cba b17b 1f3c 874c afbc 416b 2bbd
000001e0: 6d55 4d3c 8cbe ecbc e2b7 01bd ab95 003d
000001f0: d356 fdbc 3cde ef3b 11d1 bebc 9a6a a8bb
00000200: 8fd0 3ebc b0c9 21bd 6486 a43c 31dc 6a3c
00000210: b4d6 143d a242 08bd f5c1 91ba 966b e3bc
00000220: 058a 6f3c 8652 ebba b078 4c3d 53a3 703c
00000230: 998a 1cbc 9bcb a7bc bed5 753b 12dc a23c
00000240: 9f68 24bc 882d e9bc 72cb 37bd 187f bdbc
00000250: 9a28 8fbc 4ebe 383d 29fe 4b3b 2812 db3c
00000260: 1f24 9c3b 6719 fd3c 61c9 ca3a 5a9b 8ebc
00000270: f3c2 933b 3c12 533b 49a6 f03b 6235 523d
00000280: 4a6a 043d d518 cb3c 4569 f3bb b2fa 783d
00000290: 5893 293c c686 8fbc 76a2 483d c87e bc3c
000002a0: f81c 7cbc 408b 2a3d 3e38 fabc aa39 353c
000002b0: ea22 06bd dfbd d03c 9898 02bc 1b5e 66bc
000002c0: 7443 82bc 5bb5 4dbb 4e05 55bd cf1b 413c
000002d0: dc89 873c 0dea c6bc 430c b9bc 3234 8b3a
000002e0: 4fd1 d6ba 8882 083d b030 18bc 5f48 9fbb
000002f0: 7c90 9a3c ed42 abbc 3605 43bd 0866 4d3c
00000300: 06e2 f03c 9fe8 273c 8658 17bd 943e 7fbb
00000310: b681 adbc b662 173c c118 23bc cee5 ca3c
00000320: 9d81 b13c 0b2c 953c 90ee f8bc cac1 88bc
00000330: 1f0d 8bbb 8f9a 2139 f2c7 5e3c 5e67 b2bc
00000340: 9926 cb3c 7467 143d f78e 883c d69e 25bd
00000350: b222 09bd 6e72 af3a 28a3 21bc 1689 b9bc
00000360: ce97 1ebd ac31 19bd 7af9 263d 83cb 9e3b
00000370: 8ba4 d23c aa2b 8f3d 3a08 873c 4006 26bd
00000380: 00f1 2cbd d168 2ebc e4e2 c7bb d24d 58bd
00000390: 3121 fcbc e9e6 32bc bb9e aabc eb2f 723b
000003a0: 7a2f 00bd 36ec 23bc 9c44 f1bc f58f b93c
000003b0: be01 87bc 5b4a bcbc 8fb5 9cbc f274 173d
000003c0: fecc 9dbc b23f 163d dbdd 873c a1e3 073d
000003d0: 70aa b83c c760 4dbc 19b1 a33b 3eef c83c
000003e0: 6101 1ebb 986d b0ba 322a dd3b 49e7 d1bb
000003f0: a603 e5bc 083e 55bd 121d 643c 5e6c 323c

fc_mu.bias f4 [24]
-0.052273378 -0.010289902 0.027904825 -0.031584408 -0.0102300495 -0.028102066 0.028477175 0.022710826
0.037156887 -0.0077271317 0.027444892 0.048178926 -0.026689352 -0.0071479543 -0.0009261509 0.024820084
-0.012760812 -0.033542413 -0.010808714 0.022217585 -0.014639361 -0.043519907 -0.042641673 0.009525084
00000000: 9c1c 56bd fa96 28bc a998 e43c a75e 01bd
00000010: f09b 27bc 4e36 e6bc f748 e93c 0e0c ba3c
00000020: d231 183d e133 fdbb 1cd4 e03c 4457 453d
00000030: a1a3 dabc 6339 eabb efc8 72ba 7d53 cb3c
00000040: ba12 51bc c563 09bd 0817 31bc a701 b63c
00000050: eed9 6fbc ee41 32bd 09a9 2ebd 190f 1c3c
