best_autoencoder.pth (torch, 342624 bytes, 16 tensors)

scale f4 [31]
000000 5a 52 75 3f d8 b7 89 3f 4c d9 93 3f 16 bd 74 3f
       0.95828784 1.075923 1.1550689 0.9560102
000010 bc 52 92 3f 5e 27 85 3f 14 ca 88 3f ac 1a 8c 3f
       1.1431499 1.0402639 1.0686669 1.094564
000020 f2 76 9b 3f 3c 0d 8b 3f 3e ec 8c 3f b8 93 8b 3f
       1.2145674 1.0863414 1.1009595 1.0904455
000030 77 79 93 3f cc f5 8b 3f 48 6c 88 3f d3 e6 8f 3f
       1.1521443 1.0934386 1.0658045 1.1242317
000040 22 56 90 3f 1e 94 89 3f 44 92 8b 3f 9a 28 8b 3f
       1.1276286 1.0748327 1.0904012 1.0871766
000050 6d 2e 8e 3f 58 df 94 3f 14 fc 8f 3f a2 9a 90 3f
       1.1107918 1.1630659 1.1248803 1.129719
000060 0c d3 93 3f 32 b9 99 3f b7 7d 94 3f 86 78 92 3f
       1.1548781 1.2009642 1.1600865 1.1443031
000070 da d2 8f 3f 90 ce 63 3f 3a 9f 88 3f
       1.1236222 0.88987064 1.0673592

shift f4 [31]
000000 f5 34 7d 3b f6 6f b8 3c 9a 2d 42 bb d6 94 0e bd
       0.0038636301 0.022514325 -0.0029629231 -0.03480991
000010 47 ea 5d 3c d4 24 f8 bb f5 56 ad 3b 37 1f 88 3c
       0.013544626 -0.0075727496 0.005289907 0.016616447
000020 1e 56 29 3c af c4 3f 3c 07 be a6 bb 85 96 21 bb
       0.010335473 0.011704608 -0.005088571 -0.0024656367
000030 28 83 af bb ea 86 a3 bc 95 64 a7 3b 03 8d b2 bb
       -0.005356211 -0.019961793 0.005108426 -0.005448939
000040 43 d9 19 3b ad 02 cb bc dc 2a 89 bc 52 35 25 3b
       0.0023475445 -0.02478155 -0.01674407 0.0025208783
000050 3b 0b f4 bb b0 c6 94 bc bf ea a3 bb ff 8b 03 bc
       -0.007447628 -0.018161148 -0.005002349 -0.008028983
000060 5d c8 e5 3b 5a 5c 16 3a 1a 19 66 bc 5b f9 fe bb
       0.0070124106 0.00057358074 -0.014044071 -0.0077811903
000070 7f 58 87 bc 4d 42 1c 3c 30 83 30 3a
       -0.01652169 0.009537292 0.00067334156

attention.0.weight f4 [31, 31]
000000 e6 8b ca 3b 44 58 d2 3d 8c 67 f5 3c b2 b3 d4 3d
       0.006181228 0.102707416 0.029956602 0.10385837
000010 9d ac 09 bc 64 6e e7 3c 1a 43 fb bd 3c 0c 0d 3d
       -0.008402971 0.02825088 -0.12268658 0.034435496
000020 48 35 09 bd 35 02 32 3d 7d c7 86 bd a8 b0 86 3d
       -0.03349808 0.043459136 -0.06581018 0.06576663
000030 f1 03 90 3d 96 6c 6b 3d ca 51 99 3d 0d bf 39 bd
       0.07032002 0.057476602 0.07486303 -0.045348216
000040 64 78 b8 bc b8 7a 4d 3d c0 ae 78 3d 2c 4a 2e bd
       -0.022518344 0.05016586 0.06071353 -0.042551205
000050 ab 50 e1 bc 7c df bf 3b bc 70 0c 3e 3c 9a fe 3d
       -0.027504286 0.005855499 0.1371488 0.124317616
000060 41 ff 6d 3c 0c 41 df 3b 64 04 69 3d 58 58 1b bd
       0.014526189 0.006813174 0.056888953 -0.037926048
000070 3a 1c db 3a 29 13 cc bd ba 12 69 3b 83 a1 82 3e
       0.0016716786 -0.09964592 0.003556414 0.2551385
000080 83 fb 29 be 28 41 31 be 09 14 f3 3c 3f 31 a6 3d
       -0.1659985 -0.17310011 0.02967264 0.08114862
000090 d2 e3 23 3e 3a 9d 73 3d db 79 9c bc 75 33 ed bd
       0.16004875 0.059476115 -0.019101074 -0.1158208
0000a0 f2 fe 6b 3d 7b af 9e bd 64 3d 8e bc 64 fa ec 3d
       0.05761618 -0.07748314 -0.017363258 0.11571196
0000b0 c4 95 1d bd 79 7b 4e be d0 ec 3c 3a 54 fa b7 bd
       -0.038472906 -0.20164289 0.00072069187 -0.08983293
0000c0 06 75 88 3d e2 6b b6 bd 2e 3a 23 bd b4 1f 16 3e
       0.066629454 -0.08907296 -0.039850406 0.14660531
0000d0 65 91 0a bd 17 15 aa bd ea 5e df bc bc 9e 6d 3b
       -0.033830065 -0.08304804 -0.027266938 0.0036257943
0000e0 a1 8f 8a 3d fc 04 fa bc b6 9e ee 3d 00 86 68 bd
       0.06765676 -0.030519955 0.116513655 -0.056768417
0000f0 ad 5c 79 be 9d aa c9 bd f7 05 e9 3c 5c 0a a0 3b
       -0.24351759 -0.09846995 0.028445227 0.0048840474
000100 ca c4 b7 3c fc de 85 3b 49 75 15 bb ec b6 aa bd
       0.022432704 0.0040854197 -0.0022805503 -0.08335671
000110 3b 82 95 3b d0 ad 9c 3d 30 69 1c bd 32 35 8e bd
       0.004562644 0.076503396 -0.038186252 -0.0694374
000120 a4 06 ee 3c d6 cc f6 bc 20 2c 20 bd 8a cc 1e bc
       0.0290559 -0.03012697 -0.03910458 -0.009692321
000130 22 df 20 be 03 70 72 3b 8c 7a 8e 3c be 1d 59 3d
       -0.15710118 0.0036993034 0.01739242 0.05300688
000140 6f 73 68 3c c7 ef 43 3c 95 56 0b bd 5e db c6 3c
       0.014187678 0.011959023 -0.034018118 0.024274524
000150 d0 57 bb 3d d2 c5 ca bc 7c 9f 19 3b c0 07 55 3d
       0.09147608 -0.024752531 0.0023441007 0.052009344
000160 5f c4 3a bd de 43 ed bd 3e 85 3d bd 2a e0 c5 3c
       -0.04559743 -0.1158521 -0.046269648 0.024154741
000170 35 40 f0 3b 78 d4 03 be c0 bc d4 3d 4f 3a 8d 3d
       0.007331873 -0.12874019 0.10387564 0.06895887
000180 54 41 cd 3d ee 3b 9e bd ed 47 ce 3c f8 a6 1f 3c
       0.10022226 -0.077262744 0.025180781 0.009744398
000190 9e 27 83 3d 24 66 dd bc 8b 55 74 3d 92 8b a6 bc
       0.06404041 -0.027026244 0.059651893 -0.020330224
0001a0 ed bc 46 bc d4 bf 43 bd 32 d0 15 3d bd a9 d5 bc
       -0.012130004 -0.047790363 0.036575504 -0.026081914
0001b0 e0 75 b1 3d b6 3a 63 3d 9a 1f 87 3c 52 86 34 3d
       0.08665061 0.055475913 0.016494561 0.04407341
0001c0 33 b1 e1 3c 45 ec 7f 3d e8 2c b7 bc 24 2a e8 3d
       0.027550315 0.062481184 -0.02236028 0.11336163
0001d0 3a a6 24 3d fb 26 2f 3d a0 76 94 3d fc af af 3d
       0.04019759 0.042761784 0.072491884 0.08578488
0001e0 f8 a7 90 3c 36 bf 84 bd 72 3f 0d be 51 e4 a9 3d
       0.017658219 -0.06481783 -0.13793734 0.08295501
0001f0 94 3b ec bd be f7 8c 3d fe c4 e5 3d d0 45 03 bc
       -0.11534801 0.068831906 0.11219214 -0.00801225
000200 14 a4 9b bc 88 a6 3e 3d 6e 6a 90 bd d0 1e ad 3d
       -0.018999137 0.046545535 -0.0705155 0.08453143
000210 1b be e3 3c 92 dd 92 3d ef 13 32 bd b4 9d 16 be
       0.02780061 0.071711674 -0.04347604 -0.14708596
000220 9f f9 83 bb d9 5b 41 bd ab da 0c 3d ac cd d7 bc
       -0.00402756 -0.047206733 0.034388226 -0.02634319
000230 fc 11 4b bd 87 73 e6 bb 50 2e 72 bd 0d 34 69 3d
       -0.049577698 -0.007032815 -0.0591262 0.056934405
000240 52 56 46 3d 82 36 ba bb 34 ab c2 bc d0 b0 93 bd
       0.048422165 -0.0056827674 -0.023763277 -0.07211459
000250 ec 44 73 bd 89 7b f7 3c 91 f5 88 bd 6c fc af 3d
       -0.0593919 0.030210273 -0.06687463 0.085930675
000260 10 f5 8d bd 63 29 25 be 6e 9d 1d 3d 01 f2 80 be
       -0.069315076 -0.16129069 0.038480215 -0.25184634
000270 8e 23 3c 3e 46 0c a8 bc 20 df 2f 3e 31 cf ce 3c
       0.18372938 -0.020513665 0.17174959 0.025245281
000280 66 5e d5 3c f0 6d c7 3d e5 46 f8 3d 47 2d 9a 3d
       0.02604599 0.09737766 0.12122897 0.07528167
000290 cd 87 23 3d 2d 09 46 be e4 00 39 3d bc 5c 46 bd
       0.03992443 -0.19339438 0.045166865 -0.048428282
0002a0 db d9 0e 3c b3 a3 bd 3c fa e0 2f bc 2d 98 91 3d
       0.008718933 0.023149347 -0.010734791 0.07109103
0002b0 30 38 b5 3d d4 95 e4 bd 58 e1 f6 bd d3 53 0d be
       0.088486075 -0.1116139 -0.120547 -0.13801508
0002c0 cb 37 84 bd dc 65 8d 3d e1 ce bf 3d 81 75 00 3d
       -0.06455954 0.06904194 0.09365631 0.03136206
0002d0 0b 8d 11 be 88 5c 6d 3c 10 22 05 be 7a b4 b2 bd
       -0.1421396 0.014487393 -0.13001275 -0.087258294
0002e0 70 7e 4f be d6 d3 1f bd 11 3e 9b 3e 74 84 74 bd
       -0.20263076 -0.039020382 0.3032079 -0.05969663
0002f0 50 bd 26 3e 83 c8 30 bd 0e 25 86 3c 8c f4 d0 bd
       0.16283154 -0.043159973 0.01637509 -0.102028936
000300 43 cc 12 bc 62 3d b8 3d a4 b7 7d bc 38 af b8 bd
       -0.008959833 0.08996083 -0.015485678 -0.09017795
000310 eb 5c df bc 66 9b 34 3c 2c 85 eb 3d 12 fc 40 bd
       -0.027265986 0.011023378 0.1150001 -0.047115393
000320 fb 85 6b 3d a7 63 19 3d a6 d7 7b 3d db c0 dd 3d
       0.05750082 0.03744855 0.061484955 0.108278
000330 9e 7a 05 bc 95 41 96 3d a6 36 e1 3d 3a 73 4b bd
       -0.00814691 0.073367275 0.109967515 -0.049670435
000340 64 c3 8c bd 4e d3 2c be 8a a3 25 3e 04 b9 28 3d
       -0.06873205 -0.16877481 0.16175666 0.04119207
000350 d0 6d 68 3d 82 72 52 3e 5c c9 41 3e 44 3c f9 bd
       0.05674535 0.20551494 0.18924469 -0.12169698
000360 40 33 a2 3d 9f ac 94 3c ba 8a 44 be 4a 8d c1 bd
       0.079199314 0.018148718 -0.19193545 -0.09450777
000370 d1 5b 4b 3d c6 2d b0 bc a5 86 93 3d b4 80 50 bd
       0.04964811 -0.021506201 0.07203416 -0.05090399
000380 7b 46 7e bc d2 96 83 3d 6d 9e a8 3d 8a b9 77 bd
       -0.015519734 0.06425251 0.08233342 -0.06047968
000390 e5 1f 56 3d 82 a2 38 bd d0 24 ab bc 03 d9 07 bd
       0.05227651 -0.045076855 -0.020891577 -0.033165943
0003a0 0e 37 dc bd d8 b8 8d bd 06 ae a9 bd 9d 79 a0 bd
       -0.10752688 -0.06920022 -0.082851455 -0.07835696
0003b0 d8 72 06 3d 80 81 c0 bd 00 c5 ea bd 01 5a 6a bd
       0.032824367 -0.093997 -0.11463356 -0.05721474
0003c0 08 e1 3c 3d ee 60 65 bd b2 27 cb bd d8 d9 c8 3c
       0.046113044 -0.056000642 -0.09919681 0.024517938
0003d0 2d 6d 9d 3d 92 aa c0 bd 08 e6 89 3d bf bb 07 3e
       0.07686839 -0.09407534 0.06733328 0.13255213
0003e0 8e 59 ed bd 6c e7 03 be 12 27 d3 3c 05 e0 85 3c
       -0.11589347 -0.12881249 0.025775466 0.016342172
0003f0 34 cb bc bd 9a 77 9c 3d cc 2f 1b bd e9 5e f1 3d
       -0.092184454 0.0764 -0.03788738 0.11785681

attention.0.bias f4 [31]
000000 0e f0 df bc 60 93 1d 3e e3 7b 93 bd 4f 80 81 bc
       -0.027336147 0.1538825 -0.07201364 -0.015808253
000010 f2 dd 58 3e 64 fd ba 3d d7 43 07 be 70 fb 0e 3d
       0.21178415 0.09130362 -0.13209473 0.03490776
000020 1b 10 d3 bc 54 de 25 bd 8e 8e 2d bc b9 11 db 3d
       -0.025764516 -0.04049523 -0.01059307 0.1069674
000030 7c 8e 31 be be 2f 64 be 8e ed 84 be 5a e4 4c 3d
       -0.1733951 -0.22283837 -0.2596249 0.05002246
000040 7c 77 17 3d 2a f9 c8 bd 47 78 1c be 6c 5e 51 be
       0.036979184 -0.09813149 -0.15280257 -0.20446175
000050 cd ba b2 3d d6 19 40 be 5e fa 6d bd 8e e7 81 3c
       0.08727036 -0.18759856 -0.058100097 0.015857484
000060 ba ba 2b b9 b6 84 35 3d 5a d8 b2 bd 0c 73 1f 3d
       -0.00016377392 0.044316016 -0.08732672 0.038928077
000070 38 e8 27 3d 07 51 8d bd 91 29 00 3d
       0.040992945 -0.0690022 0.03128964

encoder.0.weight f4 [256, 31]
000000 92 da a7 bd 73 ca db bb 66 ac 7f be 90 44 22 3e
       -0.08195986 -0.0067074834 -0.24968109 0.15846467
000010 73 ea ce bd 43 dc 4d bd 1a 42 45 3c 4e ae 42 3d
       -0.101033114 -0.050258886 0.012039686 0.04752951
000020 de 97 a4 3b 18 19 76 bd 8c 04 6b be 5a cb 8c 3d
       0.005022987 -0.060082525 -0.22950953 0.06874724
000030 16 f0 52 bd d7 a9 46 3c bc 0f 97 bd bc 26 97 3c
       -0.051498495 0.012125454 -0.07376048 0.018451087
000040 7f ae 2b be 56 a7 14 bd a7 42 b1 bd 5b ab 82 bc
       -0.16765784 -0.036292396 -0.08655291 -0.01595085
000050 78 bb 03 3e 22 c0 91 bd ea 51 1a bd 73 f3 ee 3d
       0.12864482 -0.071167246 -0.037675776 0.11667528
000060 b6 99 52 3c a0 7a e8 3c 5d 3e e0 3d ef 39 02 bd
       0.01285403 0.028378785 0.10949395 -0.03179353
000070 8d 44 05 bc 5c c5 ba bd ce 5b 70 3b 69 d8 ac 3d
       -0.00813402 -0.091196746 0.0036675814 0.084397145
000080 8a 15 0a be 69 09 60 3d c2 f2 d7 3d c6 66 fd 3d
       -0.13484779 0.054696474 0.10544349 0.12373118
000090 30 70 a2 3d 43 17 b2 39 68 b8 80 3e 02 02 20 be
       0.07931554 0.00033968137 0.2514069 -0.15625766
0000a0 42 68 f7 bd dc a0 fc 3c 30 06 0f be 8c ad ef 3d
       -0.120804325 0.030838422 -0.13967204 0.11703023
0000b0 0d 8c 5d 3d fa 9a 0a 3d 4d fd dc 3d 16 e9 14 be
       0.05408864 0.033839203 0.10790501 -0.1454204
0000c0 82 e9 70 bd e9 64 85 bd 7a 84 0f 3d 40 1e c7 3d
       -0.05881644 -0.06513388 0.03503845 0.097225666
0000d0 e2 33 59 bd c2 f2 00 3e ac 43 eb bd 74 c9 33 be
       -0.053027995 0.12592605 -0.11487517 -0.17557317
0000e0 e4 b5 f6 3d 26 c0 98 bc ac 8e 95 3d 24 f8 0a 3e
       0.12046412 -0.018646311 0.07302603 0.1357122
0000f0 7e 64 e1 bc 2a e1 af 3d ec e2 6d bd be 4d 31 be
       -0.027513739 0.085878685 -0.058077738 -0.17314813
000100 a7 b3 31 be 10 14 2a bd a2 06 03 3e a9 91 b1 bc
       -0.17353688 -0.04152304 0.12795499 -0.021675901
000110 b2 8d 19 3e de 6f 02 be a7 75 24 be 94 60 5b be
       0.14995459 -0.12737986 -0.16060506 -0.2142356
000120 36 9a fa 3d 7b 5d 0d 3d b2 2f 0f be 04 47 8d 3d
       0.12236445 0.034512978 -0.13983038 0.06898311
000130 de bc 12 3e 49 6e 7e 3c 54 48 18 be 38 16 bd 3d
       0.1432986 0.015529224 -0.14871341 0.092327535
000140 24 6a 97 3d 80 59 f3 bd f0 ad 1c 3d 94 49 0c 3e
       0.073932916 -0.11882305 0.038251817 0.13699943
000150 ba b3 1b 3e ce 54 32 bd 93 98 9f bd 5e e4 74 bd
       0.15205279 -0.043537907 -0.07792773 -0.0597881
000160 bc f6 f3 3b 31 20 86 bd c0 9e d5 bd 4c 9a 40 be
       0.0074451845 -0.06549109 -0.1043067 -0.1880886
000170 6c 3a 33 3d a4 5b 04 be 3e 4c e8 3d de 94 28 3e
       0.043756887 -0.12925583 0.11342667 0.16463038
000180 d4 10 25 3e d6 31 42 bd 29 af 7d 3d 32 18 11 3d
       0.161197 -0.04741081 0.061934624 0.035423465
000190 b4 d5 7c 3d 94 a8 e2 3d 13 22 c9 bd e7 36 f1 3d
       0.06172724 0.1106731 -0.09820952 0.1177805
0001a0 3e 32 a4 bd fe af a9 bc b6 24 d6 bb 2e 74 83 3c
       -0.080173954 -0.020713802 -0.006535138 0.01604661
0001b0 2e f4 bc bd dc f2 bf bd 5e 8f dd bc ea 5e e6 bd
       -0.09226261 -0.093724936 -0.027045902 -0.11248572
0001c0 64 85 08 be a9 06 f4 3d 92 98 53 3d 89 24 8b bc
       -0.13332134 0.11915333 0.051659174 -0.016985195
0001d0 48 a2 94 bd f6 b0 9c 3d 8e 63 12 be 9f 07 46 be
       -0.07257515 0.0765094 -0.1429579 -0.19338845
0001e0 21 8c 8e 3d c4 1b 3d be 8d 52 1f bc 20 b8 ec 3c
       0.06960321 -0.18467623 -0.0097242715 0.028896391
0001f0 18 fb 4a be 6a b2 2c 3e 8c 38 ed bd 54 a8 59 bd
       -0.19822347 0.16864935 -0.11583051 -0.053139046
000200 9a b6 07 3d 12 f2 9b 3d 84 4b 01 be d0 24 3c 3d
       0.033133127 0.076145306 -0.12626463 0.045933545
000210 3f 68 1e bd af 19 f8 3c 28 42 19 3d 75 73 06 be
       -0.038673636 0.030285684 0.037416607 -0.13129981
000220 87 d5 48 be 63 41 01 bc f9 2a 4b 3d da ab d8 b9
       -0.19612704 -0.007889125 0.04960153 -0.0004132677
000230 d0 9a 99 bb a2 ac 81 3d cc ee 5f bd b8 ed 8c bd
       -0.0046876445 0.06331755 -0.054671094 -0.06881279
000240 f6 14 8c 3c 63 1a 4d bd 93 a9 a9 3d bc 78 13 be
       0.017099839 -0.050073992 0.08284297 -0.14401525
000250 6a 4d 7d 3d 20 29 14 3e bb 30 81 bc 32 23 7e be
       0.061841406 0.14468813 -0.015770307 -0.24818113
000260 56 55 ca bd 69 1f 05 be da 77 9a bd 6e f8 44 3e
       -0.09879558 -0.13000263 -0.07542391 0.19235393
000270 28 f2 a3 3d d2 f4 1f be 0a b0 d8 bd 9b 9d 62 bb
       0.08005172 -0.15620735 -0.10580452 -0.0034578803
000280 66 65 e4 bd a8 84 25 be f2 a9 28 3e e0 45 af 3d
       -0.11152153 -0.16163886 0.16471079 0.085582495
000290 22 9b 62 3d 81 01 de bd e1 39 70 bc a1 c1 77 38
       0.055323727 -0.108401306 -0.014662237 5.906972e-05
0002a0 05 92 f4 3c 20 27 25 be 94 0f 11 be 54 bf 2b 3e
       0.029854784 -0.16128206 -0.14166099 0.16772205
0002b0 e4 52 99 bc 74 6d 2f bd 18 19 cc 3d 68 3e fb bb
       -0.018716283 -0.042828992 0.09965724 -0.0076673515
0002c0 a6 32 fc 3d 64 44 75 bd 28 56 b7 bd 42 f7 d8 bd
       0.12314348 -0.059879676 -0.0895198 -0.10594036
0002d0 3a a6 e7 3d a6 e6 67 bc 32 f9 85 bd d2 3b 59 be
       0.11311002 -0.014154112 -0.06541671 -0.21214226
0002e0 54 e6 fc 3d 57 72 97 bc 3c a0 18 3d e8 d8 0e be
       0.12348619 -0.018487139 0.037262186 -0.1394993
0002f0 55 be 1a 3e e9 b2 88 be 54 53 4a 3c 8d b5 8a 3d
       0.15111668 -0.26698998 0.012348969 0.06772909
000300 34 71 b6 3d 10 f1 4b 3e 28 d6 19 3e a7 26 dc bc
       0.089083105 0.19916177 0.150231 -0.0268739
000310 6a 14 23 be 1a 6a 5b bd b8 60 bf bd fc e2 27 3c
       -0.15925756 -0.053567983 -0.093446195 0.010246988
000320 1c ce e5 bd f2 9f f0 bd c4 48 48 bd 2c 56 11 3d
       -0.11220953 -0.11749257 -0.04889752 0.03548257
000330 66 b5 c1 3c 73 e1 80 3d d7 0a f2 3d 8b f0 ac 3d
       0.023646068 0.06293001 0.11818474 0.084443174
000340 bc 47 9f bd 11 da f9 bd 7e 82 32 3d e2 20 3e be
       -0.07777354 -0.12199796 0.04358148 -0.18567231
000350 cc 7a a7 3b 9a 03 a7 bd ea 2a db 3c 8c 49 98 3d
       0.005111074 -0.08154984 0.026753861 0.07435903
000360 7a a4 11 bd 9e e9 83 3e 78 fe 29 be 29 6c 3a be
       -0.035557248 0.25764173 -0.16600978 -0.18205322
000370 6a c2 50 bd 7c 1b f5 3d d2 7f e4 3d fa 9e 71 3d
       -0.050966658 0.11968133 0.11157192 0.058989502
000380 f8 6c 06 3e 02 54 cb 3d fd 1a 79 3d 05 1e 3e bd
       0.13127506 0.099281326 0.060816754 -0.046415348
000390 2e 9e 9d bd 82 16 c1 bd bf 61 6d bd a5 08 34 be
       -0.07696186 -0.09428121 -0.057954546 -0.17581423
0003a0 ae b6 3b 3e 9c c9 ac 3d 16 06 6a bd 9e aa f4 bd
       0.18331406 0.084368914 -0.05713471 -0.11946605
0003b0 86 f5 86 3c aa 53 65 bc 6c 5b 17 3c b8 bb a2 3d
       0.016474497 -0.013996998 0.009238105 0.07945961
0003c0 44 54 b1 3d c6 e7 e1 3d 4a 87 fd 3d 0c d9 c4 bd
       0.086586505 0.110305354 0.1237932 -0.09611711
0003d0 e8 6b 8a 3d 5e 47 fb bc 9c 12 a5 3c 58 1c 3b bd
       0.06758863 -0.030673679 0.020150475 -0.045681328
0003e0 3c a1 30 3e f6 34 22 3d e0 2c 17 3e 10 ca b8 3d
       0.17249006 0.03960129 0.14763212 0.09022915
0003f0 ae 05 22 3e 93 a8 4e bb c1 09 4d bc f3 f7 2c 3e
       0.15822479 -0.0031533584 -0.012514533 0.1689146

encoder.0.bias f4 [256]
000000 60 c3 83 bc 5e 87 7a 3d 90 87 c9 bc 49 f6 9d bd
       -0.016084373 0.061164252 -0.024600774 -0.07712991
000010 2e cb 47 bc fa 11 8e bd c8 2d c6 3d 52 69 b1 3b
       -0.012194438 -0.069370225 0.09676701 0.0054141665
000020 9c 26 05 3e 5e e3 87 bd 67 d7 a7 3c 66 a5 8b 3d
       0.1300301 -0.06635164 0.020488454 0.068186566
000030 63 92 cd 3c b6 4b 2a 3e ba 88 ad 3d 84 4f 0d 3d
       0.025094217 0.16630444 0.08473344 0.03449966
000040 58 e2 44 3e 09 c2 1e 3d b8 b6 b8 3d cc 14 3a 3e
       0.19226968 0.038759265 0.09019226 0.18171996
000050 6c 0a 78 3e eb 6e 4e 3e ea 1d 46 bd 10 9a 37 bd
       0.24222726 0.201595 -0.048368372 -0.04482466
000060 c9 a6 bb 3c 92 5e 96 bd 70 ba b2 3b 24 5e 20 3d
       0.022906678 -0.073422566 0.005454354 0.03915228
000070 5c ce 91 3d c0 f4 20 3e de 8c e2 bd e6 c1 9b bd
       0.07119438 0.15718365 -0.110620245 -0.076053426
000080 a2 a0 89 3d 70 fa 4b 3e 4c c3 ac bd ec fc 7d 3d
       0.067200914 0.19919753 -0.084356874 0.062008783
000090 1d 09 a6 bc 72 c1 b7 bc 8c 92 d4 bc 9c 55 f2 3c
       -0.020268017 -0.02243111 -0.025948785 0.029581837
0000a0 c2 92 8c 3e 1b b8 d3 3d 10 85 7e 3d c4 ce ad 3c
       0.27455717 0.1033785 0.062138617 0.021216758
0000b0 cc 45 39 3e 98 9b 5a 3c 2c d4 a1 bd f8 91 27 3e
       0.18093032 0.0133427605 -0.07901797 0.16364276
0000c0 ee af b8 3d 8a 67 0f 3e 6c 5a 40 3e cd 17 ac bc
       0.09017931 0.14004341 0.18784493 -0.021007443
0000d0 57 11 2a 3e 0c 0c 88 bd 3f 73 5b 3d d7 12 e6 3d
       0.16608177 -0.06642923 0.053576704 0.11234062
0000e0 fa c0 d7 3d 01 aa b2 bd 4a 3f 91 3e aa 5b 7d 3d
       0.10534854 -0.08723832 0.28368598 0.061854996
0000f0 f1 b1 4f 3e 6e 5e 96 3d b7 37 8e 3e 35 8b 2e bd
       0.20282723 0.0734223 0.27776882 -0.042613227
000100 99 55 e4 bd 64 0e 43 be d2 3d 76 3e 9a 21 78 bd
       -0.11149139 -0.19048458 0.2404702 -0.06057892
000110 16 00 3e 3d 14 8d 41 3e 25 af 23 3e 61 6b ae 3d
       0.0463868 0.18901473 0.15984781 0.08516575
000120 5e 3a 1b bd a5 e9 41 3e 56 ff 82 3e 4c 73 a9 3d
       -0.03789746 0.18936785 0.2558543 0.08273944
000130 d9 b9 1e 3c 92 c1 c5 3d ef 97 fb 3c 83 70 2a 3d
       0.009687864 0.09656061 0.030712096 0.041611206
000140 d1 b4 bb 3d cc cb 04 3c 57 e9 98 3c 1f 39 3d bd
       0.09165347 0.00810523 0.018665953 -0.046197053
000150 23 d3 e5 3d 66 e0 a7 3d 63 83 0a 3c 44 c5 34 3e
       0.11221912 0.081970975 0.008454177 0.17653376
000160 54 08 20 3e da 6a e6 3d f3 ac 28 3c a6 e4 76 bc
       0.15628177 0.11250849 0.010295141 -0.0150691625
000170 8c b4 fe ba 1c 75 ae 3d 14 a7 f6 bc da 99 01 3d
       -0.0019432469 0.085184306 -0.030108966 0.031640865
000180 51 ed 94 bd 5e d0 06 be 58 4c 28 3d 5b 42 15 bd
       -0.07271827 -0.13165423 0.041088432 -0.036440235
000190 1a 5d 2c 3e 5e 86 70 3e dc 00 0e be c1 83 31 3d
       0.1683239 0.23488757 -0.13867515 0.04333854
0001a0 c1 d9 de bb ce fa b9 bc 39 df 42 3e 6e 0a 4e 3e
       -0.0068008606 -0.0227026 0.19030465 0.20121166
0001b0 03 d3 b7 bb 67 64 8b 3d a0 a6 88 3d 85 23 84 3d
       -0.0056098714 0.068062596 0.06672406 0.06452087
0001c0 48 79 42 be 7f 82 b2 3c f2 3c 76 3e f6 76 52 3e
       -0.18991578 0.021790741 0.24046686 0.20553192
0001d0 37 74 bb 3d a6 92 59 3e 22 1e dd 3d 66 57 2d 3e
       0.091530256 0.21247348 0.10796763 0.16927871
0001e0 c6 41 95 bd f8 47 5b bd d1 ce 8a 3d b8 1e 2d 3d
       -0.07287936 -0.05353543 0.06777728 0.042265624
0001f0 cb 3e f2 bc 44 ba cb 3d 9c 4a 86 bd 26 ec 19 be
       -0.029570958 0.09947637 -0.06557199 -0.1503149
000200 a4 7f 97 3e 10 5e 28 3e 22 e1 99 3e 6a f5 0c 3e
       0.2958957 0.16442132 0.30054575 0.13765493
000210 96 d3 f8 3d 3a 5c dc 3d c2 85 ab 3d 6c dc 8a 3e
       0.12149732 0.10759778 0.08375122 0.27121294
000220 34 cf c1 3d e6 46 2f 3e 09 76 d7 bc c1 db 15 be
       0.09463349 0.1711689 -0.0263014 -0.1463461
000230 da 49 18 3d 80 38 03 3e ed ad 85 3c a4 56 07 3e
       0.037179805 0.12814522 0.016318286 0.13216645
000240 4d b1 c5 3d f2 3b 0b be 74 a0 eb 3c 8a 09 71 3e
       0.09652958 -0.13597086 0.028763033 0.23538795
000250 87 dc 56 3e c5 99 64 bc 1e 9e 0b 3e bc a5 14 be
       0.20982562 -0.013952677 0.13634536 -0.14516348
000260 88 7b 38 3d 61 f6 76 3e 76 7a 50 3e 70 e5 a9 3d
       0.045039684 0.24117424 0.20359215 0.08295715
000270 60 e0 42 3e 24 a0 2a bd 97 27 e9 3d e7 d5 99 bc
       0.19030905 -0.04165663 0.11384504 -0.018778754
000280 62 f6 96 3c 82 63 bb 3d 64 b3 6c 3e 18 fb a5 3b
       0.018428031 0.09149839 0.23115307 0.005065333
000290 2c 01 a7 bd f0 94 0f 3e 77 81 ef 3c 10 db 2e 3e
       -0.081545204 0.14021659 0.029236538 0.17075753
0002a0 fa 90 aa 3d fe 17 c6 3d 81 b8 87 3e df da d5 3d
       0.08328433 0.09672545 0.26507953 0.10442137
0002b0 82 83 02 3e 50 f0 8e 3e 5f 39 64 bd c2 93 43 bc
       0.12745479 0.2791772 -0.055718776 -0.011937084
0002c0 9b b7 60 bc ec c5 2f 3d 98 76 d8 3d 6c cc 33 be
       -0.01371565 0.042913362 0.10569495 -0.1755845
0002d0 82 07 31 3e 69 5d bb 3b 32 e3 34 bd 90 80 2b bd
       0.1728802 0.0057179225 -0.044161983 -0.041870654
0002e0 f6 3b c2 bd 18 43 de 3d 0f dc 7a 3e ec 1c 5a 3d
       -0.09484093 0.10852641 0.24498008 0.05325024
0002f0 8c 7c 4f 3d 56 58 0c 3e 84 b1 02 3e 02 fc 44 3d
       0.050655887 0.13705572 0.1276303 0.048091896
000300 34 f9 a0 3d cf 0f 73 bc 2c a8 76 3e 68 da 36 3e
       0.07860032 -0.014835312 0.2408759 0.17856753
000310 72 f7 d6 3d 41 84 d0 bc 08 91 07 be 29 17 26 3e
       0.10496415 -0.025453689 -0.13238919 0.16219772
000320 b1 46 91 bd 0a f6 bd 3c ae 7d ab bd a8 7d 4d 3d
       -0.070935614 0.02318861 -0.08373581 0.050168663
000330 32 e6 d6 bd 7e ff 50 be 85 24 ee bd a7 e7 b8 3b
       -0.10493125 -0.20409963 -0.11628059 0.0056428495
000340 bb ce 91 b9 da bb 9a bd 38 98 03 bd b2 ec 79 3d
       -0.0002781058 -0.07555361 -0.03212759 0.061016746
000350 dc 9f 5a 3e b9 75 fe bd 24 04 e1 3c 0b 03 24 3e
       0.21350044 -0.124247976 0.027467795 0.16016786
000360 1c 95 f6 bc b0 e8 7b 3e 3f c2 25 3d 23 dc 8f 3c
       -0.030100398 0.24600482 0.04046845 0.017561024
000370 92 db 23 3e 4e e3 73 bd 18 26 63 bd 3e 71 86 3d
       0.16001728 -0.059542947 -0.05545625 0.06564568
000380 c4 85 3f 3e e9 03 9f bc 0e 7e 8b 3e d5 84 a4 3b
       0.18703371 -0.019411044 0.2724461 0.0050207176
000390 0b 95 76 be 4a 7a c8 3c 3f 56 c1 bd ce ff 41 3e
       -0.24080293 0.024472374 -0.09440278 0.18945238
0003a0 69 a3 86 bc e2 8b e7 3d fa 1f ec 3d e4 b4 19 be
       -0.016435342 0.113059774 0.115295365 -0.1501041
0003b0 62 50 5a 3e 35 7d aa bb c7 8b 43 3e 86 a9 41 3e
       0.21319726 -0.005202914 0.1909629 0.18912324
0003c0 04 88 2c bd f6 8e 04 3e a6 c1 d2 3d fa 88 8e 3d
       -0.042121902 0.1294516 0.10290842 0.0695972
0003d0 c0 32 02 3e 20 09 49 3c a2 40 28 bd d3 ab ee bd
       0.12714672 0.012270242 -0.041077264 -0.116538666
0003e0 66 5d b8 bd 90 3a 38 bc d8 7b 65 3e e4 bb 11 3e
       -0.09002189 -0.011244431 0.22410524 0.14231831
0003f0 12 0e 27 3e 50 10 62 3e a2 39 81 3d 04 ef 5d 3d
       0.16313961 0.22076535 0.06309821 0.05418302

encoder.2.weight f4 [256]
000000 ce fd 7c 3f c4 c1 84 3f a4 20 75 3f e4 18 7f 3f
       0.98824775 1.0371633 0.9575293 0.99647355
000010 be 40 7a 3f a0 2b 84 3f 9c ec 88 3f ea c5 82 3f
       0.9775504 1.0325813 1.0697207 1.0216649
000020 08 33 83 3f a8 82 7e 3f dd 94 81 3f 9e b0 83 3f
       1.0249949 0.99418116 1.0123554 1.0288274
000030 fe 3c 84 3f ac ae 83 3f d2 8e 82 3f 0e f6 7e 3f
       1.0331113 1.0287681 1.0199835 0.995942
000040 ff 16 83 3f 77 35 80 3f 01 b4 82 3f 3d 0f 84 3f
       1.0241393 1.0016316 1.0211183 1.031715
000050 82 bb 87 3f 82 af 83 3f c2 b0 75 3f 12 15 7a 3f
       1.0604098 1.0287936 0.95972836 0.976884
000060 fa ef 86 3f 80 96 82 3f 31 74 80 3f 00 a3 86 3f
       1.0541985 1.0202179 1.0035459 1.0518494
000070 3f f2 81 3f 20 2d 85 3f aa 66 7f 3f 7e 4a 80 3f
       1.0152053 1.0404396 0.9976603 1.0022733
000080 cc 9d 81 3f 5c 63 85 3f 80 8f 7a 3f 4d 1a 82 3f
       1.0126281 1.0420947 0.97875214 1.0164276
000090 06 85 81 3f 64 09 81 3f 4f a8 81 3f 3e 2d 80 3f
       1.011872 1.0080991 1.0129489 1.0013807
0000a0 2c 1a 83 3f a8 b8 84 3f 39 7c 81 3f 00 1b 82 3f
       1.0242362 1.0368853 1.0116035 1.016449
0000b0 64 24 89 3f f2 c9 83 3f 06 9a 84 3f b6 48 83 3f
       1.071423 1.0296004 1.0359504 1.0256565
0000c0 b4 70 80 3f 76 fd 83 3f ac a9 7e 3f 6c 2d 81 3f
       1.0034394 1.0311725 0.9947765 1.0091987
0000d0 62 b6 85 3f ac a3 80 3f dc 2f 7f 3f 67 e7 84 3f
       1.0446284 1.0049949 0.996824 1.0383118
0000e0 90 bb 84 3f 14 bc 7d 3f 61 73 80 3f 72 73 85 3f
       1.036974 0.9911511 1.0035211 1.0425856
0000f0 5c 08 85 3f 1e 77 84 3f 86 f3 84 3f 3a 25 78 3f
       1.0393176 1.0348852 1.0386817 0.96931803
000100 f6 df 70 3f 56 a9 85 3f e0 93 86 3f d0 5d 6c 3f
       0.9409174 1.0442302 1.0513878 0.92330647
000110 d6 2f 85 3f f6 db 81 3f 5c f9 85 3f e4 17 84 3f
       1.0405223 1.0145252 1.0466723 1.0319791
000120 3b 71 81 3f 6e d6 84 3f 54 36 7b 3f 4a 78 82 3f
       1.011268 1.0377939 0.98129773 1.0192959
000130 ee 87 80 3f 40 f6 80 3f 7c a5 83 3f 4e 1e 87 3f
       1.0041482 1.007515 1.0284877 1.0556123
000140 28 4f 81 3f 86 7d 77 3f 86 be 83 3f a3 0f 7f 3f
       1.0102282 0.9667591 1.0292518 0.99633235
000150 55 25 80 3f f6 11 82 3f 79 4b 82 3f 12 cb 86 3f
       1.0011393 1.0161731 1.0179282 1.0530722
000160 1e 6e 89 3f f0 3a 88 3f c6 9c 83 3f e2 99 84 3f
       1.073673 1.0642986 1.0282218 1.0359461
000170 68 a7 79 3f 6d 8a 85 3f 16 cc 80 3f 6e 04 7c 3f
       0.97521067 1.0432869 1.0062282 0.9844426
000180 8f 23 82 3f 56 5b 7e 3f 58 ee 84 3f 2e 31 85 3f
       1.0167102 0.9935812 1.0385237 1.0405633
000190 ee a4 83 3f 0e 6e 83 3f 50 dd 82 3f 68 a2 84 3f
       1.0284708 1.0267961 1.0223789 1.0362062
0001a0 1c 34 7b 3f 18 33 82 3f ce 15 82 3f 82 2a 82 3f
       0.9812639 1.0171843 1.0162904 1.0169222
0001b0 60 24 83 3f 70 3b 7f 3f 11 66 83 3f 10 7b 84 3f
       1.0245476 0.9970007 1.0265523 1.0350056
0001c0 20 c9 82 3f d8 8e 84 3f 6b c1 81 3f 33 b4 80 3f
       1.0217628 1.0356092 1.0137151 1.0054992
0001d0 6b 18 83 3f 71 ad 84 3f fa 44 81 3f 16 93 84 3f
       1.0241827 1.036543 1.0099175 1.0357387
0001e0 76 c9 6e 3f 08 e2 80 3f be 66 7c 3f fa 09 7d 3f
       0.93276155 1.0068979 0.9859427 0.9884335
0001f0 80 81 83 3f fe f7 82 3f 36 82 7f 3f f6 22 7b 3f
       1.0273895 1.0231931 0.9980806 0.9810022
000200 bc 8b 86 3f e2 40 86 3f c3 1e 84 3f 54 73 81 3f
       1.0511394 1.0488551 1.0321888 1.011332
000210 d3 5d 84 3f d0 7c 82 3f 70 22 80 3f ff b3 85 3f
       1.0341133 1.019434 1.001051 1.0445555
000220 31 76 80 3f a4 de 85 3f 2c ec 81 3f df 19 83 3f
       1.0036069 1.045857 1.0150199 1.024227
000230 dc 82 84 3f 9c 82 82 3f bd 88 7b 3f 1a ed 80 3f
       1.0352435 1.0196109 0.9825552 1.0072358
000240 20 68 83 3f a8 54 6e 3f 5f e8 72 3f 30 63 86 3f
       1.0266151 0.93097925 0.9488582 1.049902
000250 56 0b 88 3f 70 39 83 3f f8 bd 82 3f 98 8c 80 3f
       1.062846 1.0251904 1.0214224 1.0042906
000260 8e de 80 3f 16 06 86 3f 04 69 7e 3f 1e e8 80 3f
       1.0067918 1.0470607 0.9937899 1.0070837
000270 27 0f 86 3f 22 e5 82 3f 81 da 7f 3f 10 75 81 3f
       1.0473374 1.0226176 0.99942786 1.011385
000280 34 34 82 3f 54 94 85 3f f4 86 83 3f 15 85 87 3f
       1.0172181 1.0435891 1.027556 1.0587488
000290 74 56 7f 3f 9a ce 87 3f f5 cb 80 3f 1b a0 84 3f
       0.9974129 1.0609925 1.0062243 1.036136
0002a0 e2 a2 82 3f 63 78 81 3f 06 b9 8a 3f 7e e1 86 3f
       1.0205958 1.0114864 1.0837715 1.0537565
0002b0 b6 e5 80 3f a8 1e 83 3f 5a 39 7b 3f 3a f4 83 3f
       1.0070102 1.024373 0.98134387 1.0308907
0002c0 64 5f 82 3f 7c 6f 82 3f 64 8b 86 3f 8d 1b 79 3f
       1.0185361 1.0190272 1.0511289 0.97307664
0002d0 f8 55 81 3f 50 35 77 3f 36 0b 84 3f 3f 2a 83 3f
       1.010436 0.96565723 1.0315921 1.0247267
0002e0 2e 9b 79 3f 88 e4 85 3f 90 27 82 3f 17 15 80 3f
       0.9750241 1.0460367 1.0168324 1.0006436
0002f0 a6 9d 81 3f 22 08 83 3f 44 36 8a 3f 10 fc 80 3f
       1.0126235 1.0236857 1.079781 1.0076923
000300 66 da 83 3f c4 d5 82 3f 96 a0 84 3f e6 be 84 3f
       1.0301025 1.0221486 1.0361507 1.0370758
000310 fe 27 89 3f 8b ab 82 3f c0 2f 84 3f e6 ec 85 3f
       1.071533 1.0208601 1.0327072 1.0462921
000320 d4 04 7f 3f 31 0b 7c 3f 9c d2 80 3f 92 e8 80 3f
       0.9961674 0.98454577 1.0064273 1.0070975
000330 cf c0 84 3f df 8e 7b 3f 6e 18 78 3f 09 d3 80 3f
       1.037134 0.9826488 0.96912277 1.0064403
000340 8a b2 8a 3f c0 b9 80 3f 7c 03 82 3f ab b4 81 3f
       1.0835736 1.0056686 1.0157313 1.013326
000350 6e 66 80 3f 4a 15 7c 3f 66 1b 82 3f 98 32 86 3f
       1.0031259 0.98469985 1.0164611 1.048419
000360 ee 01 83 3f 4e d6 86 3f 9f 5d 80 3f 37 50 82 3f
       1.0234964 1.0534151 1.0028571 1.018073
000370 62 f6 82 3f 30 a6 85 3f 80 d6 81 3f 9d 34 80 3f
       1.023144 1.0441341 1.0143585 1.0016056
000380 e8 09 85 3f 9a 9c 86 3f 7d c2 88 3f 7b 51 82 3f
       1.0393648 1.0516541 1.0684353 1.0181116
000390 3c a8 6e 3f a0 7e 85 3f 70 37 7a 3f 7e 0e 85 3f
       0.93225455 1.0429268 0.9774084 1.0395048
0003a0 56 3b 81 3f 5c 0a 80 3f 52 80 83 3f ca b4 81 3f
       1.0096233 1.0003161 1.0273535 1.0133297
0003b0 de 9a 89 3f ba 52 7f 3f 02 a7 85 3f e2 59 83 3f
       1.0750387 0.99735606 1.0441592 1.0261805
0003c0 f2 66 83 3f 9a c4 75 3f 68 14 86 3f 8e 02 83 3f
       1.0265791 0.96003115 1.0474977 1.0235155
0003d0 a8 b2 84 3f e6 42 84 3f 24 82 81 3f 3d cd 7f 3f
       1.0367022 1.0332916 1.0117841 0.99922544
0003e0 49 b5 84 3f 8c 68 82 3f c1 a7 84 3f ed 3d 86 3f
       1.0367824 1.0188155 1.0363694 1.0487648
0003f0 1e 37 85 3f 92 ee 80 3f 27 6a 86 3f 36 f2 81 3f
       1.0407445 1.0072806 1.0501145 1.0152042

encoder.2.bias f4 [256]
000000 b0 f2 84 bc 4e 98 96 bd 80 9a 4e bd e0 bd b9 3c
       -0.016229004 -0.073532686 -0.05044031 0.022673547
000010 9e 47 71 3d 2c b4 7c bd 41 ae 6f bc 43 9a f2 bb
       0.05890619 -0.061695263 -0.014628948 -0.0074036433
000020 0a 50 ac 3b 36 78 11 bd 48 3c 7c bd 50 86 4f bb
       0.005258565 -0.035515033 -0.061580926 -0.003166575
000030 9c 07 83 bd c5 01 2f bd 62 6c 80 ba 06 d5 87 3d
       -0.06397936 -0.042726297 -0.0009797926 0.06632428
000040 32 b6 37 bc 32 59 83 bc 90 8f 0b be 11 98 21 bd
       -0.011212872 -0.016033743 -0.13628983 -0.039451662
000050 4f 2f 95 bc b9 cf 41 3c 4d fc 14 3c a2 8a 92 bd
       -0.018211035 0.01182931 0.009093356 -0.07155348
000060 21 5b 89 bc 8c b5 9c bd d0 80 db bd 4d 15 d7 bc
       -0.016767086 -0.07651815 -0.107179284 -0.026255274
000070 0c 53 53 b9 db ac 3c bd 13 a1 f2 bc d4 49 85 3c
       -0.00020153465 -0.046063285 -0.029617822 0.016270556
000080 b5 d2 83 bd a8 c2 dd bc 30 f3 fc 3d 96 c5 73 bd
       -0.064366736 -0.027070358 0.12351072 -0.059514605
000090 23 65 56 3c 52 a4 c8 bc 7e ec 78 bd dc c0 a5 bd
       0.013085636 -0.024492417 -0.06077241 -0.08093426
0000a0 31 b6 9d 3c 2a c4 46 3d 67 a9 ee bd 82 6b 65 39
       0.019251915 0.04852692 -0.11653405 0.00021879192
0000b0 72 0f 20 3d 64 f3 cb bc 3c 07 8e 3b 9c b0 99 bc
       0.03907723 -0.024896331 0.0043343585 -0.018760972
0000c0 ee 19 1c 3d 5a 50 c3 bd be 9d cb bb d1 78 0d bd
       0.038110666 -0.0953681 -0.0062138727 -0.034539048
0000d0 f2 94 6a bd d3 d2 8d 3b 5e e0 94 bd ac b1 75 3c
       -0.05727095 0.0043281107 -0.07269357 0.014995974
0000e0 2e 49 bd bb a0 fb c1 bc 4b 1b 16 bd 92 c2 1a 3d
       -0.005776546 -0.023679554 -0.036647122 0.037783213
0000f0 b3 85 35 3d 34 12 29 bc cc 11 8b bd 39 c8 11 bd
       0.04431696 -0.010319281 -0.06790504 -0.035591338
000100 26 aa 64 3c 29 9e 06 3c ae 2e 35 3c 8f 75 7a bc
       0.013956582 0.008216419 0.011058493 -0.015286817
000110 0d 58 4a bc 58 98 ac bd dc a5 8e bd 56 23 6e bd
       -0.0123500945 -0.08427495 -0.06965229 -0.058139168
000120 ae 9a 51 bd d5 6e 7f bc de 27 7f bd 05 5d a4 bc
       -0.051172905 -0.015590389 -0.06229388 -0.020063886
000130 3f d3 b3 bd f9 8a e4 bd 6c 58 53 bd b1 9f 87 bd
       -0.08780526 -0.111593194 -0.051597998 -0.066222556
000140 b6 76 88 bc 97 c0 a7 bd f9 43 21 3c 3c 4d 6c bc
       -0.016658168 -0.081910305 0.009842866 -0.014422711
000150 f9 b8 02 3c 84 be 0c 3d cc 8f b4 bc 6a e2 32 bd
       0.007978671 0.034361377 -0.022041224 -0.043672957
000160 3b 35 ac bd 58 d8 32 3d b3 e3 36 bb 35 ae f4 bc
       -0.084085904 0.043663353 -0.0027906715 -0.029868225
000170 58 a6 5b 3d 71 22 79 bc 01 90 bb bb d3 a4 3c bd
       0.053625435 -0.015205965 -0.0057239537 -0.046055626
000180 22 ae e3 bd d3 1b 54 bd e9 45 b6 bc 66 a4 d3 bc
       -0.111171976 -0.051784348 -0.022250133 -0.025835227
000190 12 cb 9e 3b 56 9f f7 bb 4d df 28 bd c4 3e 93 bd
       0.004845985 -0.007556836 -0.04122858 -0.07189706
0001a0 16 0c 73 bc 54 90 d4 bc 8f d7 c0 bd e0 e6 a8 3c
       -0.0148344245 -0.025947727 -0.094161145 0.020617902
0001b0 6a 1a ac bd be 22 9b bd 63 46 9b bc ca e4 79 bd
       -0.084034756 -0.07574986 -0.018954461 -0.061009206
0001c0 01 f8 cc bc f6 d0 6d bd f2 e3 06 be 78 99 a2 bd
       -0.025020601 -0.05806061 -0.13172892 -0.07939428
0001d0 6b 34 44 bd f8 d0 33 bd 8e 13 ce bb 05 f6 e3 3b
       -0.047901552 -0.04390046 -0.006288952 0.006956818
0001e0 53 be d8 bc f0 b2 33 3d 2a 8a eb bc 84 1e 12 3d
       -0.026457941 0.04387182 -0.028752405 0.035673633
0001f0 b3 ba d3 b9 70 3d a2 bd 4b f6 c2 bb d9 25 41 3c
       -0.00040384158 -0.079218745 -0.0059497706 0.011788809
000200 06 9d 79 bd 94 f7 3f bd c5 37 5b 3c 64 d1 42 bd
       -0.060940765 -0.04686697 0.013379996 -0.04756297
000210 26 31 09 3d 71 eb 21 3b 05 08 67 bc 39 fb 85 bd
       0.033494137 0.0024706984 -0.014101033 -0.065420575
000220 d3 8e 61 bd 7d ff 24 bb 5e 81 5a 3c a2 df 17 3d
       -0.05506785 -0.0025176697 0.013336508 0.037078507
000230 1a f3 80 3c 55 70 eb 3c 86 30 a5 bd f2 b6 65 3c
       0.01574092 0.028740088 -0.08065896 0.014020668
000240 4a f8 12 bb 6d 9c e4 bc c4 66 86 3c ad 50 14 bd
       -0.0022425824 -0.02790662 0.016406424 -0.03620975
000250 60 5e 40 bd c4 87 f1 3a 4e d1 91 38 86 0a 6e 3a
       -0.046965003 0.0018427302 6.953125e-05 0.00090805476
000260 32 da 93 bd ff 53 2d bb 73 51 0d 3c ce c6 87 3c
       -0.07219352 -0.002644777 0.008625376 0.01657429
000270 0e 12 d5 bc cc d5 98 bc 2a 71 c4 bd 76 22 67 bd
       -0.026009586 -0.018656634 -0.09591897 -0.05642935
000280 51 82 ad bc 5a 36 22 bc 83 e8 0c 3d 42 02 28 3d
       -0.021180304 -0.009900654 0.034401428 0.04101778
000290 79 e3 7f bd 81 bb 03 ba e1 d4 ab bd 06 8d 72 3b
       -0.062472794 -0.00050251937 -0.08390213 0.0037010326
0002a0 79 b2 9f bd f9 77 11 3c 5b 74 9e 3d ce 12 8d bc
       -0.07797713 0.008878701 0.07737037 -0.01722088
0002b0 12 30 10 bd f8 75 68 bc 2d 20 6d bd 80 5d 4a 3c
       -0.035202093 -0.014188282 -0.057892013 0.012351394
0002c0 67 13 3b bc 61 a5 2f bd 94 12 85 bc 04 d5 e5 3c
       -0.0114182 -0.042882327 -0.01624421 0.028055675
0002d0 9c 66 9d bd 29 f8 cd bc 97 ba 59 bc e9 b3 27 bd
       -0.07685587 -0.025142746 -0.013289115 -0.04094306
0002e0 9d d7 37 bd 7d 07 e1 bb 31 d8 dc bb f0 a6 c4 bd
       -0.04488336 -0.0068673478 -0.006739639 -0.09602153
0002f0 dc e7 6a bd 5d e2 5e 3c 60 2b ca bd c6 b3 bc 3c
       -0.057350025 0.013603774 -0.098715544 0.023034941
000300 94 08 7a 3b 6d 49 ad 3b 58 90 57 bc ec af 82 bd
       0.0038152086 0.005288294 -0.013156973 -0.06381211
000310 be 22 97 bc eb 99 88 bc 19 04 dd bc c6 4e 34 3c
       -0.018449184 -0.016674956 -0.026979493 0.011005109
000320 ca 77 99 bd 76 b6 2d bd c5 38 51 3d 8c 59 c7 bd
       -0.07493551 -0.042410336 0.05107953 -0.097338766
000330 40 25 9c bd d3 54 51 bd 49 00 25 bd ef 9e d5 3c
       -0.076242924 -0.051106285 -0.040283475 0.026076762
000340 78 1b 66 3d e2 05 9c bd 92 82 9b 3c c2 2f 3e bd
       0.05617854 -0.076183096 0.01898316 -0.046432264
000350 1e ce 2e bd fe 20 69 bd 13 06 37 3c 6f 47 8a bd
       -0.042677037 -0.05691623 0.011170882 -0.06751906
000360 31 70 e7 ba bf ef a5 3b 0b a1 bb 3c 94 4b d6 ba
       -0.0017657337 0.0050639804 0.02290394 -0.0016349428
000370 b0 07 8d bd 59 c5 9a bc 39 94 ba bd 92 37 36 bb
       -0.06886232 -0.01889293 -0.091103025 -0.0027804119
000380 a6 49 0b 3d 9d 47 c9 3a 17 e4 67 bd d9 60 bd 3c
       0.034005783 0.0015356425 -0.056614008 0.02311747
000390 a7 19 ea bc 98 c3 cd bc 68 f3 48 be c2 2a cc bd
       -0.028576685 -0.02511768 -0.19624102 -0.09969093
0003a0 1a 68 3a 3d 4b ef 4e bc be f1 45 bd e2 a8 07 bd
       0.045509435 -0.012630294 -0.048326246 -0.033120044
0003b0 6c b9 c7 bd 98 15 1a bd 50 62 16 bd ba 15 7a bd
       -0.09752163 -0.03761825 -0.03671485 -0.061055876
0003c0 70 52 89 bc a9 88 b9 bd 8f 84 2f 3d e4 4c 00 3d
       -0.016762942 -0.09059269 0.042851027 0.03132333
0003d0 68 3e 2c bd b4 93 3e bd 41 26 aa bd b0 98 e8 3b
       -0.042051703 -0.04652758 -0.083080776 0.00709828
0003e0 9d 85 10 bd 3b 16 31 3c 91 f2 00 3d 29 c9 5b 3c
       -0.035283674 0.010808523 0.03148133 0.01341466
0003f0 19 0e c9 3b 18 6d 6a 3c 63 f3 bb bc b0 95 72 bd
       0.006135714 0.014308237 -0.022943204 -0.059224784

encoder.2.running_mean f4 [256]
000000 96 04 9b 3d de b6 13 3e 84 c3 a1 3d 2c 1e 7d 3d
       0.07569234 0.14425227 0.0789862 0.061796352
000010 fd 42 91 3d 3b 50 6f 3d 2e a5 2f 3e db c9 28 3e
       0.07092855 0.058426123 0.17152855 0.16483252
000020 8f 88 22 3e df ca 48 3d 6a ab f8 3d 3d e1 51 3e
       0.15872405 0.049021598 0.1214207 0.20496078
000030 82 ae fa 3d 2d 4c 63 3e 80 b8 37 3e 0c ec dd 3d
       0.12240316 0.22197028 0.17941475 0.10836038
000040 fe 7b 51 3e fa 57 d9 3d 8f a5 37 3e 2d 36 7e 3e
       0.20457456 0.10612483 0.1793425 0.24825354
000050 70 35 83 3e be 0d 66 3e d6 3e 32 3d 2b 0c c6 3d
       0.25626707 0.2246618 0.043516956 0.096702896
000060 ed 3c d0 3d 6a f2 03 3e 5a 79 d3 3d 15 ef 9c 3d
       0.10167871 0.12885442 0.1032588 0.07662789
000070 db a9 49 3e 21 16 64 3e 13 9e b1 3d 15 fb ee 3d
       0.19693701 0.22274067 0.086727284 0.11668984
000080 69 83 0f 3e 75 c2 4d 3e f8 75 78 3d a6 91 d0 3d
       0.14014973 0.2009371 0.06065938 0.1018403
000090 e2 2b a5 3d 75 98 be 3d f5 dc 85 3d a4 2e 31 3e
       0.080650106 0.093064226 0.06536285 0.17302948
0000a0 3b c2 91 3e 5a c0 3f 3e 7c 89 0d 3e 35 80 08 3e
       0.284685 0.1872572 0.13821977 0.13330157
0000b0 93 d7 70 3e 0b c9 cd 3d f1 81 c0 3d 90 9a 70 3e
       0.23519735 0.100481115 0.09399784 0.23496461
0000c0 93 c0 fe 3d d4 e4 40 3e ca 82 76 3e 16 f5 b9 3d
       0.12439074 0.18837291 0.2407333 0.090799496
0000d0 6c cb 33 3e 53 6b b0 3d e7 e2 00 3e 7d 3f 31 3e
       0.17558068 0.086142205 0.12586556 0.17309375
0000e0 c9 14 20 3e b9 73 27 3d c9 86 9a 3e 84 05 16 3e
       0.15632929 0.040881846 0.30180958 0.14650542
0000f0 aa 74 5f 3e c7 99 11 3e c7 c2 89 3e 86 79 7c 3d
       0.21821848 0.14218818 0.26906416 0.06163933
000100 ef 81 4a 3d 9b c2 24 3c 50 d3 86 3e ed 3c cc 3c
       0.04944032 0.010056163 0.26333094 0.024931395
000110 62 ed 15 3e fa 89 55 3e 16 a0 5d 3e ab 5f 0a 3e
       0.14641336 0.20853415 0.21643099 0.13513057
000120 9a 1d cc 3d 27 5d 49 3e 3f 7d 8e 3e 3a ed e2 3d
       0.099665835 0.19664441 0.2782993 0.110804036
000130 d1 43 e8 3d fa 37 e2 3d 00 02 d3 3d f0 e2 aa 3d
       0.1134106 0.11045833 0.10303116 0.08344066
000140 d3 f6 0f 3e 46 15 f9 3d ad b7 02 3e e6 89 f3 3d
       0.14059 0.12162261 0.12765379 0.118915364
000150 6c f4 21 3e bf 18 26 3e 4c 87 a8 3d 4c 55 4a 3e
       0.15815896 0.16220377 0.08228931 0.197591
000160 8f ac 43 3e ce 9e 41 3e 46 39 eb 3d 43 7b d0 3d
       0.19108795 0.18908235 0.114855334 0.1017976
000170 78 2c 8f 3d b3 b8 04 3e 5a af c7 3d 95 eb 96 3d
       0.069909036 0.12961082 0.097502425 0.073691525
000180 d3 16 78 3d 76 aa 77 3d ba 88 03 3e e0 e0 91 3d
       0.060568642 0.0604653 0.12845126 0.071229696
000190 39 94 2d 3e a1 eb 92 3e d6 d0 9a 3d 24 20 ef 3d
       0.16951074 0.28695396 0.075593635 0.11676052
0001a0 3a 6f 99 3d af a4 24 3e 14 b8 63 3e 97 55 80 3e
       0.07491918 0.16078447 0.22238189 0.250653
0001b0 61 fc 18 3e fd 02 2a 3e 36 24 19 3e dd 19 d7 3d
       0.14940025 0.16602702 0.1495522 0.1050298
0001c0 a4 6d 03 39 52 8d f7 3d 18 c3 8b 3e 6b 4c 8a 3e
       0.00012533978 0.120875016 0.27297282 0.27011427
0001d0 45 86 53 3e c4 bb 86 3e 14 4b 45 3e cf 60 67 3e
       0.20656689 0.2631513 0.19266921 0.22595523
0001e0 b0 b6 56 3d 73 05 76 3d c5 61 f5 3d 65 09 2a 3e
       0.052420318 0.06006379 0.11981539 0.16605146
0001f0 85 af bb 3d 73 8b 2a 3e 72 35 c9 3d 78 d5 60 3d
       0.09164337 0.16654758 0.09824647 0.05489108
000200 50 30 8b 3e 4a 8b 29 3e fe d5 a0 3e 12 bc 38 3e
       0.27185297 0.16557041 0.31413263 0.18040493
000210 ad 7d 4f 3e 7d a5 15 3e 70 8b 10 3e af 7d 9b 3e
       0.20262785 0.1461391 0.14115691 0.30369326
000220 2b b3 3b 3e 65 80 4b 3e dd f7 a9 3d 0e 7f ab 3d
       0.18330066 0.19873197 0.08299229 0.08373843
000230 70 df 20 3e ff 9c 35 3e 15 ba ff 3d 97 10 34 3e
       0.15710235 0.1773567 0.12486664 0.17584454
000240 42 17 11 3e 23 70 d0 3c 63 56 c9 3d 4d c6 8d 3e
       0.14169028 0.025444096 0.0983093 0.27690354
000250 03 67 6a 3e 44 ea 25 3e 52 90 4f 3e ad ae 36 3d
       0.22890858 0.16202646 0.20269898 0.044600178
000260 4b a0 fa 3d 01 42 82 3e 98 a9 4f 3e de cf fb 3d
       0.12237605 0.25440982 0.20279539 0.12295507
000270 53 43 6e 3e 97 cd d3 3d da fa 04 3e e3 dc 70 3d
       0.2326787 0.103419475 0.12986317 0.058804404
000280 6f 8d 27 3e 45 13 1d 3e 2f bf 79 3e a4 b7 0b 3e
       0.16362546 0.15339382 0.24389337 0.13644272
000290 a0 b7 4c 3d 94 dc 29 3e e2 3b c1 3d f6 72 60 3e
       0.049979806 0.1658805 0.0943525 0.21918854
0002a0 f2 e9 de 3d 91 10 1c 3e e1 fe 97 3e 36 a8 1e 3e
       0.10884465 0.15240695 0.29686645 0.15493855
0002b0 b0 45 2a 3e 48 aa 9c 3e c2 8a a3 3d 64 1d cf 3d
       0.16628146 0.30598664 0.0798545 0.10113028
0002c0 e6 7a ab 3d 0f 83 04 3e 2e 61 36 3e 50 da 49 3d
       0.083730504 0.1294062 0.17810509 0.049280465
0002d0 9e 26 39 3e f4 da ef 3d b4 41 d8 3d 5d e4 98 3d
       0.18081138 0.11711684 0.10559407 0.07465432
0002e0 2e 0a 51 3d df 13 15 3e 39 82 84 3e 73 f4 0e 3e
       0.0510351 0.14558361 0.25880602 0.13960437
0002f0 4d 22 ec 3d b8 ae 22 3e cc 34 5d 3e 03 f4 de 3d
       0.1152998 0.15886962 0.21602172 0.10886385
000300 cb d6 11 3e 2a 9d f8 3d c2 dd 88 3e bf 7e 45 3e
       0.14242093 0.12139352 0.26731688 0.19286631
000310 a5 46 1d 3e 05 4b da 3d 29 90 a0 3d 5f 01 49 3e
       0.1535898 0.1065884 0.07839996 0.1962943
000320 57 6f cd 3d 82 12 a0 3d d1 3a b7 3d 2f f1 e3 3d
       0.10031002 0.0781603 0.08946765 0.111299865
000330 55 69 88 3d 70 8b a7 3b 45 af d7 3d 95 7e 2a 3e
       0.066607155 0.005113058 0.10531477 0.1664985
000340 f1 f4 b0 3d 12 23 86 3d 7b f1 9e 3d 1d 78 ff 3d
       0.08640469 0.06549658 0.077609025 0.12474082
000350 1e 9d 6d 3e 71 3d 1c 3d 2c d9 df 3d 20 3b 3a 3e
       0.23204467 0.038144533 0.10930094 0.18186617
000360 6a 2e f7 3d 26 69 86 3e 24 62 ff 3d 00 24 04 3e
       0.120694 0.26252097 0.12469891 0.12904358
000370 c5 60 44 3e 4d 52 a0 3d 4f 11 a1 3d 71 ef ee 3d
       0.1917754 0.07828198 0.078646295 0.116667636
000380 f3 7d 85 3e af 26 c0 3d dd 79 8c 3e a0 d7 d1 3d
       0.26072654 0.09382378 0.27436724 0.10246205
000390 e3 a5 d7 ba 3c 7b e3 3d 0f 6f a1 3d f1 ee 47 3e
       -0.0016452636 0.111074895 0.07882511 0.19524743
0003a0 57 d2 98 3d 2a c2 16 3e 09 a8 39 3e 7e cd 66 3c
       0.07461994 0.14722505 0.18130507 0.014087079
0003b0 44 9b 66 3e df c2 e8 3d 82 41 54 3e 86 0f 43 3e
       0.22520167 0.11365294 0.20728114 0.1904889
0003c0 f9 b7 b5 3d aa 60 24 3e 02 46 19 3e e0 c7 10 3e
       0.088729806 0.160525 0.14968112 0.14138746
0003d0 17 18 23 3e b9 45 04 3e 83 60 ac 3d 86 ce 42 3d
       0.15927158 0.12917222 0.08416846 0.047560237
0003e0 02 0a db 3d d2 b2 a6 3d bd 7e 83 3e 40 e9 3f 3e
       0.10695268 0.08139576 0.2568263 0.18741322
0003f0 01 b5 54 3e 9d df 81 3e 66 8f 31 3e ce a6 27 3e
       0.20772173 0.25365916 0.17339858 0.16372225
