DenoisingAutoencoder_best.pth (torch, 102296 bytes, 8 tensors)

encoder.0.weight f4 [128, 31]
0	0x3c5935f1	0.01325749
1	0xbdb24f96	-0.08706586
2	0xbd145938	-0.036217898
3	0x3b4d451a	0.0031321705
4	0xbd35c2a7	-0.044375088
5	0x3d8f5290	0.069981694
6	0xbdc11975	-0.09428684
7	0xbcd75d2b	-0.026289543
8	0xbb0602b5	-0.002044839
9	0xbd34a162	-0.04409922
10	0xbbd20922	-0.00640978
11	0xbd579cbb	-0.052639704
12	0x3ebce898	0.36896205
13	0x3d87b29c	0.06625864
14	0x3ce4d87d	0.02793526
15	0xbd12a440	-0.035801172
16	0xbca14d2d	-0.01969012
17	0x3dd42cb7	0.10360091
18	0xbc9323d1	-0.017961415
19	0xbd9eb72f	-0.07749783
20	0x3de15b58	0.110037506
21	0x3db2887b	0.08717438
22	0x3e933ef0	0.28758955
23	0xbb23f779	-0.0025019331
24	0xbd80ea48	-0.062946856
25	0xbdcd5a86	-0.100270316
26	0x3cbdab3b	0.023152938
27	0x3e45c883	0.1931477
28	0xbd9ffa00	-0.078113556
29	0x3ec0f784	0.3768884
30	0x3def3448	0.11679894
31	0x3e58f63c	0.21187681
32	0xbe21b579	-0.15791883
33	0xbda19645	-0.0788999
34	0xbe118e9f	-0.14214562
35	0x3d91673f	0.07099771
36	0x3e7612ff	0.24030684
37	0x3d59a7a7	0.0531384
38	0xbc12a249	-0.008949825
39	0xbd43878f	-0.0477367
40	0x3d4b3243	0.04960848
41	0x3c296870	0.010339841
42	0xbdb88177	-0.090090685
43	0xbdd63156	-0.10458629
44	0x3e3878e6	0.18014869
45	0x3ce8d379	0.02842115
46	0x3c0b6a75	0.008509268
47	0xbe0f9184	-0.14020354
48	0x3dfd56aa	0.123700455
49	0x3d2a6f31	0.041609947
50	0x3df2e9ec	0.11861023
51	0xbc348b7a	-0.011019582
52	0x3d1cc4a0	0.038273454
53	0x3e0de52f	0.13856958
54	0xbd484af7	-0.048899617
55	0xbdb9f2e3	-0.0907953
56	0x3e9412e4	0.28920662
57	0xbcdb9c41	-0.026807906
58	0x3ca0388b	0.019558212
59	0x3c0a1de2	0.008429976
60	0xbe49b09a	-0.19696274
61	0xbd63f12f	-0.055649932
62	0xbd466205	-0.048433322
63	0x3da182c5	0.078862704
64	0xbddfc8cb	-0.1092697
65	0x3baf1a16	0.005343686
66	0xbe0dc432	-0.13844374
67	0xbb8bf825	-0.0042715245
68	0xbd8f850e	-0.070078
69	0xbe9d7588	-0.30753732
70	0x3def4079	0.11682219
71	0x3d826025	0.06365994
72	0x3e69243b	0.22767727
73	0x3a061a16	0.00051155814
74	0xbd95e328	-0.07318717
75	0xbdbfbd95	-0.09362332
76	0x3b8933e7	0.0041870954
77	0xbd9f3afd	-0.07774923
78	0x3dfe0a8a	0.12404354
79	0xbd952cfb	-0.0728397
80	0x3e445770	0.1917398
81	0xbe2dd1a3	-0.16974501
82	0xbe2092d9	-0.15681018
83	0x3e0bfa22	0.13669637
84	0xbdb4f149	-0.08835084
85	0xbda9d20f	-0.082920186
86	0x3d501f12	0.05081088
87	0xbdf450a0	-0.119294405
88	0x3e3de58d	0.18544598
89	0x3ded2a4f	0.11580335
90	0x3c381d55	0.011237462
91	0x3e871dae	0.2638983
92	0x3bc494ad	0.005999169
93	0xbd95571b	-0.07292005
94	0x3e33d3b7	0.17561232
95	0xbe0bbb4d	-0.13645668
96	0xbcaa2ed7	-0.020774288
97	0xbe4804f4	-0.1953314
98	0xbd4767d4	-0.048683003
99	0x3d6f99fb	0.058496457
100	0xbcec2c61	-0.028829755
101	0x3db05371	0.08609665
102	0xbd924e69	-0.07143862
103	0x3dbf6478	0.09345335
104	0xbc7d2081	-0.015449644
105	0x3cf725d3	0.030169403
106	0x3e229eba	0.15880862
107	0x3e398e2a	0.18120638
108	0x3dba922f	0.091099136
109	0xbd1658cb	-0.036705773
110	0x3ccb8844	0.02484525
111	0x3c98fc07	0.018674864
112	0x3b273a39	0.002551688
113	0xbdfbb527	-0.122904114
114	0xbdc829df	-0.09773611
115	0xbde5e3d4	-0.112250954
116	0xbdc75bf1	-0.09734333
117	0xbda8f8df	-0.082505934
118	0x3cbee7c6	0.023303878
119	0xbc234e3d	-0.009967384
120	0x3d9b3ed3	0.07580342
121	0xbd42c03d	-0.047546614
122	0x3d9f59b8	0.07780784
123	0x3ca8b8cc	0.02059593
124	0x3db04ffc	0.08609006
125	0x3e8bb9cd	0.27290192
126	0x3e2dbb7d	0.16966052
127	0x3c70056b	0.014649729
128	0xbd9bbf58	-0.07604855
129	0x3de57aed	0.11205087
130	0xbd2df7f5	-0.0424728
131	0xbdc8818e	-0.097903356
132	0xbdc66e93	-0.09689059
133	0xbcd80ecd	-0.026374245
134	0x3e3fcbb3	0.18730049
135	0x3e405219	0.18781318
136	0xbe6b46f3	-0.22976284
137	0xbc9e0cef	-0.019293277
138	0xbd0b823f	-0.03405976
139	0xbd8f836e	-0.0700749
140	0x3bb8b5de	0.0056369146
141	0x3e2b5812	0.16732815
142	0x3d3c35c9	0.04594973
143	0x3b248a12	0.002510671
144	0x3e37b1f0	0.17938972
145	0x3dbf6962	0.09346272
146	0x3d95a085	0.07306007
147	0x3d76f9fc	0.060296997
148	0xbd70e635	-0.058813293
149	0xbdc242c5	-0.094853915
150	0x3cb3a4c8	0.02192916
151	0xbe1ef09b	-0.15521471
152	0xbdf3181f	-0.11869835
153	0x3e7cb6df	0.24679135
154	0xbd377ec7	-0.04479864
155	0xbd8954ba	-0.067056134
156	0xbea290a3	-0.31750974
157	0xbd0d7024	-0.034530774
158	0xbe10dcb8	-0.14146698
159	0x3e044d28	0.12920058
160	0xbe074eae	-0.13213608
161	0xbe792f5b	-0.24334471
162	0xbe222f1e	-0.15838286
163	0x3d8ab9bb	0.067737065
164	0x3d53921b	0.05165301
165	0xbd90a4c6	-0.07062678
166	0xbd36ac5b	-0.044597965
167	0x3e4148e5	0.18875463
168	0xbe58f1b6	-0.21185955
169	0x3bc87903	0.0061179413
170	0xbd37f471	-0.044910852
171	0x3d8cb53b	0.068705045
172	0xbe12a9be	-0.14322564
173	0x3de92d57	0.11385601
174	0x3e1a8d94	0.1509307
175	0xbe3056a5	-0.17220552
176	0xbd94bef1	-0.07262982
177	0xbe046c21	-0.12931873
178	0xbd1991a3	-0.037492406
179	0x3d4f622b	0.05063073
180	0x3e201eea	0.15636793
181	0x3cedb4cc	0.029016875
182	0x3d05bb2e	0.03264921
183	0x3eb14967	0.34626314
184	0xbd66dd4f	-0.0563634
185	0x3d9ba563	0.075999044
186	0xbe5fe25d	-0.21863694
187	0x3e926d03	0.28598794
188	0xbed01dce	-0.4064774
189	0x3dbaa35a	0.09113188
190	0x3db1c811	0.08680738
191	0xbdc0cef3	-0.094144724
192	0x3e0f7c44	0.14012247
193	0x3da80f68	0.082060635
194	0x3d00351b	0.031300645
195	0xbd8839da	-0.06651659
196	0x3c979ca2	0.018507306
197	0x3e5d8028	0.21630919
198	0x3dab0571	0.08350647
199	0xbd2e6bf7	-0.042583432
200	0x3df8045b	0.12110206
201	0xbdac3c48	-0.08409935
202	0xbcf08fbb	-0.029365411
203	0x3df73d23	0.12072208
204	0x3eac7c0b	0.33688387
205	0x3d805674	0.062664896
206	0x3e885575	0.266277
207	0x3e22310d	0.15839024
208	0xbb7f0b24	-0.0038916552
209	0xbcd12a92	-0.025532994
210	0xbce4a672	-0.027911399
211	0xbc91a686	-0.0177796
212	0x3d19ebfc	0.037578568
213	0xbd762b88	-0.06010011
214	0xbdbd4041	-0.09240771
215	0xbe5bf1a6	-0.214789
216	0x3c16f4d5	0.009213646
217	0xbe26ba66	-0.16282043
218	0xbdd65a54	-0.104664475
219	0xbcb06bce	-0.02153578
220	0xbc96b101	-0.018394949
221	0x3d1a8727	0.037726548
222	0x3e2c03da	0.16798344
223	0x3e5238c9	0.20529474
224	0xbebc59f1	-0.3678737
225	0x3d9cb2cc	0.0765129
226	0xbd5f8919	-0.054574106
227	0x3be1fcce	0.0068965917
228	0xbdb96a11	-0.09053434
229	0x3e3cc70d	0.18435307
230	0x3c9e189c	0.019298844
231	0x3cd75771	0.026286812
232	0xbe76faf0	-0.24119163
233	0xbd38ee0d	-0.045148898
234	0x3dc393c8	0.095496714
235	0xbcf22d09	-0.02956249
236	0xbdfcabda	-0.123374656
237	0x3d1fd5a1	0.03902209
238	0x3d20a9f1	0.03922457
239	0x3d5a4b0a	0.05329422
240	0xbe0d3d10	-0.13792825
241	0x3e52b0a5	0.20575197
242	0x3cf2a161	0.029617967
243	0x3c616e19	0.0137591595
244	0xbe0c1e69	-0.13683476
245	0xbcfc4d2b	-0.030798515
246	0xbdadd5b3	-0.084880255
247	0xbd330dd5	-0.043714363
248	0x3de12372	0.10993089
249	0xbd5fe5b8	-0.054662436
250	0xbd65d6ae	-0.056112938
251	0xbd7a12e8	-0.061053187
252	0x3e153dfc	0.14574426
253	0x3d8b762d	0.068096496
254	0x3d30e4f1	0.043187086
255	0x3dbabfb5	0.091185965

encoder.0.bias f4 [128]
0	0x3e8d5447	0.2760336
1	0x3c9be007	0.019027723
2	0xbd5a4a8c	-0.05329375
3	0xbdaa4ab7	-0.08315032
4	0x3d5fdeef	0.054655965
5	0x3aa562b7	0.001261792
6	0x3f16e299	0.5893951
7	0x3e877117	0.26453468
8	0xbd131522	-0.035908826
9	0xbd384179	-0.044984315
10	0x3e8da8e3	0.27667913
11	0x3dd57739	0.104231305
12	0xbe9feebd	-0.3123683
13	0x3d85e5e3	0.06537988
14	0x3da7c053	0.0819098
15	0x3f024857	0.5089163
16	0x3f0e9fd6	0.5571264
17	0x3ead1470	0.33804655
18	0xbccf6e9e	-0.025321301
19	0xbe36c11b	-0.17847101
20	0x3d045d90	0.03231579
21	0x3ecd29f5	0.40071073
22	0x3e344f3d	0.17608352
23	0x3d9e7251	0.07736648
24	0x3dad6e5c	0.08468315
25	0x3e6d44a0	0.2317071
26	0x3e9e460b	0.30912814
27	0xbc5d4c9d	-0.013507036
28	0x3e4d9f23	0.20080237
29	0x3c68a407	0.014199263
30	0x3e995892	0.29950386
31	0x3f13e896	0.5777677
32	0x3ee69e19	0.45042494
33	0x3d450ca5	0.048107762
34	0x3c678745	0.014131372
35	0xbe02e99f	-0.12784432
36	0x3e5edaed	0.21763201
37	0x3e8f8327	0.2802975
38	0x3e9bca36	0.30427712
39	0x3cffccce	0.031225588
40	0x3f1cd2d4	0.612592
41	0x3da618f2	0.08110227
42	0xbdc579c0	-0.096423626
43	0xbc01ed3a	-0.007930094
44	0x3e8c9220	0.27455235
45	0xbb8e3787	-0.0043401155
46	0x3a4a1b18	0.0007709726
47	0x3e80159b	0.25016484
48	0xbd5f3794	-0.054496363
49	0x3d893df2	0.06701268
50	0x3e932eb7	0.28746578
51	0x3e950879	0.29108027
52	0xbd5fc397	-0.05462989
53	0x3e98873f	0.29790685
54	0x3e00386e	0.12521526
55	0xbd3587eb	-0.044319075
56	0x3baee288	0.005337063
57	0x3dc06123	0.09393527
58	0x3ef1dffc	0.472412
59	0x3e5179b0	0.20456576
60	0x3db122cb	0.08649214
61	0x3e597dc9	0.2123939
62	0xbd17ef18	-0.037093252
63	0x3dcee36f	0.10101973
64	0x3e8e4fc7	0.2779524
65	0x3eae5d18	0.340554
66	0x3de687c9	0.11256368
67	0x3e7a68e0	0.24454069
68	0x3ec17748	0.37786317
69	0xbda984ca	-0.08277281
70	0x3eca84fa	0.39554578
71	0x3e60db87	0.21958743
72	0x3e94be02	0.29051214
73	0x3e92b7fc	0.28655994
74	0x3ed0ff9d	0.40820017
75	0x3eb88f59	0.36046866
76	0x3e86c81c	0.26324546
77	0x3e725891	0.23666598
78	0x3eda9ef4	0.42699397
79	0x3d3b6049	0.04574612
80	0xbe245f60	-0.16052008
81	0x3ed89d08	0.42307305
82	0x3e386525	0.18007334
83	0x3ea46cda	0.32114297
84	0x3e465179	0.19367017
85	0x3eb62884	0.35577786
86	0x3e229e1e	0.1588063
87	0x3d7e417c	0.06207417
88	0x3e2865b5	0.16445048
89	0x3e962fcd	0.29333344
90	0x3ebba80b	0.36651644
91	0x3dcdd96b	0.10051235
92	0x3ea35ba8	0.31905866
93	0x3e58679f	0.21133278
94	0x3e0a6fab	0.1351916
95	0x3de27011	0.11056531
96	0x3d6b1fc7	0.057403352
97	0x3e85f01e	0.26159757
98	0x3e844f46	0.2584173
99	0x3ed802aa	0.42189533
100	0x3def6374	0.11688891
101	0x3ef2935c	0.4737805
102	0x3eb3af67	0.3509476
103	0x3e8053b7	0.2506387
104	0x3e31e92f	0.17374109
105	0x3eee88b1	0.46588662
106	0x3e7a117e	0.24420735
107	0x3f187f5b	0.5956933
108	0xbccacc24	-0.024755545
109	0x3db59fd1	0.08868373
110	0xbdaa2874	-0.08308497
111	0x3dcceecf	0.100064866
112	0x3e288a96	0.16459116
113	0x3d87cbc0	0.06630659
114	0x3eccd7d4	0.40008414
115	0x3e0c94fa	0.13728705
116	0x3da389b6	0.07985251
117	0x3dc2273b	0.09480139
118	0x3f3dc57c	0.7412946
119	0xbd5a58e4	-0.05330743
120	0x3eb001e7	0.3437645
121	0x3d0aad32	0.03385658
122	0x3d83589e	0.06413387
123	0x3c39a9af	0.01133196
124	0x3e8caca7	0.27475473
125	0x3e1ef32f	0.15522455
126	0x3e642621	0.2228017
127	0xbbe9f040	-0.0071392357

encoder.2.weight f4 [64, 128]
0	0x3d389cff	0.0450716
1	0xbd9f11c5	-0.07767061
2	0x3d932356	0.07184474
3	0x3ceb17fa	0.028697956
4	0xbe137ad6	-0.14402327
5	0x3db49ae5	0.08818606
6	0x3c59bdc4	0.013289873
7	0x3d5e2ed7	0.05424389
8	0x3d3805bc	0.044927344
9	0x3d672bda	0.056438304
10	0xbe083aaa	-0.13303629
11	0xbdcca201	-0.09991837
12	0x3dcc914f	0.09988653
13	0x3de8d3ed	0.11368547
14	0xbaa3b8c8	-0.0012490982
15	0xbd7bb1b0	-0.061448753
16	0x3c63f49a	0.013913298
17	0x3d77f15d	0.060532916
18	0x3cbcf81a	0.023067523
19	0xbdc85845	-0.09782461
20	0x3d996cf9	0.07491488
21	0xbdc1bdea	-0.09460051
22	0x3ba99dcc	0.0051762816
23	0x3d2151b2	0.03938455
24	0x3e1ba8dc	0.15201133
25	0xbd7e5087	-0.062088516
26	0xbd2f4331	-0.042788688
27	0x3ddc5c07	0.1075974
28	0x3d20c041	0.039245848
29	0xbc93a184	-0.018021353
30	0xbd1078f8	-0.035271615
31	0xbd762ced	-0.06010144
32	0xbd1aaf45	-0.037764806
33	0xbdf2b14c	-0.11850223
34	0xbce3b008	-0.0277939
35	0xbde76ff8	-0.11300653
36	0x3d466d59	0.048444126
37	0x3ddc8c58	0.10768956
38	0xbd11a1e0	-0.035554767
39	0xbbaf9af0	-0.005359046
40	0x3d95522c	0.07291064
41	0xbc48cd88	-0.012256034
42	0x3db51cfa	0.088434175
43	0x3b3d7836	0.0028910763
44	0x3a45e16d	0.00075485447
45	0x3de70fe5	0.112823285
46	0xbdec9337	-0.115515165
47	0x3be7b440	0.007071048
48	0x3cb05ca0	0.021528542
49	0x3bb413ff	0.005495548
50	0x3e5ac3b4	0.21363717
51	0x3da0e7ce	0.07856713
52	0xbbc78c00	-0.0060896873
53	0xbd3e8714	-0.04651554
54	0xbcb6f7e0	-0.022334993
55	0xbddb0664	-0.10694578
56	0xbd364927	-0.044503357
57	0xbe2d0c32	-0.16899183
58	0x3dc4a7d0	0.0960232
59	0x3c1f7e10	0.0097346455
60	0xbccba964	-0.024861045
61	0x3c99fcb4	0.018797256
62	0x3dc45637	0.09586757
63	0x3cf83015	0.030296365
64	0xbe0cf5f1	-0.13765694
65	0x3c626e05	0.013820176
66	0x3d6e2f2b	0.05815045
67	0x3c838280	0.016053438
68	0xbd0002ec	-0.031252787
69	0xbdab095f	-0.08351397
70	0xbdc0d98e	-0.09416495
71	0xbdce3fd7	-0.1007077
72	0xbcfbae55	-0.030722776
73	0x3d8cb58c	0.06870565
74	0xbd71660d	-0.058935214
75	0x3dbe629e	0.092961535
76	0xbca0730c	-0.019586109
77	0xbccb0129	-0.024780827
78	0x3dc9f5fa	0.098613694
79	0xbdbd9b52	-0.092581406
80	0xbcceafd8	-0.025230333
81	0xbd0d7a0c	-0.03454022
82	0xbd0268be	-0.03183817
83	0xbbfabb85	-0.0076517486
84	0xbd6aa7e6	-0.057289027
85	0x3d5ca5d3	0.05386908
86	0xbdb6f52a	-0.0893348
87	0x3d4234ba	0.047413565
88	0x3dd4bff1	0.103881724
89	0xbd7d325c	-0.061815605
90	0x3d6782d8	0.056521267
91	0xbe14f358	-0.14545953
92	0xbe15cb9c	-0.14628452
93	0x3dcaf2c7	0.09909587
94	0xbdc81eab	-0.097714745
95	0x3d7cbee3	0.06170548
96	0xbd70c962	-0.058785804
97	0xbb05b38e	-0.0020401212
98	0x3d068cfe	0.032849304
99	0x3de549aa	0.11195691
100	0x3dad7db1	0.08471239
101	0x3e29b712	0.16573742
102	0xbd95bd91	-0.073115475
103	0x3dca9dd8	0.098933876
104	0x3ddacf13	0.106840275
105	0x3d14b3fd	0.036304463
106	0x3b865e1f	0.0041005756
107	0x3d4eeb0e	0.050517134
108	0xbda43420	-0.080177546
109	0xbc420145	-0.011841123
110	0x3e10f485	0.14155777
111	0x3dd415f0	0.10355747
112	0x3d838116	0.064211056
113	0xbdb2ee6b	-0.08736881
114	0x3d0d8ac6	0.034556173
115	0x3d31771a	0.043326475
116	0x3c988632	0.018618677
117	0x3c5ef750	0.013608769
118	0xbe15be7c	-0.14623445
119	0xbd9dba2a	-0.077015236
120	0xbd590134	-0.052979663
121	0x3d7dc490	0.061955035
122	0x3d44392b	0.047906082
123	0x3c0a046f	0.008423909
124	0xbe05a779	-0.13052167
125	0x3caefd79	0.0213611
126	0x3d9dc69a	0.07703896
127	0xbe072907	-0.13199244
128	0x3dd02943	0.1016412
129	0xbd92f812	-0.07176222
130	0x3c8bb297	0.017052932
131	0x3dbc41cd	0.09192238
132	0xbc82958f	-0.015940456
133	0xbc92c772	-0.017917369
134	0xbd7aeb17	-0.061259355
135	0x3c0b2c43	0.00849444
136	0xbccf9643	-0.025340205
137	0x3c79263c	0.01520687
138	0xbcff84e8	-0.031191304
139	0x3b8348a8	0.004006464
140	0xbd9c904a	-0.076447085
141	0xbd7bc11b	-0.061463457
142	0xbce9460d	-0.028475786
143	0xbdfd09f9	-0.12355418
144	0x3d4a4c97	0.049389448
145	0xbe1a95ed	-0.15096255
146	0x3d10cdfc	0.035352692
147	0x3dc842c8	0.097783625
148	0xbd63769f	-0.055533048
149	0xbcff0e96	-0.031134885
150	0x3e1e86bc	0.15481085
151	0x3db13b02	0.08653833
152	0x3d2e48cf	0.042549904
153	0x3d4f407e	0.050598614
154	0x3d9daee8	0.07699376
155	0x3db43be9	0.088004895
156	0xbba0d5ce	-0.0049083
157	0xbe02abfa	-0.12760916
158	0xbe3e4096	-0.18579325
159	0x3da920db	0.0825822
160	0x3b2e6c0b	0.0026614692
161	0x3dac03be	0.08399151
162	0xbc2d3232	-0.0105710495
163	0xbd9c6e79	-0.076382585
164	0x3d5aa01a	0.05337534
165	0xbcb69895	-0.022289554
166	0xbd4df21c	-0.05027972
167	0x3d20e975	0.039285142
168	0xbddca348	-0.10773331
169	0x3db134aa	0.08652623
170	0xbdb5cb2b	-0.08876642
171	0x3d19b6ad	0.03752773
172	0xbda5524e	-0.08072339
173	0x3de8bcbc	0.11364123
174	0x3bde1a96	0.0067780716
175	0xbdcbe2c8	-0.099553645
176	0xbe0a4b59	-0.13505305
177	0xbc683db0	-0.014174864
178	0xbd720de3	-0.059095275
179	0xb9154700	-0.00014236197
180	0xbcdea095	-0.02717618
181	0xbc757e02	-0.014983656
182	0x3cba9ffe	0.022781368
183	0x3d3c64af	0.045994457
184	0x3db077d9	0.08616609
185	0xbd5b2fc5	-0.053512353
186	0x3d635de6	0.05550947
187	0xbd7bc542	-0.061467417
188	0x3d153576	0.036427937
189	0x3db36a7d	0.087605454
190	0xbd91c86b	-0.07118305
191	0x3dcb6ed9	0.09933252
192	0x3ccd914a	0.025093693
193	0x3e1ccdca	0.15312877
194	0x3d9020a2	0.07037474
195	0x3e04629b	0.1292824
196	0x3d24e347	0.04025581
197	0x3d90dea0	0.07073712
198	0x3d41e8f3	0.0473413
199	0x3c4b5964	0.012411449
200	0xbdc27b46	-0.09496169
201	0xbbab0bfb	-0.005219934
202	0x3c440f01	0.011966468
203	0xb9e96d1e	-0.00044522522
204	0x3e139fc8	0.1441642
205	0xbd132bdb	-0.035930496
206	0x3de6b007	0.11264043
207	0x3e0400a7	0.12890874
208	0x3d9a0516	0.07520501
209	0x3c56402b	0.013076822
210	0x3e4e4b05	0.20145805
211	0x3d1155e9	0.03548232
212	0xbda60c00	-0.081077576
213	0x3caaa213	0.020829236
214	0xbd9204bc	-0.07129809
215	0xbd7a32f7	-0.06108376
216	0x3d91de21	0.07122446
217	0xbd4909c1	-0.049081568
218	0x3d1919cc	0.037378117
219	0x3d413eb5	0.047178943
220	0xbddd4e89	-0.10805995
221	0xbd490d51	-0.049084965
222	0x3bdb2264	0.0066874493
223	0x3dad65dc	0.08466694
224	0x3d82c7a6	0.06385736
225	0x3d5c052a	0.053715862
226	0x3dec2119	0.115297504
227	0x3cc34519	0.02383666
228	0xbdedbc75	-0.11608211
229	0x3e0cbea1	0.13744594
230	0xbca7f9aa	-0.020504791
231	0xbd863f32	-0.06555022
232	0xbce76e11	-0.028250726
233	0xbd1d3620	-0.038381696
234	0x3d3ecac3	0.046580087
235	0xbbe04904	-0.0068446416
236	0x3d5baf0b	0.05363373
237	0xbdf2a952	-0.118487015
238	0xbe020f55	-0.12701161
239	0xbca0ec51	-0.019643934
240	0x3e2c20ec	0.16809434
241	0xbdbcc1cc	-0.09216651
242	0xbcea466f	-0.028598038
243	0xbd5a723e	-0.053331606
244	0x3b4872bd	0.0030585967
245	0x3d9e89d8	0.07741135
246	0xbdf03581	-0.11728955
247	0xbc74eceb	-0.014949064
248	0x3e103e39	0.14086236
249	0x3d8b7d73	0.06811037
250	0xbe19a2af	-0.15003465
251	0x3e1c57f7	0.15267931
252	0x3d634cc8	0.055493146
253	0xbdb4a321	-0.08820177
254	0xbd8e260f	-0.06940853
255	0xbe1cedd8	-0.15325105

encoder.2.bias f4 [64]
0	0x3d63f6a3	0.055655133
1	0xbd5dfe91	-0.05419785
2	0x3d3b46cc	0.045721814
3	0xbcd43c1e	-0.025907572
4	0xbd19d7e1	-0.037559394
5	0x3d352ea3	0.04423393
6	0x3d4b65ff	0.049657818
7	0xbd664702	-0.056220062
8	0xbd070179	-0.03296039
9	0x3d424fcc	0.04743938
10	0xbdbf983b	-0.093552075
11	0xbd29a4b9	-0.041416857
12	0xbd4236c6	-0.047415517
13	0xbc109693	-0.008824962
14	0xbd671aea	-0.05642215
15	0x3dab1594	0.08353725
16	0x3d6b3fe2	0.05743397
17	0x3da4c9db	0.080463134
18	0xbe35ee2d	-0.17766638
19	0x3d615258	0.05501017
20	0x3e2d251b	0.16908686
21	0xbc85ac6e	-0.016317572
22	0x3e0a666e	0.13515636
23	0xbd70b65b	-0.058767658
24	0x3e6bac96	0.23015055
25	0x3d06e0ac	0.032929108
26	0x3e052314	0.13001662
27	0xbddf41a1	-0.109011896
28	0x3bcac94c	0.0061885472
29	0xbcc838f6	-0.024441224
30	0xbcf2de58	-0.029647037
31	0x3dd4f6a9	0.10398609
32	0x3e09dabf	0.13462351
33	0x3b972d1e	0.0046135327
34	0x3cb8fcee	0.022581544
35	0x3ab2f5e5	0.0013653605
36	0xbd1b7e71	-0.03796238
37	0x3d33f2fd	0.043932904
38	0xbd396931	-0.045266334
39	0x3d3ceeb8	0.046126097
40	0xbe07a57c	-0.13246721
41	0xbdad3460	-0.08457255
42	0xbd4b9d74	-0.049710706
43	0x3ccc916a	0.024971683
44	0xbd63180c	-0.055442855
45	0x3d2c70ab	0.042099636
46	0x3d05fc35	0.032711226
47	0x3e5f7eb5	0.21825679
48	0xbbbcaeed	-0.0057581575
49	0x3cc67906	0.02422763
50	0xbe014270	-0.12623
51	0xbd08c30b	-0.033389132
52	0xbb998c37	-0.0046859044
53	0x3cee4a57	0.029088182
54	0x3c51c993	0.012804407
55	0x3d5719b5	0.05251475
56	0xbd2b4571	-0.04181427
57	0x3e008918	0.12552297
58	0xbdcee4b6	-0.10102217
59	0xbcd67aae	-0.026181545
60	0x3caedf51	0.02134672
61	0x3de55040	0.11196947
62	0x3c2c9dd1	0.010535673
63	0x3da151cc	0.0787693

decoder.0.weight f4 [128, 64]
0	0x3dceb1c6	0.10092501
1	0x3dd0fc28	0.10204345
2	0xbbda72f5	-0.006666536
3	0x3dbc92b1	0.09207667
4	0x3d6f8662	0.058477767
5	0x3daa049f	0.08301663
6	0x3e015438	0.12629783
7	0xbddddc86	-0.10833077
8	0x3ca49c35	0.020094017
9	0x3c151d42	0.009101214
10	0x3da89678	0.08231825
11	0x3cd43f30	0.025909036
12	0x3d21ca56	0.039499603
13	0x3dd716c2	0.105023876
14	0xbc84a652	-0.016192589
15	0x3d225935	0.039635856
16	0x3d8b55d6	0.06803481
17	0xbddfa0a3	-0.10919311
18	0xbd46d338	-0.048541278
19	0x3cf11d67	0.029432965
20	0xbcc4df53	-0.02403227
21	0xbd802ba6	-0.06258325
22	0x3e0faa08	0.14029706
23	0x3d182e1c	0.03715335
24	0xbe8163aa	-0.2527135
25	0xbb174a92	-0.002308522
26	0x3ccefd3d	0.025267238
27	0xbcfb316c	-0.030663215
28	0x3ddb186f	0.1069802
29	0x3d618bca	0.055064954
30	0xbda1755a	-0.07883711
31	0x3e0681c4	0.13135439
32	0x3d92b81e	0.07164024
33	0x3de20793	0.11036601
34	0x3c7af183	0.01531637
35	0x3ddff87c	0.109360665
36	0x3a7a072b	0.0009537811
37	0xbd9b8ea4	-0.07595566
38	0x3d9efb19	0.07762737
39	0x3cf3f9d1	0.029782208
40	0xbdb9976f	-0.09062087
41	0x3db6fbb1	0.08934725
42	0xbc452e68	-0.01203499
43	0x3d90cca0	0.07070279
44	0x3daaddf1	0.08343113
45	0x3ba07912	0.004897245
46	0x3d3bd574	0.04585786
47	0x3d84cd73	0.06484499
48	0x3e0d85c8	0.13820565
49	0x3da482d2	0.080327645
50	0x3cba7a47	0.022763385
51	0x3cd27f18	0.025695369
52	0xbc406bd2	-0.011744456
53	0xbe1d2ebb	-0.15349858
54	0x3dce8ef9	0.100858636
55	0x3d068f4d	0.032851506
56	0x3dac2ea9	0.08407337
57	0xbcc4ec51	-0.024038466
58	0x3d774b04	0.060374275
59	0xbd48d7c6	-0.049033903
60	0xbd1db4ea	-0.03850261
61	0xbd6ba193	-0.057527136
62	0xbd2dbd45	-0.04241683
63	0x3d316f6d	0.043319155
64	0xbd0c9e4e	-0.03433066
65	0x3da205ca	0.079112604
66	0x3dab8d80	0.08376598
67	0xbe19b6b5	-0.15011103
68	0x3da9a1d0	0.082828164
69	0x3dce1387	0.10062318
70	0x3e04cc2f	0.12968515
71	0xbcb1fc52	-0.021726761
72	0x3de7cdac	0.11318526
73	0xbdace8d9	-0.0844285
74	0xbd085f4b	-0.033294003
75	0xbdc47c42	-0.09594013
76	0x3d3d07a1	0.046149854
77	0xbd8025dd	-0.06257222
78	0xbc292551	-0.010323838
79	0xbdadaa93	-0.084798
80	0x3d9a121b	0.075229846
81	0x3dc1c89c	0.09462091
82	0xbdfd419c	-0.123660296
83	0xbe09b703	-0.1344872
84	0xbd046af1	-0.03232855
85	0x3dabd688	0.08390528
86	0x3de7ee4c	0.113247484
87	0x3d8011dc	0.062534064
88	0xbe226e39	-0.15862359
89	0x3b4c97f4	0.00312185
90	0xbdc4feec	-0.09618935
91	0x3cb4f7c7	0.022090806
92	0x3dff82c6	0.12476115
93	0xbe1dc480	-0.1540699
94	0xbd8b1f73	-0.06793108
95	0x3e0d0045	0.13769634
96	0x3de22bdc	0.11043522
97	0x3d9d1252	0.0766951
98	0x3def8720	0.11695695
99	0xbdbc5c72	-0.0919732
100	0x3d160880	0.0366292
101	0x3c7f7412	0.015591638
102	0xbddc1f40	-0.10748148
103	0x3d4d05cb	0.050054353
104	0xbd877691	-0.066144116
105	0xbd890345	-0.06690077
106	0xbd824068	-0.06359941
107	0xbce117df	-0.027477203
108	0xbd94b1b1	-0.072604544
109	0x3de4b193	0.11166682
110	0xbe02692e	-0.12735435
111	0x3ce6ad33	0.02815876
112	0x3cbe1d72	0.0232074
113	0x3dd6f64f	0.104961984
114	0xbdd29570	-0.10282409
115	0x3ba8c895	0.0051508644
116	0xbdc051a7	-0.09390574
117	0x3b6cccea	0.003613288
118	0x3d5ff478	0.054676503
119	0xbe0a8273	-0.13526325
120	0xbe13c0de	-0.14429042
121	0xbd605988	-0.054772884
122	0x3d9684b0	0.07349527
123	0x3e274a31	0.16336896
124	0xbe058636	-0.13039479
125	0xbd594d7d	-0.053052414
126	0x3e057a71	0.13034989
127	0x3d88bd49	0.06676728
128	0x3ce68ea1	0.028144183
129	0x3e0a8f2c	0.13531178
130	0xbe66a40d	-0.22523518
131	0x3d7823b5	0.060580928
132	0x3e0f3f2b	0.1398894
133	0xbcbcdb09	-0.023053663
134	0xbdc2bf74	-0.09509173
135	0xbd1a54ff	-0.037678715
136	0x3d18da42	0.037317522
137	0xbcb061ea	-0.021531064
138	0xbb142008	-0.00226021
139	0x3dd5fae9	0.10448248
140	0x3c999ff5	0.018753031
141	0xbca118d9	-0.019665169
142	0xbd33c93c	-0.043893084
143	0xbccffe11	-0.025389703
144	0x3db9acf5	0.09066192
145	0x3d5bc962	0.05365885
146	0xbcadfa26	-0.021237444
147	0x3dd36e4d	0.103237726
148	0x3d1356bc	0.03597139
149	0x3d291453	0.04127915
150	0x3e39b702	0.18136218
151	0x3e1d3ee8	0.15356028
152	0xbc7553cb	-0.014973591
153	0xbd8be214	-0.0683023
154	0xbce4702e	-0.027885523
155	0x3e51fba9	0.20506157
156	0xbd90b128	-0.0706504
157	0x3d36446f	0.044498857
158	0x3b98899d	0.0046550767
159	0x3d0e87a6	0.034797333
160	0x3d3a4fcb	0.045486253
161	0xbc0ee22a	-0.008720914
162	0x3cbc2696	0.022967618
163	0xbe1f909b	-0.15582506
164	0xbdd919e2	-0.1060064
165	0x3dd1d2ae	0.10245262
166	0xbd63c1b3	-0.055604648
167	0x3df33de4	0.11877039
168	0x3de311bb	0.11087366
169	0x3da30c8a	0.07961376
170	0x3da70225	0.08154706
171	0x3ccd0420	0.025026381
172	0xbcd976f9	-0.026545988
173	0xbbdd09de	-0.006745561
174	0xbdb116a6	-0.08646898
175	0xbdbba5c1	-0.091624744
176	0x3dff22de	0.12457822
177	0xbd94c4cf	-0.07264101
178	0x3d8483e6	0.0647047
179	0xbbb70354	-0.0055851135
180	0xbcc605b3	-0.02417264
181	0x3dd0bbd6	0.10192077
182	0x3e60f625	0.21968897
183	0x3e20d139	0.15704812
184	0xbd50853b	-0.05090831
185	0xbd1dd55a	-0.038533546
186	0x3dc67eb2	0.09692134
187	0x3e40484d	0.1877758
188	0xbd401cfd	-0.046902645
189	0x3d41541a	0.047199346
190	0x3df82a9c	0.12117502
191	0xbb083ac6	-0.0020786985
192	0xbdb85e28	-0.09002334
193	0xbd626f06	-0.05528166
194	0xbd020a36	-0.03174802
195	0xbd1434b2	-0.036183067
196	0x3d0d3362	0.03447283
197	0xbc5d3f3f	-0.013503849
198	0x3c7a51da	0.015278304
199	0x3d855a3a	0.0651135
200	0xbdc93a3c	-0.098255605
201	0x3c02d8ce	0.007986261
202	0x3d8b5ea8	0.068051636
203	0xbd4c1c9e	-0.04983198
204	0xbc153137	-0.009105972
205	0xbda932fb	-0.08261677
206	0x3c3634cc	0.011120986
207	0x3dba85e1	0.091075666
208	0xbe1b6306	-0.15174493
209	0xbd704c58	-0.058666557
210	0xbe20c60b	-0.15700547
211	0xbdbda121	-0.092592485
212	0xbdafd8e3	-0.0858629
213	0x3d9551ed	0.07291017
214	0x3db9f3ec	0.090797275
215	0x3d04bc00	0.032405853
216	0x3d96f56f	0.073710315
217	0xbd93708f	-0.07199203
218	0xbd7a4a36	-0.06110593
219	0x3cfd9231	0.030953499
220	0x3c15a11c	0.00913265
221	0xbd3ba498	-0.045811266
222	0xbe00a243	-0.12561898
223	0x3d6d06ad	0.057867695
224	0xbda4e96e	-0.08052336
225	0x3dd11524	0.102091104
226	0xbd78915e	-0.060685508
227	0x3db61aa8	0.08891803
228	0x3d39acfe	0.045330994
229	0x3cdd0754	0.026981033
230	0xbe0f7136	-0.1400803
231	0xbdcc9929	-0.099901505
232	0x3d07f860	0.033195853
233	0xbd913845	-0.07090811
234	0xbd626d3e	-0.055279963
235	0x3dc3efcd	0.09567223
236	0x3df51d43	0.11968472
237	0x3e2b4b9b	0.1672806
238	0x3cdedc37	0.027204616
239	0xbe06193c	-0.13095564
240	0x3dfeeb59	0.12447233
241	0x3db7eb24	0.089803964
242	0xbd89fb0b	-0.06737336
243	0xbdc91335	-0.098181166
244	0x3c3c48de	0.011491982
245	0xbbbc9484	-0.005755009
246	0xbc42c5ef	-0.011888011
247	0xbd800661	-0.06251217
248	0x3bb0e894	0.005398819
249	0x3d8c8a62	0.06862332
250	0x3de53179	0.11191077
251	0x3e1199df	0.14218853
252	0x3d88fffd	0.06689451
253	0xbdf54911	-0.11976827
254	0xbd2f12be	-0.042742483
255	0xbdb81372	-0.08988084

decoder.0.bias f4 [128]
0	0xbd92402a	-0.071411446
1	0x3e076617	0.13222538
2	0x3e3b497e	0.18289754
3	0xbc6e3264	-0.014538381
4	0x3d6cc521	0.057805184
5	0xb9b727a6	-0.0003493402
6	0x3e2159b5	0.15756877
7	0x3e0126d2	0.12612465
8	0x3d9baa64	0.07600859
9	0xbdcaeabd	-0.09908054
10	0x3df43c1b	0.11925527
11	0x3da4e568	0.08051568
12	0xbc8ebfb3	-0.017425394
13	0x3e1deb19	0.15421714
14	0x3e23319e	0.15936896
15	0x3d5fc912	0.054635115
16	0x3d23c411	0.039981905
17	0x3df2f6fc	0.11863515
18	0x3e2b7a54	0.16745883
19	0x3d9cbadf	0.0765283
20	0x3df1f957	0.11815136
21	0x3cd56b17	0.026052041
22	0x3dc9c69b	0.09852334
23	0x3e230a0d	0.15921803
24	0x3e8c4e48	0.27403474
25	0x3e05218c	0.13001078
26	0x3e28b8c1	0.16476728
27	0xbce84747	-0.0283543
28	0x3ca2415e	0.01980656
29	0xbe3fc095	-0.18725808
30	0xbdd8560c	-0.10563287
31	0x3d37ad4d	0.044843007
32	0xbd1d3657	-0.0383819
33	0x3d89ed90	0.067347646
34	0x3e77c33c	0.2419557
35	0x3dcac795	0.099013485
36	0x3dc79261	0.097447164
37	0xbd2dedfc	-0.042463288
38	0x3e01fe42	0.12694648
39	0xbd83f9ca	-0.06444128
40	0xbe2d4ab3	-0.16923027
41	0x3ba5708a	0.005048816
42	0xbd7bd0b2	-0.061478324
43	0x3e0fa106	0.1402627
44	0x3df229fb	0.118244134
45	0x3e44e0d7	0.19226395
46	0xbccd64b7	-0.025072439
47	0x3cab5912	0.020916495
48	0x3e42a11a	0.19006768
49	0x3dce9dbc	0.10088679
50	0x3d8d9fca	0.06915243
51	0xbd540a7a	-0.051767804
52	0x3d11efcb	0.035629075
53	0xbd6a6e90	-0.057234347
54	0x3d9ccbcb	0.07656058
55	0x3d6e97ef	0.058250364
56	0xbcdbe81d	-0.026844079
57	0x3cfd58bf	0.030926106
58	0x3de5893c	0.11207816
59	0x3e224720	0.15847445
60	0xbdf569e0	-0.11983085
61	0x3e1384e9	0.1440617
62	0x3e21530a	0.15754333
63	0x3dd7fe1e	0.10546516
64	0xbb44ad64	-0.0030010575
65	0x3d960759	0.0732562
66	0xbdfda069	-0.123841114
67	0x3e70fd99	0.2353424
68	0xbe708b6f	-0.2349069
69	0x3e8ca0cf	0.27466437
70	0x3d8f6c61	0.070030935
71	0x3dbd9ceb	0.09258445
72	0xbcd5a98c	-0.026081823
73	0xbc9d73a8	-0.019220188
74	0x3d84b002	0.06478883
75	0x3db0b55a	0.0862834
76	0x3e778e83	0.24175458
77	0x3e58ca32	0.21170881
78	0xbc8440d6	-0.016144197
79	0x3e37086a	0.17874303
80	0xbbc18da8	-0.0059067793
81	0x3e63018d	0.2216856
82	0x3e7addb4	0.24498636
83	0x3dcfdee9	0.101499386
84	0x3d71271c	0.05887519
85	0xbc8e7b1e	-0.017392691
86	0x3b5b9131	0.003350329
87	0xbd00c829	-0.031440888
88	0x3d73734c	0.059436128
89	0x3e5c81a9	0.21533836
90	0x3d39ad16	0.045331083
91	0xbd01e017	-0.03170785
92	0x3dcca48d	0.09992323
93	0xbd09702b	-0.033554237
94	0x3e1fba49	0.15598406
95	0x3d64f0cc	0.055893704
96	0x3e12cdf3	0.14336376
97	0x3d5e0f8f	0.054214057
98	0x3e64c0f5	0.22339232
99	0x3d2c6c87	0.042095687
100	0xbe26667e	-0.16250035
101	0x3da721af	0.081607215
102	0x3e69877d	0.22805591
103	0x3dfe5744	0.12418988
104	0x3d66ec23	0.05637754
105	0x3e184e0c	0.14873523
106	0x3cf01304	0.029305942
107	0xbe18d62a	-0.14925447
108	0x3e2e5832	0.17025831
109	0x3d0b37a4	0.03398861
110	0xbe1b2a5c	-0.15152878
111	0x3dea97a2	0.11454703
112	0x3d82a3de	0.063789114
113	0x3e7a164f	0.24422573
114	0xbe097f55	-0.1342748
115	0x3dddadfb	0.108242
116	0xbe0c0dab	-0.13677089
117	0x3c6c4168	0.014419891
118	0x3e061f02	0.13097766
119	0x3d37e993	0.044900488
120	0x3dce3900	0.10069466
121	0x3dbaff68	0.09130746
122	0xbcb374b5	-0.021906236
123	0xbcd06314	-0.02543787
124	0x3d90b8cb	0.070664965
125	0x3de39ae1	0.11113525
126	0xbe0047b5	-0.12527354
127	0x3d71c626	0.05902686

decoder.2.weight f4 [31, 128]
0	0xbe31df6a	-0.17370382
1	0xbd9cc8a1	-0.076554544
2	0xbdc998ef	-0.09843623
3	0x3acb3650	0.0015503857
4	0x3d2cdeca	0.042204656
5	0xbc340d2b	-0.010989468
6	0x3d4ffbc9	0.05077723
7	0xbc6c5ece	-0.0144269
8	0xbe30c0fa	-0.17261115
9	0x3b4e46ab	0.0031475227
10	0xbc23a6c9	-0.009988495
11	0xbcc1fb53	-0.023679411
12	0x3b8ff330	0.004393004
13	0x3d491c50	0.049099267
14	0xbda6aee8	-0.081388295
15	0xbbf76f08	-0.0075510778
16	0x3d8ca780	0.068678856
17	0x3d78fd74	0.060788587
18	0x3b6b2061	0.0035877454
19	0x3cb4333d	0.021997089
20	0x3c9f6dea	0.01946159
21	0xbd0847ac	-0.033271477
22	0x3c047488	0.008084424
23	0x3dc2ef2e	0.09518276
24	0x3d9648e9	0.07338125
25	0x3d69f8aa	0.05712191
26	0x3c14e246	0.009087151
27	0xbd3928c1	-0.04520488
28	0xbd980c99	-0.07424278
29	0x3cc6a1f0	0.02424714
30	0xbdf04178	-0.11731237
31	0xbd471591	-0.04860455
32	0xbad8869b	-0.0016519608
33	0xbb662711	-0.00351185
34	0x3d2326dc	0.03983198
35	0xbd062c75	-0.03275724
36	0x3dd6254f	0.10456335
37	0xbd7b5591	-0.0613609
38	0xbdbf10ae	-0.09329353
39	0xbd85d8d2	-0.06535496
40	0x3c61d953	0.013784724
41	0xbd06a682	-0.032873638
42	0xbdabe9da	-0.08394213
43	0x3d3960c0	0.045258284
44	0x3de371f6	0.11105721
45	0xbe0c352d	-0.1369216
46	0xbb69b8b8	-0.003566308
47	0xbdfc64f9	-0.123239465
48	0xbd739284	-0.0594659
49	0x3e6b122b	0.2295615
50	0x3d0c2c6c	0.03422205
51	0x39b0dda2	0.00033734465
52	0x3d009b48	0.031398088
53	0xbdddd813	-0.108322285
54	0x3d5edcff	0.054409977
55	0x3ba959c6	0.0051681725
56	0xbb23300b	-0.0024900462
57	0xbd9eeec7	-0.07760387
58	0x3de25ba3	0.110526346
59	0x3dba9889	0.09111125
60	0x3d24efd5	0.040267784
61	0xbd8abebb	-0.0677466
62	0x3ce7a959	0.028278993
63	0x3d60159b	0.054708105
64	0x3d9bedbf	0.07613706
65	0xbd974d4d	-0.07387791
66	0x3dec7ba5	0.11547021
67	0x3e0826ba	0.13296023
68	0xbd902f18	-0.070402324
69	0x3d8938e5	0.06700305
70	0x3d4c1bad	0.04983108
71	0xbe6088b2	-0.21927145
72	0x3cb97c9f	0.022642432
73	0xbc812acb	-0.015767476
74	0xbe238ec9	-0.15972437
75	0x3d43eecb	0.047835153
76	0x3d984e19	0.07436771
77	0xbd84db05	-0.06487087
78	0xbbcdaa9c	-0.0062764417
79	0xbd8e023d	-0.06934021
80	0xbd0b9157	-0.034074154
81	0x3dcebcd1	0.100946076
82	0xbd460e49	-0.048353467
83	0xbd25800b	-0.040405314
84	0xbd2f0a94	-0.042734697
85	0x3da941c5	0.08264498
86	0xbd12ff67	-0.035888102
87	0x3d62dfdd	0.055389274
88	0x3d52fef9	0.051512692
89	0x3ddd5252	0.10806717
90	0xbe14aa50	-0.14518094
91	0x3d21ba6f	0.039484438
92	0x3d4d62f2	0.05014319
93	0x3c54a3eb	0.012978534
94	0xbd82b948	-0.06382996
95	0x3c5f02a4	0.013611469
96	0x3cd16eef	0.025565593
97	0x3b2e96e6	0.0026640235
98	0xbdd239ba	-0.10264917
99	0xbb9f50ec	-0.0048619416
100	0x3cfdbebe	0.030974742
101	0xbe595d6f	-0.21227048
102	0x3e0288d0	0.12747502
103	0xbc38ca15	-0.011278649
104	0xbdbb943a	-0.09159131
105	0xbc399060	-0.011325926
106	0x3c2f93df	0.010716408
107	0x3d33952f	0.043843444
108	0x3da1c3e9	0.07898695
109	0xbc6f64f7	-0.014611474
110	0x3d48bb73	0.04900689
111	0x3cc03019	0.023460435
112	0xbd9b9288	-0.07596308
113	0x3d9ab217	0.07553499
114	0x3d5f310c	0.054490134
115	0xbd54d57f	-0.05196142
116	0xbdbe49fd	-0.09291456
117	0xbcd59753	-0.026073134
118	0x3d843358	0.064551055
119	0x3b9cd81b	0.004786504
120	0xbd6f3855	-0.05840333
121	0x3cb83c76	0.022489768
122	0xbe94a76e	-0.2903399
123	0xbc12ce50	-0.008960322
124	0x3b9b7409	0.004744057
125	0x3e079b69	0.13242878
126	0xbda95b51	-0.0826937
127	0xbe0c0b41	-0.13676168
128	0xbdcd1739	-0.10014195
129	0x3c1c2371	0.009529934
130	0xbd3ca3e0	-0.04605472
131	0x3d7880d3	0.06066973
132	0xbcbbec21	-0.022939743
133	0xbcc0dfa9	-0.02354415
134	0xbd446e45	-0.047956724
135	0xbbcc7ccf	-0.0062404643
136	0xbb0b1d07	-0.0021227018
137	0xbcd4468f	-0.025912551
138	0x3db66150	0.0890528
139	0x3c3a3b32	0.011366652
140	0x3d333ebb	0.043760996
141	0xbde3b4c2	-0.11118461
142	0xbed6263d	-0.41826048
143	0x3d426060	0.04745519
144	0x3d6089ff	0.054819103
145	0xbdb45b05	-0.08806423
146	0x3d8f956e	0.07010923
147	0x3da3065c	0.07960197
148	0xbccdc6c8	-0.0251192
149	0x3dd8b749	0.10581834
150	0x3c3c104d	0.011478496
151	0xbb979a6b	-0.0046265624
152	0xbdb839c5	-0.08995394
153	0xbd2e3f57	-0.042540874
154	0x3c2a6acf	0.010401442
155	0x3c304b38	0.010760121
156	0xbc2231c0	-0.009899557
157	0xbd36b4a9	-0.044605885
158	0x3cbcb919	0.02303748
159	0xbaae914e	-0.0013318451
160	0xbd6c4fe6	-0.057693385
161	0xbd54b4b0	-0.05193013
162	0x38c20363	9.251272e-05
163	0x3c436a1b	0.011927153
164	0xbe037b41	-0.12839986
165	0xbd32b2a1	-0.043627385
166	0xbe185b64	-0.14878613
167	0x3d5e071a	0.05420599
168	0xbba53b70	-0.005042486
169	0xbc0e30f6	-0.008678665
170	0x3cf26af6	0.029592019
171	0xbe0b3fff	-0.13598631
172	0xbb2e2ac2	-0.0026575779
173	0x3cd4c391	0.02597216
174	0xbcee343c	-0.029077642
175	0xbd88e92a	-0.066850975
176	0x3c20a11a	0.009804035
177	0x3e821d38	0.25412917
178	0xbd0935b8	-0.033498496
179	0x3cc1542b	0.023599705
180	0xbd939d10	-0.07207692
181	0xbcb51bea	-0.022108037
182	0x3dc26d68	0.09493524
183	0xbd148324	-0.036257878
184	0xbc00b89a	-0.007856512
185	0x3d10c82c	0.03534715
186	0x3c6d7813	0.01449396
187	0x3d15deb9	0.036589358
188	0x3d094b30	0.03351897
189	0xbd99d900	-0.075120926
190	0x3dd6d9a4	0.104907304
191	0xbca72fc5	-0.02040852
192	0xbe1e098f	-0.15433334
193	0x3d6739f8	0.056451768
194	0xbb7c1f33	-0.0038470745
195	0xbddac75e	-0.106825575
196	0x3cbd25db	0.02308934
197	0xbbe2e146	-0.0069238273
198	0xbe032869	-0.12808384
199	0x3d5a86d6	0.053351246
200	0x3d11519b	0.035478216
201	0xbbbabd8a	-0.0056988643
202	0x3a0371f9	0.00050142367
203	0xbce56612	-0.028002772
204	0x3d89890c	0.06715593
205	0x3ce1d17f	0.027565716
206	0xbd932b92	-0.07186045
207	0xbd5460be	-0.051850073
208	0x3bf18d85	0.007371607
209	0xbdceaae0	-0.100911856
210	0xbd6a157d	-0.0571494
211	0xbd163c9f	-0.036678907
212	0x3d6793d9	0.056537483
213	0x3d091cc0	0.033474684
214	0xbc0aa987	-0.00846327
215	0x3ce6dc8f	0.028181342
216	0x3c95eb47	0.018300666
217	0x3c88c935	0.016697505
218	0x3d89d48d	0.06729994
219	0xbd4d21c4	-0.05008103
220	0xbd1bd9fa	-0.038049676
221	0xbda3fe54	-0.080074936
222	0x3d06d853	0.032921147
223	0xbc84e658	-0.016223118
224	0xbd19abb7	-0.037517276
225	0x3da89c1f	0.08232903
226	0xbe0fd011	-0.14044215
227	0x3df35886	0.11882119
228	0x3d6d157f	0.05788183
229	0x3e1aa7c9	0.15103067
230	0xbd9224ab	-0.071359
231	0xbc593c61	-0.013259024
232	0xbb69be82	-0.003566653
233	0x3d6a3e7a	0.05718849
234	0x3dca2f00	0.09872246
235	0xbd337d23	-0.04382051
236	0x3e1db867	0.15402375
237	0x3d165ce2	0.036709674
238	0xbb4df48f	-0.0031426286
239	0xbb9608d0	-0.0045786873
240	0x3db2a451	0.08722747
241	0x3d4ad4c5	0.04951932
242	0xbd1aff09	-0.037840877
243	0x3d32fd5d	0.043698657
244	0x3c7834ad	0.015149278
245	0x3d6c307c	0.057663426
246	0xbdc9a479	-0.09845824
247	0x3d4db941	0.0502255
248	0x3d573b13	0.052546572
249	0x3cb533fa	0.02211951
250	0xbd11c720	-0.03559029
251	0xbda51c0b	-0.080619894
252	0x3e0386b6	0.12844357
253	0x3c969c3e	0.018385049
254	0xbd495799	-0.049155805
255	0x3ca5c9a2	0.020237748

decoder.2.bias f4 [31]
0	0x3e364e4e	0.17803308
1	0x3da1270c	0.07868776
2	0xbc781ea5	-0.015144025
3	0xbd83262a	-0.064037636
4	0x3d203de4	0.039121523
5	0xbc3b08a5	-0.011415635
6	0x3d3b0b34	0.04566498
7	0x3e7fe66c	0.24990243
8	0x3deed4b7	0.11661666
9	0xbe0f1fe7	-0.13977014
10	0xbd753479	-0.059864495
11	0xbd877dc0	-0.06615782
12	0x3d704a0d	0.05866437
13	0x3c56d1e0	0.013111562
14	0xbe310f99	-0.17291106
15	0xbcf1e4df	-0.02952808
16	0xbdaba076	-0.08380215
17	0xbd956f86	-0.07296662
18	0xbd14341c	-0.036182508
19	0xbe0a8bd6	-0.13529906
20	0xbdb1ca28	-0.08681136
21	0xbdaa0a7a	-0.083027795
22	0xbdc2de08	-0.09515005
23	0xbd87b1a7	-0.06625681
24	0x3d0e8a15	0.034799654
25	0xbda6262e	-0.08112751
26	0xbd9a7db1	-0.07543505
27	0xbddfc6ba	-0.10926576
28	0xbd3d180b	-0.046165507
29	0xbca5c544	-0.020235665
30	0xbd409adb	-0.04702268
