GNNRecommender_best.pth (torch, 60288 bytes, 6 tensors)

gcn1.linear.weight f4 [128, 31]
0	0x3c8d848d	0.01727512
1	0x3e342c4f	0.17595027
2	0xbe049bb3	-0.1295002
3	0xbe0b2cd0	-0.13591313
4	0x3cb8c09a	0.022552777
5	0xbde4964a	-0.11161478
6	0xbde5bb93	-0.112174176
7	0xbdf4b4ae	-0.119485244
8	0xbc7171e7	-0.014736629
9	0x3c56cc1f	0.01311019
10	0x3cda25e6	0.0266294
11	0xbc955c88	-0.018232599
12	0xbd052d29	-0.03251377
13	0xbd4897aa	-0.048972763
14	0x3d39aac0	0.045328856
15	0x3ea4da0b	0.32197604
16	0x3cfeeed0	0.031119734
17	0xbd7f3f81	-0.06231642
18	0x3e87dfbe	0.2653789
19	0x3c91108b	0.017708084
20	0xbd385730	-0.045005023
21	0x3de3a6bf	0.11115789
22	0x3ddaaa49	0.106770106
23	0x3e5f9e37	0.21837698
24	0xbda8cc78	-0.08242124
25	0x3cf1af1b	0.029502442
26	0xbc7876f4	-0.015165079
27	0xbcd03fca	-0.025421042
28	0xbcac36d6	-0.021022242
29	0xbdd821d2	-0.10553326
30	0x3e345aaa	0.1761271
31	0x3e743ded	0.23851748
32	0xbd6bb4ee	-0.057545595
33	0xbdb8d02e	-0.09024082
34	0xbe03c4ec	-0.12868088
35	0x3e91e470	0.28494596
36	0x3e2eca8e	0.17069456
37	0x3e245b69	0.16050495
38	0xbe2d6792	-0.1693404
39	0x3ec72bf9	0.38900736
40	0x3d9e1f12	0.0772077
41	0xbe08a001	-0.13342287
42	0x3de1ef99	0.11032028
43	0xbdef65c0	-0.11689329
44	0xbd36262b	-0.044469994
45	0xbd1c0abc	-0.038096175
46	0xbd6d7c27	-0.05797973
47	0x3e40c164	0.18823773
48	0xbde2eef1	-0.11080731
49	0xbd888f23	-0.06667926
50	0xbd5379e5	-0.05162992
51	0x3db68def	0.089137904
52	0xbca4f71e	-0.020137366
53	0x3e3c9a4a	0.18418232
54	0x3d19e01f	0.037567254
55	0x39183850	0.00014516828
56	0x3d5a9f72	0.053374715
57	0x3db67112	0.08908285
58	0xbe07e87d	-0.13272281
59	0x3e5d631b	0.21619837
60	0xbdca1472	-0.09867181
61	0x3e195cc3	0.14976792
62	0xbc7753ac	-0.0150956325
63	0xbdafe6c4	-0.08588937
64	0xbdb19362	-0.08670689
65	0x3d96eb83	0.07369139
66	0xbd333b85	-0.043757934
67	0xbde00ab9	-0.10939545
68	0x3e1255a4	0.14290482
69	0xbe226739	-0.15859689
70	0x3bebdd89	0.00719804
71	0x3de8109d	0.11331294
72	0x3d0e7ba9	0.0347859
73	0xbe23a079	-0.15979184
74	0x3ea13d15	0.31491914
75	0xbcaad6c0	-0.020854354
76	0xbd8e0701	-0.0693493
77	0x3e2a9064	0.16656643
78	0xbd8189c8	-0.06325108
79	0x3e24e3fe	0.16102597
80	0x3c03561c	0.008016136
81	0x3c8925d2	0.016741667
82	0xbd50e70a	-0.051001586
83	0x3e1149a4	0.14188248
84	0xbd513a15	-0.051080782
85	0x3d3372e2	0.043810733
86	0xbdba5e58	-0.09100026
87	0xbdcf1c3a	-0.10112806
88	0x3dad068e	0.08448516
89	0x3ea45db6	0.32102746
90	0xbdf1cca7	-0.118066125
91	0x3e70b499	0.23506393
92	0xbc1fc531	-0.009751604
93	0x3d43845e	0.047733657
94	0x3df93508	0.12168318
95	0x3ccada1d	0.024762208
96	0xbcb42019	-0.021987962
97	0x3d937f34	0.072019964
98	0xbe1965f9	-0.14980306
99	0x3deab296	0.11459844
100	0xbcfed3ad	-0.031106794
101	0xbb029cd2	-0.0019929898
102	0x3d1e1f1e	0.038603894
103	0xbdac7ce3	-0.08422258
104	0xbcae23df	-0.021257339
105	0x3d3199aa	0.043359436
106	0xbcffa8d8	-0.03120844
107	0xbcc37640	-0.023860097
108	0xbc8857c7	-0.016643418
109	0x3e5bd6c9	0.21468653
110	0xbc8d673d	-0.017261142
111	0xbcf7b2a8	-0.030236557
112	0x3e8ce9a7	0.27522013
113	0xbdad06d4	-0.08448568
114	0xbde9e1dd	-0.11420033
115	0x3d2ee764	0.04270114
116	0xbd96caf6	-0.073629305
117	0x3e57f82c	0.21090764
118	0xbd28b1cc	-0.041185185
119	0xbdb2f592	-0.08738245
120	0x3e25821c	0.16162914
121	0x3e13181f	0.1436467
122	0x3eb7bc53	0.35885867
123	0x3bb767b9	0.0055970815
124	0xbc57ddcb	-0.013175438
125	0xbcdc3876	-0.026882391
126	0x3ce491d3	0.027901566
127	0xbd0de86a	-0.034645475
128	0x3d7c2e93	0.061567854
129	0xbdcfeff3	-0.101531886
130	0x3db128c3	0.08650353
131	0x3e49de3a	0.19713679
132	0x3e300670	0.17189956
133	0xbe15400b	-0.14575212
134	0x3ea15f20	0.31517887
135	0xbd59f69a	-0.053213693
136	0xbd5dd476	-0.054157697
137	0x3e4478bf	0.19186686
138	0x3d9e8f0a	0.07742126
139	0x3e78c3f7	0.24293505
140	0xbd7c0405	-0.06152727
141	0xbcf6271a	-0.030047942
142	0xbda30ad2	-0.07961048
143	0x3ddc2d93	0.1075088
144	0xbcab7513	-0.020929849
145	0xbc8dd657	-0.01731412
146	0x3d86633e	0.06561898
147	0x3c6f6763	0.014612052
148	0xbda498d7	-0.080369644
149	0xbd37ea8d	-0.04490142
150	0x3dcf5e4f	0.1012541
151	0x3d72e11a	0.059296705
152	0x3dd0f666	0.10203247
153	0xbe99144d	-0.298983
154	0xbe0aab4c	-0.13541907
155	0xbd0feb80	-0.0351367
156	0x3e01f32d	0.1269042
157	0x3b328d50	0.0027244873
158	0x3d24a8ce	0.040200047
159	0xbc7e91d9	-0.0155377025
160	0xbd9312c4	-0.07181314
161	0x3d554581	0.052068237
162	0x3d8ddd8f	0.069270246
163	0x3d0a4400	0.033756256
164	0xbb54e8aa	-0.0032487311
165	0x3e33378c	0.17501658
166	0x3d0e439e	0.034732454
167	0x3e4c7802	0.19967654
168	0xbc1ab30c	-0.009442102
169	0x3dd47dff	0.10375594
170	0xbda3908b	-0.07986554
171	0xbc22b634	-0.009931136
172	0x3e52112a	0.2051436
173	0x3dc90381	0.098151214
174	0x3d833dd0	0.06408274
175	0xbb89f309	-0.0042098803
176	0x3cc39b7a	0.023877848
177	0x3dbaa99b	0.09114381
178	0xbd8a669e	-0.06757854
179	0xbd223a0f	-0.03960615
180	0x3bbc4fea	0.005746831
181	0xbc883621	-0.016627373
182	0x3e3101c2	0.17285827
183	0x3ead63f4	0.3386532
184	0xbe579dda	-0.2105631
185	0xbd4c4782	-0.049872883
186	0x3c7be143	0.015373531
187	0xbc989533	-0.018625831
188	0x3b352a3a	0.0027643577
189	0x3c92368a	0.017848272
190	0x3c42d190	0.011890784
191	0xbe0958d4	-0.13412791
192	0x3d859549	0.065226145
193	0x3cc8874d	0.024478579
194	0xbde39a1d	-0.11113379
195	0x3dfca9be	0.12337063
196	0xbcac8099	-0.021057414
197	0xbde37b81	-0.11107541
198	0x3dacbe5c	0.08434746
199	0x3e94a27d	0.2903022
200	0x3c6e3c75	0.014540781
201	0x3e66a1ab	0.22522609
202	0x3dffc751	0.124891885
203	0xbbe9cc02	-0.0071349153
204	0xbdb9caa0	-0.09071851
205	0x3bc31b59	0.005954188
206	0xbc285668	-0.010274507
207	0x3e24678d	0.16055126
208	0x3e26188b	0.162203
209	0xbe0011e3	-0.12506823
210	0xbcc32c85	-0.02382494
211	0x3ea3045b	0.3183926
212	0xbc88adc9	-0.01668443
213	0xbdc088c5	-0.09401087
214	0x3c736968	0.014856674
215	0xbf1813be	-0.59405124
216	0x3e6e1178	0.23248851
217	0x3b202e70	0.0024441741
218	0x3e70210f	0.23450111
219	0x3e16db1d	0.14732023
220	0x3ed00dfc	0.4063567
221	0x3e162e42	0.14666083
222	0xbe06db47	-0.13169585
223	0xbc2a7eae	-0.010406179
224	0x3d7f8d19	0.06239042
225	0xbcaf566f	-0.02140352
226	0xbc4556b1	-0.012044595
227	0x3c210805	0.009828572
228	0xbdc2eff6	-0.09518425
229	0x3d1c3c68	0.038143545
230	0xbd25dd6f	-0.04049438
231	0x3c48906b	0.012241463
232	0x3bb8b579	0.0056368676
233	0x3af9c532	0.0019055961
234	0x3e6d8334	0.23194581
235	0x3d94a6ef	0.072584026
236	0x3dd29ab0	0.102834105
237	0x3c60b959	0.013716065
238	0xbb36062c	-0.0027774675
239	0xbc81b313	-0.01583246
240	0x3d06a080	0.03286791
241	0xbcf00049	-0.029297011
242	0x3e0cee0a	0.1376268
243	0xbca053ae	-0.019571152
244	0xbdfc010c	-0.12304887
245	0x3e0344f5	0.12819274
246	0x3eafef7e	0.34362406
247	0xbe016c5f	-0.12638997
248	0x3d0fe941	0.035134558
249	0xbdf1cd4c	-0.118067354
250	0x3c086a71	0.008326159
251	0xbd0bb252	-0.034105606
252	0xbd85b472	-0.06528558
253	0xbd0fb814	-0.03508766
254	0x3c8f1d34	0.01746998
255	0xbd9c9a0d	-0.0764657

gcn1.linear.bias f4 [128]
0	0x3ee95332	0.45571285
1	0x3e54f0c1	0.20794965
2	0x3f1b53dc	0.60674834
3	0x3ee2dd12	0.44309288
4	0x3e4970bb	0.1967191
5	0x3eca5215	0.3951575
6	0x3f1f3591	0.6219111
7	0x3f011d6a	0.5043551
8	0x3ef39aa3	0.47578916
9	0x3f10cb2e	0.5656003
10	0x3e9b10d9	0.3028629
11	0x3e4f5739	0.20248117
12	0x3ed8eac6	0.42366618
13	0x3f0b3593	0.5437862
14	0xbddc32e2	-0.107518926
15	0x3f042ef1	0.51634127
16	0x3e014b95	0.12626489
17	0x3d6a61be	0.05722212
18	0x3e6923af	0.22767518
19	0x3eb5776e	0.3544268
20	0x3edd2366	0.4319107
21	0x3e080306	0.13282403
22	0x3eab7499	0.33487394
23	0x3e23570d	0.15951176
24	0x3f04dab6	0.51896226
25	0x3e0299eb	0.12754028
26	0x3f26b9ef	0.6512746
27	0x3e86093a	0.26178914
28	0x3eeb4261	0.4594908
29	0x3e1ff336	0.15620121
30	0x3e421469	0.18953098
31	0x3ef9031a	0.4863518
32	0x3e9bf798	0.30462337
33	0x3e233f98	0.15942228
34	0x3e42cf1c	0.19024318
35	0x3e758361	0.23975898
36	0x3e887e6a	0.26658946
37	0x3c51e13e	0.01281005
38	0x3e28f626	0.16500148
39	0x3e2b8005	0.16748054
40	0x3eefd8de	0.46845144
41	0x3d0c29e3	0.034219634
42	0x3e933404	0.28750622
43	0xbdc2a778	-0.095045984
44	0x3dbc3ce9	0.09191305
45	0xbe0f9a65	-0.1402374
46	0x3f174e0f	0.5910348
47	0x3ebe9741	0.37224773
48	0x3e753596	0.23946223
49	0xbdabeabb	-0.08394381
50	0x3ede4217	0.43409798
51	0x3ef0bf7e	0.47021097
52	0x3ef1ec0a	0.47250396
53	0x391c8bec	0.00014929444
54	0x3e81740f	0.25283858
55	0x3c9c8180	0.01910472
56	0x3df82abc	0.12117526
57	0x3ed81866	0.42206115
58	0x3edfd7e3	0.43719396
59	0x3ea9062e	0.33012527
60	0x3eb334fb	0.35001358
61	0x3f070302	0.52738965
62	0x3ece371d	0.40276423
63	0x3e9f0301	0.3105698
64	0x3ec86ca9	0.391454
65	0x3ecd0970	0.40046263
66	0x3ec5e968	0.38654637
67	0x3e20ba66	0.15696105
68	0x3f229bd2	0.6351901
69	0xbdf8d6b9	-0.1215033
70	0x3e887d23	0.26657972
71	0x3ecf71bb	0.40516457
72	0x3c648662	0.013948055
73	0x3ec1bd0c	0.37839544
74	0x3eb07bad	0.34469357
75	0x3eda5ebd	0.42650405
76	0x3e948e92	0.29015023
77	0x3e8cb2ab	0.27480063
78	0xbd2b6927	-0.041848328
79	0xbe30897d	-0.17239948
80	0x3e8a7f1e	0.27050108
81	0x3e528cc4	0.2056151
82	0x3f1128d0	0.567029
83	0xbe71921c	-0.23590893
84	0xbe3209fb	-0.1738662
85	0x3f109370	0.5647497
86	0x3edfb6c1	0.43694118
87	0x3ec874e9	0.39151695
88	0x3e3dfbf8	0.1855315
89	0xbc1e00b9	-0.009643727
90	0x3ee42362	0.44558245
91	0x3ec9f97e	0.3944816
92	0x3e8d5421	0.27603248
93	0x3e337fbf	0.175292
94	0x3e4c741b	0.19966166
95	0x3f29fc61	0.66400725
96	0x3ef84441	0.48489574
97	0x3e80eaa9	0.25179031
98	0x3b753285	0.0037414145
99	0x3f0f46b8	0.55967283
100	0x3e1b1a3c	0.15146726
101	0x3f01280c	0.5045173
102	0x3eb3c2fd	0.35109702
103	0x3eac1845	0.33612266
104	0x3d88dc84	0.06682685
105	0xbc3e7f4c	-0.01162703
106	0x3ed5385a	0.41644555
107	0x3ca406f6	0.02002285
108	0x3f2e8fd3	0.6818821
109	0x3e86ab20	0.26302433
110	0x3ee37041	0.4442158
111	0x3e3eafce	0.18621752
112	0xbd31ad36	-0.043378077
113	0x3f0f14ec	0.558913
114	0x3d053bc6	0.032527708
115	0x3ec3822b	0.38185248
116	0x3e8cd684	0.27507412
117	0x3e98241e	0.29715055
118	0x3f1bd0ef	0.6086568
119	0x3e8a5779	0.2701986
120	0x3e5f13cd	0.21784897
121	0x3f12a0f7	0.5727686
122	0x3f31718d	0.6931389
123	0x3ed014cd	0.4064087
124	0xbe227fbf	-0.15869044
125	0x3f05590b	0.52088994
126	0xbdadc6c6	-0.08485179
127	0x3ed8b39f	0.4232454

gcn2.linear.weight f4 [64, 128]
0	0xbc500525	-0.012696539
1	0x3d9e12f0	0.07718456
2	0x3c7cb1ec	0.015423279
3	0xbcac958b	-0.021067401
4	0x3e832df7	0.25621006
5	0x3db169f3	0.08662786
6	0x3e20f9bb	0.15720265
7	0x3d6eb6e3	0.058279883
8	0xbd0de77e	-0.034644596
9	0x3d85da9c	0.06535837
10	0xbd96d098	-0.07364005
11	0xbd33cd30	-0.043896854
12	0x3d2219f1	0.03957552
13	0x3e6382a7	0.22217809
14	0x3e20dfd6	0.15710387
15	0xbd54d30e	-0.05195909
16	0x3d97093e	0.0737481
17	0x3dd2a175	0.10284702
18	0xb971b7e1	-0.00023052051
19	0xbd4ef7d3	-0.050529312
20	0xbdd30893	-0.1030437
21	0x3db3f097	0.08786123
22	0xbe1c0b74	-0.15238744
23	0x3e1aaa2c	0.15103978
24	0xbdf46b2f	-0.11934506
25	0xbdbf1e9c	-0.0933201
26	0xbd702085	-0.058624763
27	0x3d2841d4	0.041078404
28	0xbdaec67b	-0.08533951
29	0x3e26dd9b	0.16295473
30	0xbc428244	-0.011871878
31	0xbb75626d	-0.00374427
32	0x3c8670d0	0.016411215
33	0x3d81e750	0.063429475
34	0x3d7b4ee2	0.061354525
35	0x3d842e2b	0.06454118
36	0x3e02214f	0.12708019
37	0xbc9bf52f	-0.019037811
38	0x3ded1a20	0.115772486
39	0x3dffa0b3	0.12481823
40	0x3d6ac53d	0.057317007
41	0x3df37dd2	0.11889233
42	0x3cf18a5b	0.029484918
43	0x3d8f9886	0.070115134
44	0x3d021ffe	0.03176879
45	0xbd28ebca	-0.04124049
46	0x3e0b6846	0.13613996
47	0x3b03f89a	0.0020137192
48	0x3de4e28a	0.111760214
49	0xbca31423	-0.019907063
50	0x3d956293	0.07294192
51	0xbdab56a4	-0.08366135
52	0x3d98c2c7	0.07459026
53	0xbd568b99	-0.052379224
54	0x3e32f34d	0.17475624
55	0x3c8b20c7	0.016983403
56	0xbd5557ea	-0.052085795
57	0x3da4bdec	0.08044037
58	0xbdebf8e6	-0.11522083
59	0xbdc76282	-0.09735586
60	0x3d79b55b	0.06096397
61	0x3e0a56bf	0.13509654
62	0x3e0ae0a7	0.1356226
63	0x3d715a8b	0.05892424
64	0xbe313dde	-0.17308757
65	0x3cb09e25	0.021559784
66	0x3cf2411b	0.02957206
67	0xbd90d560	-0.07071948
68	0xbaa129f1	-0.0012295825
69	0x3df7801a	0.1208498
70	0x3d893f22	0.06701495
71	0x3cfadb1b	0.030622056
72	0x3cedfa6d	0.029050076
73	0xbca90291	-0.020631107
74	0xbd0b7e39	-0.034055922
75	0x3dacc07e	0.084351525
76	0xbd800582	-0.062510505
77	0x3ca6322b	0.020287594
78	0x3c540f93	0.012943166
79	0xbc0aabb7	-0.008463792
80	0x3d5fc70c	0.054633185
81	0xbdddb05e	-0.10824655
82	0x3dc77c90	0.09740555
83	0x3d5b98e6	0.053612612
84	0x3d1e1917	0.038598146
85	0x3d9d74c0	0.07688284
86	0xbb9f18e6	-0.004855263
87	0x3d41fc65	0.047359843
88	0x3d97d84f	0.074143045
89	0x3dc1e840	0.09468126
90	0x3e0dc500	0.13844681
91	0xbd08f38b	-0.033435386
92	0xbda3ca54	-0.079975754
93	0xbd41b852	-0.047294922
94	0x3dfb37fa	0.12266536
95	0x3dcfe503	0.101511024
96	0xbdf0f593	-0.117655896
97	0xbd4d7865	-0.050163645
98	0x3d28a358	0.0411714
99	0xbe03d7b8	-0.12875259
100	0x3d8e424b	0.06946238
101	0xbe0f5279	-0.13996305
102	0xbd627813	-0.055290293
103	0xbc975855	-0.018474737
104	0x3cedef0e	0.029044654
105	0x3bf71e48	0.0075414516
106	0x3d7ec349	0.062197957
107	0xbd6d3ba5	-0.05791821
108	0x3d037534	0.032094195
109	0x3d1ed6fd	0.038779248
110	0x3e0ac639	0.13552178
111	0xbcf768cf	-0.030201344
112	0xbdde9c5c	-0.10869667
113	0x3dc4ecb1	0.09615458
114	0xbddcba16	-0.107776806
115	0x3c666f97	0.014064691
116	0x3d91d9a5	0.071215905
117	0xbd08f0e9	-0.033432875
118	0x3d9dd004	0.077056915
119	0x3db6ec85	0.08931831
120	0x3e5fd6db	0.21859305
121	0x3e1e56fb	0.15462868
122	0x3d4c8d0a	0.049939193
123	0x3db80a68	0.0898636
124	0xbc9d76f7	-0.019221766
125	0xbd8180b0	-0.06323373
126	0x3ca8b616	0.020594638
127	0x3cf1b8b8	0.029507026
128	0x3d998bc5	0.07497362
129	0x3e336b3d	0.17521377
130	0xbda6390f	-0.08116352
131	0x3dbd9754	0.09257379
132	0x3cf4271c	0.029803805
133	0x3d54e84d	0.05197935
134	0xbcbfee71	-0.023429127
135	0x3db2dc35	0.087334074
136	0x3c15ec08	0.0091505125
137	0x3b4eaf3f	0.003153756
138	0x3d7c9ded	0.061674047
139	0x3d597dec	0.053098604
140	0x3dad5010	0.08462536
141	0x3e3829ad	0.17984648
142	0x3dfb5697	0.12272375
143	0x3c24bbf5	0.010054578
144	0xbcb03f7c	-0.021514647
145	0xbca4e7f3	-0.020130133
146	0x3dff898f	0.12477409
147	0xbd9229b1	-0.07136858
148	0x3c9e5ea1	0.019332232
149	0xbcdc7a83	-0.026913887
150	0xbd2288d6	-0.03968128
151	0x3bc576a1	0.0060261046
152	0xbd80ed8b	-0.06295308
153	0x3dfddd56	0.12395732
154	0x3d22f9c6	0.039788984
155	0x3dfb64b6	0.122750685
156	0x3ce783fa	0.028261174
157	0x3c3d9017	0.011569998
158	0xbd436b97	-0.047710028
159	0xbdceb833	-0.10093727
160	0x3d5c27f0	0.053749025
161	0x3de116f9	0.1099071
162	0x3d91b6ca	0.07114942
163	0xbdd5d6a0	-0.10441327
164	0xbdd1f6c5	-0.10252146
165	0x3d682d19	0.056683633
166	0xbc4c9353	-0.012486297
167	0xbdf097d2	-0.117477074
168	0x3d2969f7	0.04136082
169	0xbd1ee6b5	-0.038794238
170	0xbd4016c3	-0.046896707
171	0x3df1972e	0.11796413
172	0xbce2afa7	-0.027671648
173	0xbdae489c	-0.08509943
174	0xbdf04782	-0.11732389
175	0x3dfee447	0.12445884
176	0x3dabffe5	0.083984174
177	0x3d45c2f8	0.04828164
178	0x3d6cede6	0.057844065
179	0xbdd75ec1	-0.1051612
180	0x3d56fa9e	0.0524851
181	0xbde51ecd	-0.111875154
182	0x3e43128f	0.19050048
183	0x3d6c0a3e	0.057626955
184	0x3df39314	0.11893287
185	0x3e143c6c	0.14476174
186	0x3d40b3cd	0.04704647
187	0x3e0f89af	0.14017366
188	0xbba79073	-0.0051136552
189	0x3d3e1588	0.046407253
190	0x3de0f3a7	0.10983973
191	0xbdb318b7	-0.08744948
192	0x3c4f5bd7	0.012656174
193	0x3cf127cf	0.029437928
194	0xbda7cda0	-0.08193517
195	0x3c735e19	0.014853978
196	0x3dd06261	0.10175014
197	0x3caf7c3b	0.021421542
198	0x3e32c026	0.17456111
199	0x3d555c05	0.05208971
200	0x3d051462	0.03249014
201	0x3e4c59f8	0.19956195
202	0x3dc0e66e	0.09418951
203	0x3d510b0b	0.051035922
204	0x3e130411	0.1435702
205	0x3caad984	0.020855673
206	0x3d19e079	0.03756759
207	0xbda58ee8	-0.08083898
208	0x3c85d962	0.016339008
209	0x3d87d57d	0.066325165
210	0x3d743d79	0.059628937
211	0xbd1e5672	-0.03865666
212	0xbd9b89b4	-0.07594624
213	0xbd75c2ca	-0.06000022
214	0x3c2e1fbb	0.010627682
215	0x3d9a7a6d	0.07542882
216	0xbcc0a2b6	-0.023515087
217	0x3dc80691	0.097668774
218	0x3c93b3ac	0.01803001
219	0xbddbe1bd	-0.107364155
220	0x3dcf8988	0.10133654
221	0x3d93733a	0.07199712
222	0x3daf7481	0.08567143
223	0x3d5236e0	0.051321864
224	0xbd66ac5e	-0.056316726
225	0x3d0470bb	0.03233407
226	0x3d174b1e	0.03693687
227	0xbd9d67ea	-0.07685836
228	0x3d9270ef	0.071504466
229	0x3d77ff67	0.060546305
230	0x3da35bf2	0.079765216
231	0x3bcd576b	0.0062665245
232	0xbbd29adc	-0.006427152
233	0xbd2f1752	-0.04274685
234	0xbda9076e	-0.0825337
235	0xbd8c051d	-0.06836913
236	0x3ddefcc8	0.10888058
237	0xbc6e21e3	-0.014534446
238	0x3c07dc3b	0.008292253
239	0x3cea7826	0.028621744
240	0x3dead521	0.11466432
241	0x3d0c3998	0.034234613
242	0xbe109117	-0.14117847
243	0x3da2c5d6	0.079478905
244	0x3da3a374	0.079901606
245	0x3d78bd26	0.06072726
246	0xbe30a2c6	-0.17249593
247	0x3d33a55b	0.043858867
248	0xbd8fc97d	-0.07020853
249	0x3d3d15d8	0.04616341
250	0xbc3cdf49	-0.011527845
251	0x3d4e9f0c	0.050444648
252	0x3cee7579	0.02910875
253	0x3df81943	0.12114193
254	0xbe3f4f97	-0.18682705
255	0x3d56ee4b	0.052473348

gcn2.linear.bias f4 [64]
0	0xbd57be7f	-0.052671906
1	0xbcb6dacb	-0.022321125
2	0x3b0d3f83	0.0021552749
3	0xbc6467a0	-0.013940722
4	0x3dcdeb30	0.10054624
5	0x3dfed00c	0.124420255
6	0xbe28d09b	-0.16485827
7	0x3cea2f11	0.028586896
8	0x3e3bc00d	0.1833498
9	0x3e0f764e	0.14009973
10	0x3db83230	0.089939475
11	0x3e30ef34	0.17278749
12	0x3cdcade5	0.026938388
13	0x3d0196bc	0.031637892
14	0x3d417239	0.04722807
15	0x3d988ce7	0.0744875
16	0x3c0bc70e	0.008531345
17	0xbd194c36	-0.037426196
18	0x3d9895a9	0.074504204
19	0xbce84fc1	-0.028358342
20	0x3d8f6204	0.07001117
21	0x3e472923	0.19449286
22	0x3d81cd76	0.06338017
23	0x3ce6a66c	0.028155528
24	0x3e1dedc6	0.15422735
25	0xbc2a7b22	-0.010405334
26	0x3dbca457	0.09211033
27	0xbd2186e0	-0.039435267
28	0x3e4212e4	0.18952519
29	0x3d81e985	0.063433684
30	0x3dfdbff7	0.1239013
31	0x3e1732fc	0.14765543
32	0x3dedf3e7	0.11618786
33	0x3d1bb342	0.03801275
34	0x3da0526d	0.078282215
35	0xbc602e59	-0.013682925
36	0xbcbd33f7	-0.023096068
37	0xbe147822	-0.14498952
38	0xbdffef4b	-0.124968134
39	0xbd58f483	-0.05296756
40	0x3cf520ac	0.029922806
41	0x3c36d708	0.011159666
42	0xbd85b3b2	-0.06528415
43	0x3d11dd4a	0.03561143
44	0x3e0f2f00	0.13982773
45	0x3e11d354	0.14240772
46	0x3d7eb61c	0.06218539
47	0xbc7f6680	-0.015588403
48	0xbd8b031d	-0.06787703
49	0xbd7ebc2f	-0.062191185
50	0x3db62241	0.08893252
51	0x3e22e30e	0.15906927
52	0x3dedf7a8	0.11619502
53	0xbc9f3323	-0.019433564
54	0x3df3ff68	0.11913949
55	0x3e5b9182	0.21442226
56	0x3e089e1b	0.13341562
57	0x3e2ae2e0	0.16688108
58	0xbd314de9	-0.04328719
59	0x3d57bc92	0.05267007
60	0xbe4c4782	-0.19949153
61	0xbd1134b0	-0.035450637
62	0x3d736009	0.059417758
63	0xbc326f01	-0.010890723

out.weight f4 [31, 64]
0	0x3d017b8a	0.031611957
1	0x3dc19e79	0.094540544
2	0x3b0d1df0	0.0021532737
3	0xbe24829d	-0.1606545
4	0xbde20560	-0.110361814
5	0x3db22ad4	0.08699575
6	0xbd94da9c	-0.07268259
7	0x3e06165e	0.1309447
8	0x3d6bc1cb	0.057557862
9	0x3e26dae6	0.1629444
10	0xbd4d0da1	-0.050061826
11	0x3e0e44c8	0.13893425
12	0xbcbae3bc	-0.02281367
13	0xbd778fa5	-0.060439724
14	0xbd3973f9	-0.045276616
15	0x3d514bee	0.051097803
16	0x3e16d7fb	0.14730828
17	0xbdb64853	-0.089005135
18	0x3c89dcc9	0.016828911
19	0xbd8069e4	-0.06270197
20	0xba6b035d	-0.000896504
21	0x3d22369d	0.039602865
22	0x3e33adba	0.1754674
23	0x3e1b51da	0.15167943
24	0x3e12392f	0.14279626
25	0xbe18578d	-0.14877148
26	0x3ccfcf98	0.025367543
27	0xbda28b9d	-0.07936785
28	0xbda04081	-0.07824803
29	0xbe1ce522	-0.15321782
30	0xbdfcebb4	-0.12349644
31	0x3df57370	0.119849086
32	0xbd54b8b0	-0.051933944
33	0xbd3a0d67	-0.045422938
34	0x3e0cf676	0.13765892
35	0x3dde7017	0.10861223
36	0xbe406829	-0.18789734
37	0xbe01e70e	-0.12685797
38	0x3d8b7aa4	0.06810501
39	0xbe3196cb	-0.17342679
40	0x3d9d8fc8	0.0769344
41	0xbd2fbacd	-0.042902756
42	0x3db32789	0.08747775
43	0x3d053d75	0.032529313
44	0x3d71a3eb	0.058994215
45	0xbdbc7d15	-0.09203545
46	0x3c5dcd37	0.013537697
47	0xbe864af2	-0.26229054
48	0xbd032a46	-0.032022737
49	0x3ce616fb	0.02808713
50	0x3e6e48aa	0.23269907
51	0xbd479233	-0.04872341
52	0x3c959a4b	0.01826205
53	0xbe0fbae2	-0.14036134
54	0xbdb42009	-0.08795173
55	0xbb6e40a4	-0.0036354447
56	0xbc9161fa	-0.017746914
57	0xbd19e4aa	-0.037571587
58	0x3e01fb64	0.12693554
59	0x3b51c37e	0.0032007392
60	0xbd55d476	-0.05220457
61	0xbd8bb04c	-0.06820735
62	0xbc4492c3	-0.011997881
63	0xbb86926d	-0.004106811
64	0xbd4a3e26	-0.049375676
65	0xbcd6aa72	-0.026204322
66	0xbda659d0	-0.08122599
67	0xbd6c6668	-0.05771485
68	0xbc7200b9	-0.01477068
69	0x3db2ad7d	0.087244965
70	0x3d4711ec	0.048601076
71	0xbd1a3eae	-0.037657432
72	0xbd538ffc	-0.051650986
73	0xbb5ff741	-0.0034174474
74	0xbe26b73b	-0.16280834
75	0xbe1d68f6	-0.1537207
76	0x3ca9fb94	0.020749845
77	0x3e16eddd	0.14739175
78	0xbe03ef82	-0.12884334
79	0xbe24ffc2	-0.16113189
80	0xbe39966b	-0.18123786
81	0x3de06f5b	0.10958739
82	0x3c038388	0.008026965
83	0xbd768561	-0.060185794
84	0x3e2620a7	0.16223393
85	0xbd9a7711	-0.07542241
86	0x3e0c1473	0.13679676
87	0x3e0d8193	0.1381896
88	0xbe0e2516	-0.13881335
89	0x3e50b842	0.20382789
90	0xbd2eb878	-0.04265639
91	0x3e11b08f	0.14227508
92	0x3dc187c8	0.09449726
93	0x3d7c62c9	0.061617646
94	0xbe267fda	-0.16259709
95	0x3e1f228e	0.15540525
96	0x3d008bd4	0.03138335
97	0xbdaef488	-0.085427344
98	0x3e0acd0b	0.1355478
99	0xbcb5a838	-0.02217494
100	0x3c70fd1d	0.014708784
101	0x3cb60014	0.022216834
102	0x3e179509	0.14802946
103	0x3cf60d71	0.030035706
104	0xbe097c7f	-0.13426398
105	0x3d2ad928	0.041711003
106	0xbd319034	-0.043350413
107	0xbcdb68e6	-0.026783418
108	0xbdd14aac	-0.10219321
109	0x3e0c964b	0.13729207
110	0x3e11d090	0.14239717
111	0x3de87cc8	0.11351925
112	0xbde8a89f	-0.11360287
113	0xbdd13f9e	-0.10217212
114	0xbd5f14b9	-0.054463122
115	0xbd840128	-0.06445533
116	0xbcab38c2	-0.020901088
117	0x3d48a0f0	0.048981607
118	0xbe0fe0ab	-0.14050548
119	0x3c2cb36f	0.010540827
120	0xbdf43b70	-0.11925399
121	0xbe32da0c	-0.17465991
122	0x3e01fe13	0.12694578
123	0xbb53eaaf	-0.0032335927
124	0x3c195a2e	0.009359879
125	0xbc4f562e	-0.012654824
126	0xbc341117	-0.010990403
127	0x3d7028c5	0.05863263
128	0x3d37c4b7	0.044865336
129	0x3d8aff98	0.06787032
130	0xbd87de0f	-0.06634151
131	0x3d9cf61f	0.076641314
132	0xbe7d56b0	-0.247401
133	0x3d49847f	0.049198624
134	0xbdef10d9	-0.11673135
135	0xbe0fd1dd	-0.140449
136	0x3e4ca5f5	0.19985183
137	0xba9c32b2	-0.0011916964
138	0xbe068cc8	-0.13139641
139	0x3d88ad14	0.06673637
140	0x3d7d7ab6	0.061884604
141	0x3e14a943	0.14517693
142	0xbd11a9c2	-0.035562284
143	0xbdd12e36	-0.10213892
144	0xbbb2714c	-0.005445635
145	0xbc80f6bd	-0.015742654
146	0xbdbb7854	-0.0915381
147	0x3e03b96f	0.12863706
148	0xbd80f417	-0.062965564
149	0x3e0ee911	0.13956095
150	0xbe8bbac5	-0.2729093
151	0xbda4cab0	-0.08046472
152	0xbd989d42	-0.074518695
153	0x3dc02a88	0.09383112
154	0xbb7eb758	-0.0038866606
155	0xbe058146	-0.13037595
156	0xbd8a63b5	-0.06757299
157	0x3de1bf7a	0.110228494
158	0x3c9f1e5c	0.019423656
159	0xbcd4e088	-0.025985971
160	0x3db6060d	0.08887873
161	0x3c100b1a	0.008791709
162	0x3e2dceb0	0.16973376
163	0x3dd51a16	0.10405366
164	0xbe0b0ff9	-0.13580312
165	0xbd76b53f	-0.060231443
166	0x3d960e9f	0.073270075
167	0x3da772ba	0.08176179
168	0xbe32a223	-0.17444663
169	0xbd2262cf	-0.039645012
170	0x3daca8bd	0.08430622
171	0x3e516d17	0.2045177
172	0xbe3df26f	-0.18549512
173	0x3e4dd928	0.2010237
174	0xbd8ca80b	-0.06867989
175	0x3dc101b5	0.09424154
176	0x3dbc9ef3	0.09210005
177	0xbcf0f001	-0.029411318
178	0x3d9be192	0.076113835
179	0xbe324772	-0.17410067
180	0xbc83e959	-0.01610248
181	0xbe2eb16d	-0.1705987
182	0xbdb3e4a4	-0.08783844
183	0x3d8447ec	0.064590305
184	0xbd814ddb	-0.06313678
185	0x3d061e9a	0.032744028
186	0x3c5cfe3c	0.013488349
187	0xbd89f6b5	-0.06736509
188	0x3dc24886	0.09486489
189	0x3dabd84d	0.083908655
190	0x3d783f15	0.060607035
191	0x3e726803	0.2367249
192	0x3da6b22a	0.08139451
193	0x3ab698cd	0.0013931036
194	0x3ddb6924	0.10713413
195	0xbcecd47f	-0.02890992
196	0x3e04e95d	0.12979646
197	0xbd7cfdd3	-0.061765503
198	0xbdc2ba87	-0.095082335
199	0xbd17417c	-0.036927685
200	0x3ccf90d6	0.025337618
201	0xbda72a75	-0.08162395
202	0xb92afa46	-0.00016305697
203	0xb9e17083	-0.00042999172
204	0x3e06fa0c	0.13181323
205	0xbd9f333d	-0.07773445
206	0xbd968bc4	-0.07350877
207	0xbc04a0f3	-0.008095014
208	0x3ca1c6cf	0.01974812
209	0xbe585907	-0.21127711
210	0xbda338c8	-0.079698145
211	0xbdcb2c03	-0.09920504
212	0x3e025607	0.1272813
213	0xbe3ccac8	-0.1843673
214	0x3e0174c4	0.12642199
215	0x3d87f931	0.06639326
216	0xbe15722c	-0.14594334
217	0xbdb936e4	-0.09043673
218	0x3be66dfb	0.0070321537
219	0xbcea90bb	-0.028633466
220	0xbd2b150f	-0.04176813
221	0x3dc220d0	0.09478915
222	0xbddb3a3a	-0.10704465
223	0x3dcd1ac9	0.100148745
224	0x3e6a6f11	0.22893931
225	0xbd953c57	-0.072868995
226	0xbd6abd0e	-0.057309203
227	0xbe1f6099	-0.15564193
228	0x3dfa7c91	0.122307904
229	0xba3e2dcb	-0.00072547485
230	0x3df5f99f	0.12010502
231	0xbe579b55	-0.21055348
232	0xbe4bf33f	-0.1991701
233	0x3e70d545	0.23518856
234	0x3e107cda	0.14110127
235	0x3ddd0e53	0.10793748
236	0x3da664e7	0.08124714
237	0x3e02647c	0.12733644
238	0xbdb488fb	-0.088151895
239	0xbda17687	-0.078839354
240	0xbc561fe5	-0.013069128
241	0x3d1e98d4	0.038719967
242	0xbda615ca	-0.08109625
243	0xbd3784a4	-0.04480423
244	0x3e930671	0.28715852
245	0xbe3139e3	-0.17307238
246	0x3e10f9cf	0.14157794
247	0xbd940224	-0.07226971
248	0xba8485ae	-0.001011064
249	0x3d4742ad	0.04864757
250	0xbd8b747f	-0.06809329
251	0xbd2f3ba4	-0.042781487
252	0xbd4166f4	-0.047217324
253	0xbc357911	-0.011076228
254	0xbcd37b7a	-0.025815714
255	0x3dfe56df	0.12418913

out.bias f4 [31]
0	0x3c45a7ff	0.012063979
1	0x3ccf9571	0.025339814
2	0xbe0212fd	-0.12702556
3	0x3cfe5c48	0.031049863
4	0x3ddb26f5	0.1070079
5	0x3d860fdb	0.06545993
6	0x3db5c416	0.08875291
7	0x3e8b782d	0.27240124
8	0xbcdf5ff9	-0.027267443
9	0xbd0fe8e0	-0.035134196
10	0xbd515898	-0.05110988
11	0xbd53143c	-0.05153297
12	0x3ba87079	0.005140361
13	0xbd673b4b	-0.05645303
14	0xbe3a69f2	-0.18204477
15	0xbcdb21d3	-0.026749527
16	0xbe1f8265	-0.15577085
17	0xbda49453	-0.08036103
18	0xbd9872c6	-0.07443766
19	0xbd86243b	-0.06549879
20	0xbe066953	-0.13126116
21	0xbdc8b7c7	-0.09800678
22	0xbd2cf0be	-0.042221777
23	0xbdc02fd4	-0.093841225
24	0xbded8f3d	-0.11599586
25	0xbe1dc627	-0.1540762
26	0xbe048b91	-0.12943865
27	0xbe0c57c2	-0.13705352
28	0xbe3b2644	-0.18276316
29	0xbda21176	-0.07913487
30	0xbe2e982c	-0.17050236
