MultiTaskRecommender_best.pth (torch, 62132 bytes, 8 tensors)

shared.0.weight f4 [128, 31]
0	0x3e43906a	0.19098058
1	0xbe8c0066	-0.27344054
2	0xbd1661fe	-0.036714546
3	0xbca88aea	-0.020574052
4	0xbe2b65de	-0.16738078
5	0x3e39eb3d	0.18156143
6	0xbe1df6c0	-0.15426159
7	0x3d9633cc	0.07334098
8	0x3cca77c4	0.024715312
9	0x3e3997f6	0.18124375
10	0xbcd98733	-0.026553726
11	0x3d9196f2	0.07108869
12	0x3dac20fc	0.08404729
13	0x3d937e3d	0.072018124
14	0x3d331deb	0.043729704
15	0xbe4e51aa	-0.2014834
16	0xbba47128	-0.005018372
17	0xbd8137cd	-0.06309471
18	0x3d077b00	0.033076286
19	0x3d595caa	0.053066887
20	0xbd3daa3e	-0.046304934
21	0xbd36dc25	-0.04464354
22	0x3b836017	0.0040092575
23	0xbd48994b	-0.048974317
24	0x3ddf4b00	0.10902977
25	0xbc34e884	-0.011041764
26	0xbce68a31	-0.028142067
27	0xbe26ca28	-0.16288054
28	0xbdd9427e	-0.106083855
29	0x3e45fb49	0.19334139
30	0xbc11c73d	-0.0088976
31	0x3e190b30	0.14945674
32	0xbe2f9fa8	-0.17150748
33	0xbba8749a	-0.005140853
34	0x3e895e0f	0.26829574
35	0xbe568fa6	-0.20953235
36	0x3e1e157a	0.1543788
37	0xbd2ddaf1	-0.042445127
38	0xbdf95dac	-0.121760696
39	0xbd81a395	-0.06330029
40	0xbdcef2fd	-0.1010494
41	0xbd3c2996	-0.045938097
42	0x3a86632f	0.0010252948
43	0xbd6e9d10	-0.058255255
44	0x3e9cfcf3	0.30661735
45	0x3dbe8acf	0.093038194
46	0xbb62a9e2	-0.0034586121
47	0xba9ae328	-0.0011816965
48	0x3db43f06	0.08801083
49	0x3e1ff104	0.15619284
50	0xbc98ad5d	-0.018637354
51	0x3c09fd6d	0.008422238
52	0x3dd86170	0.1056546
53	0xbd8c4291	-0.06848634
54	0x3dfafef3	0.12255659
55	0xbdd99f27	-0.10626059
56	0xbd8173f4	-0.063209444
57	0x3e067797	0.13131557
58	0xbd9c8a92	-0.07643618
59	0xbc7be2c5	-0.01537389
60	0xbd94497a	-0.07240577
61	0xbd4b2821	-0.049598817
62	0xbd9e5849	-0.07731683
63	0xbd32be4b	-0.04363851
64	0x3cce33c5	0.02517117
65	0x3cb2d9c1	0.021832349
66	0xbd82f645	-0.063946284
67	0x3de252fc	0.11050984
68	0x3dd89b82	0.10576536
69	0xbc214978	-0.0098441765
70	0x3dbb341e	0.091408
71	0x3d9c0132	0.076174155
72	0x3e0e7879	0.13913144
73	0xbd7a3ac4	-0.0610912
74	0x3d7e48ce	0.06208115
75	0xbc1e1906	-0.009649521
76	0x3a30efce	0.0006749601
77	0x3bb2b9d5	0.005454282
78	0x3e50af8e	0.20379469
79	0x3e768928	0.24075758
80	0x3bf3282e	0.0074205613
81	0x3e7df1f8	0.24799335
82	0x3dcffe19	0.10155887
83	0xbd61ed6a	-0.055158056
84	0x3da7e364	0.08197668
85	0xbd2b287e	-0.041786663
86	0x3c22930a	0.009922752
87	0xbd2489c9	-0.040170465
88	0x3c91f272	0.017815802
89	0xbd18ca26	-0.03730216
90	0xbd4720cc	-0.048615262
91	0x3e062840	0.13101292
92	0x3dceb038	0.10092205
93	0xbdc8792c	-0.09788737
94	0x3db9481a	0.090469554
95	0xbe038568	-0.12843859
96	0x3dff52e2	0.124669805
97	0x3c8f5921	0.017498555
98	0xbd0041bb	-0.031312685
99	0xbb5a49d9	-0.0033308177
100	0xbd4d23fd	-0.05008315
101	0xbc9e5d7c	-0.019331686
102	0x3d08dc79	0.033413384
103	0x3dbe50b5	0.092927374
104	0x3e823a09	0.25434902
105	0x3e7c7b2f	0.24656366
106	0xbc38e9e0	-0.011286229
107	0x3c373d0c	0.011183988
108	0x3cd7e1b6	0.026352745
109	0xbc2b3cfe	-0.010451553
110	0x3da111b8	0.07864708
111	0xbc561794	-0.013067145
112	0xbde007eb	-0.1093901
113	0x3da8bcb3	0.082391165
114	0xbdf3bef7	-0.11901658
115	0xbc892f0b	-0.016746065
116	0xbcc3db47	-0.02390827
117	0x3de5014f	0.1118189
118	0xbb6eaf9d	-0.0036420592
119	0x3e7461dc	0.23865455
120	0xbddbf0bb	-0.10739275
121	0x3dc312c1	0.095250614
122	0x3eb04bcf	0.34432837
123	0x3ddf5a4c	0.10905895
124	0xbbb5deb1	-0.0055502285
125	0xbed9ec19	-0.4256294
126	0x3c21cc8a	0.009875426
127	0xbb613080	-0.0034361184
128	0xbc87c3af	-0.016572801
129	0x3d477a99	0.048700903
130	0x3deef46b	0.11667713
131	0xbd19fe88	-0.037596256
132	0x3d8d1026	0.06887846
133	0x3e0d45e4	0.13796192
134	0xbb54f37d	-0.0032493763
135	0xbf082ed0	-0.5319643
136	0xbc8ae68c	-0.016955636
137	0xbcb4ab46	-0.022054326
138	0x3decbeb7	0.115598135
139	0xbda2d38c	-0.079505056
140	0xbd401879	-0.04689834
141	0x3c7c3acf	0.01539488
142	0xbcee01ee	-0.029053655
143	0x3d368f16	0.04457005
144	0xbd8d058b	-0.06885823
145	0x3d71c1c0	0.059022665
146	0xbd30dbf2	-0.043178506
147	0x3d31cd4f	0.04340869
148	0xbd11b827	-0.035576012
149	0xbd1de4b4	-0.038548186
150	0xbcb9fcf7	-0.02270363
151	0x3e658649	0.22414507
152	0x3c921302	0.01783133
153	0xbe0fd60a	-0.14046493
154	0xbdcb2444	-0.099190265
155	0x3c55792f	0.013029381
156	0x3cdc878f	0.026920108
157	0xbd094ab1	-0.033518497
158	0x3cacc107	0.021088136
159	0xbd1a13cd	-0.03761654
160	0x3e07e4ad	0.13270827
161	0x3e095c40	0.13414097
162	0xbe4f3650	-0.20235562
163	0x3e5ba81b	0.21450846
164	0xbcfb393b	-0.030666938
165	0xbd485281	-0.048906807
166	0x3d762895	0.060097296
167	0xbd0c713c	-0.034287676
168	0x3e51d546	0.20491514
169	0x3d104e3d	0.035230864
170	0xbd625b30	-0.055262744
171	0x3e13d816	0.14437899
172	0xbdbecc1c	-0.093162745
173	0xbbb068d6	-0.005383591
174	0x3be60364	0.007019447
175	0x3dfad640	0.12247896
176	0xbd56d6ef	-0.05245107
177	0xbcba1960	-0.022717178
178	0xbdc03933	-0.0938591
179	0xbc895900	-0.016766071
180	0x3cc216d0	0.023692518
181	0xbd118d8f	-0.03553539
182	0x3db43b46	0.08800368
183	0x3dd2f305	0.103002585
184	0xbb952b9b	-0.0045523173
185	0x396241fb	0.00021577619
186	0x3cb52f29	0.022117214
187	0xbdb7172c	-0.089399666
188	0xbd6dd341	-0.058062796
189	0xbd07297f	-0.032998558
190	0xbdac22c8	-0.084050715
191	0xbd5bc8dc	-0.05365835
192	0xbc242cd6	-0.010020455
193	0x3a037916	0.00050152966
194	0xbd4b2653	-0.049597096
195	0xbda3e4ab	-0.08002599
196	0x3ec993de	0.39370626
197	0xbe3319de	-0.17490336
198	0xbd2ab239	-0.041673873
199	0xbdce3c6a	-0.10070117
200	0x3da69bd2	0.08135189
201	0xbd836454	-0.064156204
202	0x3c42e057	0.011894307
203	0x3d3da53d	0.04630016
204	0x3ba54c8b	0.005044525
205	0xbdaa3beb	-0.0831221
206	0xbda0c701	-0.07850457
207	0xbdd23717	-0.10264414
208	0xbd425b34	-0.04745026
209	0x3d89503a	0.06704755
210	0x3de78a1f	0.113056414
211	0xbd4884fb	-0.048954945
212	0xbde440c2	-0.11145164
213	0xbcaec279	-0.021332966
214	0x3e3a4aa1	0.18192531
215	0xbdf0a601	-0.11750413
216	0xbe51cc59	-0.20488109
217	0x3d8e87fc	0.06959531
218	0x3e3260c1	0.17419721
219	0x3d9fedbd	0.07809017
220	0xbbe5a0dd	-0.007007702
221	0x3db2d3e8	0.08731824
222	0x3da396f9	0.0798778
223	0xbe286aac	-0.16446942
224	0xbc207969	-0.009794571
225	0xbe41b0fc	-0.1891517
226	0x3d43966c	0.047750875
227	0xbc947919	-0.01812415
228	0x3d11e8f9	0.03562257
229	0x3d6a9d9f	0.057279225
230	0xbc365302	-0.011128189
231	0x3da27206	0.079319045
232	0xbdc95a51	-0.098316796
233	0x39ad15ee	0.0003301347
234	0xbd4cd267	-0.050005343
235	0x3e699341	0.22810079
236	0x3e8d0b3b	0.2754763
237	0x3e158a97	0.14603649
238	0xbda99d4a	-0.08281954
239	0x3c24d214	0.010059852
240	0x3c8cdcc0	0.017195106
241	0xbd0ba2ab	-0.03409068
242	0x3d242d21	0.0400821
243	0x3dfe81ba	0.12427087
244	0xbdff52ae	-0.12466942
245	0xbd1aabfa	-0.037761666
246	0x3e0e42ff	0.13892744
247	0xbd1625a8	-0.036657006
248	0xbe5df651	-0.21675994
249	0xbd84f08c	-0.06491193
250	0x3e1a331b	0.15058558
251	0xbce692e4	-0.028146215
252	0xbdd1af30	-0.102384925
253	0xbdd17a31	-0.10228384
254	0xbdd9bc15	-0.10631577
255	0x3e88f0ef	0.26746318

shared.0.bias f4 [128]
0	0x3f0b368c	0.54380107
1	0x3ef0f2be	0.47060198
2	0x3e6bace3	0.2301517
3	0x3f07e137	0.53078026
4	0x3e90f184	0.28309262
5	0x3e83964f	0.25700614
6	0x3e11f5c9	0.14253916
7	0x3f0f0bbc	0.5587728
8	0x3d8b172c	0.06791529
9	0x3ebc879f	0.3682222
10	0x3e26b344	0.16279322
11	0x3d0a5a53	0.033777546
12	0x3d795d63	0.060880076
13	0xbdafc603	-0.085826896
14	0x3ef64324	0.480981
15	0x3e0cea37	0.13761221
16	0xbdb2d33e	-0.087316975
17	0x3f301652	0.6878406
18	0x3d3b77f0	0.04576868
19	0x3f1f3236	0.6218599
20	0x3ede0106	0.43360156
21	0x3e562013	0.20910673
22	0xbc4e17ff	-0.012578963
23	0x3ee95d85	0.45579162
24	0x3ecd10b9	0.4005182
25	0x3f0c1ccb	0.54731435
26	0x3f2c12cf	0.672162
27	0x3e998c4a	0.29989845
28	0x3ecb5635	0.39714208
29	0x3f128764	0.5723784
30	0x3efd1f1e	0.49437803
31	0x3c3fe63d	0.011712608
32	0x3e9b25ad	0.30302182
33	0x3e6ed7c4	0.23324496
34	0x3ed5a20c	0.41725194
35	0x3eabaff6	0.33532685
36	0x3e241f0b	0.16027467
37	0x3ed38af0	0.41316938
38	0x3f1589ae	0.5841321
39	0x3d3f1ab9	0.046656344
40	0x3e67d621	0.22640277
41	0x3ebed4f1	0.37271836
42	0x3d1c75a1	0.038198117
43	0x3ed9ce1f	0.4254007
44	0x3ea2cf21	0.31798652
45	0x3f2370db	0.6384408
46	0x3f0283c7	0.50982326
47	0x3ed7b21f	0.42128083
48	0x3eaa595e	0.33271307
49	0x3ed0810b	0.40723452
50	0x3edf0c6d	0.43564168
51	0x3ea4502e	0.32092422
52	0x3dd861ed	0.10565553
53	0x3ef1802a	0.47168094
54	0x3ec02986	0.3753168
55	0x3ec86557	0.39139816
56	0x3e8feae6	0.281089
57	0x3e9a040e	0.30081218
58	0x3f0ec684	0.5577166
59	0x3f19f761	0.60143095
60	0x3eb8d169	0.36097267
61	0x3ed4f79b	0.41595158
62	0x3e43d388	0.19123662
63	0x3ebadbd2	0.36495835
64	0x3ef5da08	0.48017907
65	0x3e02f619	0.12789191
66	0x3e4fa713	0.20278578
67	0xbdc5da87	-0.096608214
68	0x3f0d0d64	0.5509856
69	0x3eccbaae	0.39986175
70	0x3ecb9214	0.39759886
71	0x3edcefec	0.43151796
72	0x3d87d0b7	0.06631606
73	0x3e3a403e	0.18188569
74	0x3e1e9070	0.15484786
75	0x3e8854b1	0.26627114
76	0x3e41ad75	0.18913825
77	0x3eb16a83	0.34651574
78	0x3ef1380d	0.47113076
79	0x3ef23a4b	0.473101
80	0x3e12e762	0.14346078
81	0x3ea652b0	0.3248496
82	0x3e381784	0.1797772
83	0x3eb5195a	0.35370904
84	0x3dd77170	0.10519683
85	0xbd891026	-0.06692533
86	0x3e0d3c8a	0.13792625
87	0x3e8eb239	0.27870348
88	0x3d3b130f	0.045672473
89	0x3f40dfdb	0.75341576
90	0x3f0c68d3	0.5484745
91	0x3efc7af6	0.49312562
92	0xbe7e854f	-0.2485554
93	0xbe1c4cf3	-0.15263729
94	0x3dbd8a12	0.092548504
95	0xbe9ec72e	-0.31011337
96	0x3ddf1c84	0.10894111
97	0x3d83fc88	0.06444651
98	0x3df5db2f	0.120046966
99	0x3e80cd31	0.2515655
100	0x3f04183e	0.5159949
101	0x3edcd820	0.4313364
102	0x3f127b37	0.5721926
103	0x3eab4f34	0.33458865
104	0x3e9d1809	0.306824
105	0x3f017be6	0.5057968
106	0x3f0ad91a	0.5423752
107	0x3f181325	0.5940421
108	0x3e0151cd	0.12628861
109	0x3de9cdd5	0.114162125
110	0x3de1bc69	0.110222645
111	0x3ed9e2b0	0.4255576
112	0x3f15c09c	0.58497024
113	0x3f05934d	0.5217789
114	0xbe2245b7	-0.15846907
115	0x3ea041bc	0.3130015
116	0x3ea916b8	0.33025146
117	0x3e126c6f	0.14299177
118	0x3e7a78d5	0.24460156
119	0x3ddb3953	0.10704293
120	0x3f0ffff3	0.5624992
121	0x3ea3a8c6	0.319647
122	0x3ea4af02	0.3216477
123	0x3f03b9da	0.5145546
124	0x3f41ac6e	0.7565373
125	0xbcadf34e	-0.02123418
126	0x3d85ba34	0.06529656
127	0x3d5c9850	0.053856194

shared.2.weight f4 [64, 128]
0	0xbde99a14	-0.11406341
1	0x3d797f5b	0.06091247
2	0x3c9d14ad	0.019174898
3	0xbb68d616	-0.0035527996
4	0xbdd26f56	-0.10275142
5	0xbdbdb0f0	-0.09262264
6	0xbdd53db2	-0.10412158
7	0xbd43709d	-0.04771482
8	0x3d951a60	0.07280421
9	0xbccdb936	-0.02511273
10	0x3dc52236	0.09625666
11	0x3b3281b6	0.0027237958
12	0xbded71cd	-0.115939714
13	0x3e341afb	0.17588417
14	0x3cb1cf26	0.021705221
15	0xbd2c28c1	-0.042031053
16	0x3d47dfd3	0.04879744
17	0x3d8503e0	0.0649488
18	0xbd2062c0	-0.039156675
19	0x3e1d4b98	0.15360868
20	0xbda4723b	-0.080296
21	0x3e187f5e	0.14892337
22	0x3e020dd9	0.12700595
23	0xbd55beda	-0.052183963
24	0x3cc17f91	0.023620399
25	0xbcc420a0	-0.023941338
26	0x3e672b62	0.22575143
27	0x3dc7f87c	0.097641915
28	0x3dfadd38	0.122492254
29	0x3c20c085	0.009811525
30	0x3cc235ef	0.023707358
31	0xbd9ef1ed	-0.077609874
32	0x3dbd6768	0.09248239
33	0xbd17f8db	-0.03710256
34	0xbd628ec2	-0.055311926
35	0xbceefddd	-0.029173786
36	0x3c08f496	0.008359095
37	0x3cd9fd51	0.026610048
38	0x3da271a6	0.07931833
39	0x3dbd4e1e	0.09243415
40	0x3dd57f52	0.10424675
41	0xbdd3650d	-0.10322008
42	0x3d0bd293	0.034136366
43	0xbdfdca78	-0.123921335
44	0x3de80fe8	0.11331159
45	0xbe2ccc0c	-0.16874713
46	0xbcfb4734	-0.0306736
47	0x3d8221d7	0.06354111
48	0x3e31b715	0.17354997
49	0x3db70201	0.08935929
50	0xbe48598b	-0.19565408
51	0x3d8b86f0	0.06812847
52	0xbd2ae62e	-0.041723423
53	0xbd983c89	-0.07433421
54	0x3e478950	0.19485974
55	0x3da1f7b4	0.07908574
56	0x3d97864d	0.07398663
57	0x3e0ad2de	0.13557002
58	0x3da2b2a3	0.079442285
59	0x3e14aead	0.14519759
60	0xbc516e81	-0.012782694
61	0xbc20b6ae	-0.009809179
62	0xbd379b86	-0.044826053
63	0x3e04a6b3	0.12954216
64	0x3d5382f6	0.051638566
65	0xbc8567b1	-0.016284795
66	0xbd0295a3	-0.031880986
67	0xbd0b9968	-0.034081846
68	0xbdb154ad	-0.08658729
69	0x3c888f62	0.016669933
70	0x3d20d5f3	0.039266538
71	0x3d46cba8	0.048534065
72	0x3dcd4cce	0.10024415
73	0x3c8d0407	0.017213834
74	0xbdacf8d6	-0.08445899
75	0x3db7def8	0.08978075
76	0x3d8f9596	0.07010953
77	0x3ce47abd	0.027890557
78	0x3c67b62e	0.014142556
79	0x3db99b15	0.09062783
80	0x3cea8881	0.028629543
81	0xbd38fa9e	-0.045160882
82	0x3baaebfd	0.0052161203
83	0x3e4faa3c	0.20279783
84	0x3ced18a7	0.02894242
85	0x3dd4b9d5	0.10387007
86	0xbcebbd4d	-0.02877679
87	0x3dd4bdd3	0.103877686
88	0x3d83c894	0.064347416
89	0xbc8a23e6	-0.01686282
90	0x3bb2c5b7	0.0054556984
91	0x3e7146a2	0.235621
92	0x3b1e5035	0.0024156694
93	0xbd3d6e91	-0.046248022
94	0xbcc5f20a	-0.024163265
95	0x3d7958b0	0.060875595
96	0x3daa3834	0.08311501
97	0x3db8b79b	0.09019395
98	0xbcf223c0	-0.029558063
99	0x3d92fd90	0.071772695
100	0xbdf32121	-0.11871553
101	0x3dcd9e7b	0.100399934
102	0x3e02a2f8	0.1275748
103	0x3d6777a4	0.056510583
104	0x3d0a1040	0.033706903
105	0x3dbc783d	0.09202621
106	0x3d0fc231	0.035097305
107	0xbe3cd8f5	-0.18442138
108	0xbdae95ba	-0.08524652
109	0xbc34e9e4	-0.011042092
110	0x3dfc3f4b	0.1231676
111	0x3dd16f35	0.10226289
112	0x3c10f98a	0.008848557
113	0x3db8b16b	0.09018215
114	0xbdd4a26b	-0.10382541
115	0x3e37460a	0.17897812
116	0x3e24885f	0.16067646
117	0xbd891ed3	-0.066953324
118	0xbc04ff11	-0.008117453
119	0xbc152caf	-0.009104892
120	0x3c834c35	0.01602755
121	0xbe257c14	-0.16160613
122	0xbc3d46bc	-0.011552509
123	0x3bcb7223	0.0062086745
124	0x3e901189	0.28138378
125	0x3e0827cd	0.13296433
126	0xbd28a1e5	-0.04117002
127	0x3d0c87ea	0.034309305
128	0x3d68b380	0.05681181
129	0x3e201621	0.15633442
130	0x3da8e33e	0.08246468
131	0xbd458d4c	-0.048230454
132	0x3e007898	0.12546003
133	0x3e2af12e	0.16693565
134	0x3d35de87	0.04440167
135	0x3e4125eb	0.18862121
136	0xbc99f44b	-0.018793246
137	0xbc7febe9	-0.01562021
138	0x3e0fd8c1	0.14047529
139	0x3e0e8ecb	0.13921659
140	0x3be03edf	0.0068434323
141	0x3dbc2fa0	0.09188771
142	0xbe03ca69	-0.12870182
143	0xbd0aac4d	-0.033855725
144	0xbdb8ff96	-0.09033124
145	0x3dc701d1	0.09717143
146	0x3dd0b411	0.10190595
147	0xbca714fa	-0.020395745
148	0xbbefd8ef	-0.0073195617
149	0x3db780f3	0.08960142
150	0x3c907a5b	0.017636469
151	0xbd22a0dc	-0.03970419
152	0xbda7e837	-0.08198588
153	0xbd416157	-0.04721197
154	0x3df13933	0.11778488
155	0x39c040ce	0.00036669377
156	0xbdf82893	-0.12117114
157	0x3d22cb89	0.039744888
158	0xbd8fc4f6	-0.07019989
159	0x3dd94bcc	0.1061016
160	0xbd9f02f3	-0.077642344
161	0x3db8fedd	0.09032986
162	0x3d9e7beb	0.07738479
163	0xbd079347	-0.03309944
164	0x3d91f89b	0.07127496
165	0xbc6a9583	-0.014317873
166	0x3e69a40f	0.2281649
167	0xbd46e3e3	-0.048557173
168	0x3c93e453	0.01805321
169	0xbc5afcd6	-0.013365945
170	0x3e3eccd3	0.18632822
171	0x3db42fb1	0.08798159
172	0xbe1e8a22	-0.15482381
173	0xbd749442	-0.059711702
174	0xbe089962	-0.13339761
175	0xbdc67859	-0.09690923
176	0x3d1da479	0.03848693
177	0xbdc0a2f0	-0.09406078
178	0x3c06df54	0.0082319565
179	0x3d35d93a	0.044396617
180	0xbcbda1ab	-0.023148378
181	0x3e47e11b	0.19519465
182	0x3d7de8d5	0.061989624
183	0xbe22963e	-0.15877625
184	0xbd72d4ee	-0.059285097
185	0x3db46d98	0.08809966
186	0xbcc501e3	-0.024048751
187	0x3c115bb9	0.008871966
188	0xbdb0a459	-0.08625097
189	0x3c89392a	0.01675089
190	0xbbf2a160	-0.0074044913
191	0xbd2cfabd	-0.04223131
192	0x3de29516	0.11063592
193	0xbc5ef5b8	-0.013608389
194	0x3916e572	0.0001439059
195	0xbbe72f98	-0.007055234
196	0xbd38c0f0	-0.045105875
197	0xbd76de9e	-0.060270898
198	0x3d089d80	0.03335333
199	0x3d39300d	0.04521184
200	0xbcc8b198	-0.024498746
201	0x3d91c73e	0.071180806
202	0x3d8836d3	0.06651082
203	0xbe19c053	-0.15014772
204	0x3e38209a	0.17981187
205	0x3d326a16	0.043558203
206	0x3da48714	0.080335766
207	0x3ddab420	0.10678887
208	0x3e305975	0.17221625
209	0xbdb34246	-0.08752875
210	0x3e12bb0a	0.14329162
211	0x3c353d76	0.011062017
212	0xbdb1a5ee	-0.08674227
213	0x3daabfed	0.08337388
214	0xbd71f134	-0.05906792
215	0x3d2ba4df	0.04190528
216	0x3e21c872	0.1579912
217	0x3df98e82	0.12185384
218	0x3ddbf2f2	0.107396975
219	0xbde827be	-0.11335705
220	0xbd8f0ef2	-0.069852725
221	0x3ded60bb	0.115907155
222	0xbdba53b1	-0.09097994
223	0xbd15e4fa	-0.036595322
224	0xbd999be4	-0.07500437
225	0xbd53df4f	-0.051726636
226	0xbd4fc862	-0.05072821
227	0x3e1cc78a	0.15310493
228	0x3c5c23b9	0.013436251
229	0xbd007c97	-0.031368818
230	0x3d762f5c	0.06010376
231	0x3e345830	0.17611766
232	0xbdd98d79	-0.10622687
233	0x3dcfc2ee	0.10144602
234	0x3df14b2d	0.11781917
235	0x3d03422b	0.032045525
236	0x3e10a194	0.14124137
237	0xbdad06cc	-0.08448562
238	0xbe3d6566	-0.18495712
239	0x3d92dc77	0.071709566
240	0x3d6924bb	0.056919795
241	0x3d73190b	0.059350055
242	0x3dae02ef	0.08496653
243	0x3d6c0f17	0.05763158
244	0x3c5c6340	0.013451397
245	0xbc10610b	-0.008812199
246	0x3de0875f	0.1096332
247	0x3e343cea	0.17601362
248	0x3d43656d	0.04770415
249	0xbd0edaf0	-0.034876764
250	0xbd57fb11	-0.05272967
251	0x3e1745ad	0.14772673
252	0xbcd93b31	-0.026517482
253	0xbd57dcb6	-0.05270072
254	0xbca81ba5	-0.020520994
255	0x3d8fd622	0.070232645

shared.2.bias f4 [64]
0	0xbc898783	-0.01678825
1	0x3df0e3d8	0.11762208
2	0xbd3cee58	-0.04612574
3	0x3e417b1c	0.18894619
4	0x3d0f7f9f	0.03503382
5	0x3c15a49f	0.009133487
6	0x3d0b4770	0.034003675
7	0x3e2d806f	0.16943525
8	0xbd57a257	-0.052645054
9	0xbdf17d2d	-0.117914535
10	0x3dd2f5d1	0.10300792
11	0xbd81e142	-0.06341793
12	0x3d63eb0e	0.055644087
13	0x3b37b38b	0.00280306
14	0xbdb7da2c	-0.0897716
15	0x3e04c3bc	0.12965292
16	0x3d11c008	0.035583526
17	0xbd4184d3	-0.04724581
18	0xbcdde597	-0.027087016
19	0xbda9b862	-0.08287121
20	0x3ceb4b6f	0.028722493
21	0xbd3f88a4	-0.04676117
22	0x3df43e3a	0.11925931
23	0xbdbe9f7f	-0.09307765
24	0xbd9fd5c4	-0.078044444
25	0xbdb33bcd	-0.087516405
26	0x3c9a5eda	0.018844057
27	0xbcee361f	-0.029078541
28	0xbe469816	-0.19393954
29	0x3c3c7315	0.011502047
30	0xbcf0c5b0	-0.02939114
31	0x3e1391b9	0.14411058
32	0x3c8868a5	0.01665146
33	0x3e02d5da	0.1277689
34	0x3d9f3f59	0.077757545
35	0x3dfe26dd	0.12409756
36	0x3e26bde6	0.16283378
37	0x3d717a7f	0.058954712
38	0x3e1ab010	0.15106225
39	0x3d524f63	0.05134524
40	0x3da495fc	0.0803642
41	0xbd8bd213	-0.06827178
42	0x3cd71f1b	0.02625995
43	0xbd741b3f	-0.059596296
44	0xbc97b042	-0.018516663
45	0x3e304533	0.17213897
46	0x3d054b46	0.03254249
47	0x3dc6b140	0.097017765
48	0xbcb699d0	-0.02229014
49	0xbe486926	-0.19571361
50	0x3d6b3bb2	0.057429977
51	0x3c55b50c	0.013043653
52	0x3e109d2a	0.14122453
53	0x3e0dde4f	0.13854335
54	0x3e0052db	0.12531607
55	0xbce6617a	-0.028122652
56	0xbcc97877	-0.024593575
57	0x3d6efe5b	0.05834804
58	0x3da6452d	0.08118663
59	0x3d19e4b2	0.037571616
60	0x3cfd37c9	0.03091039
61	0x3e18c350	0.14918256
62	0xbdb2947f	-0.0871973
63	0x3ddc3842	0.10752918

reconstruction.weight f4 [31, 64]
0	0xbd563287	-0.05229428
1	0x3cef2933	0.02919445
2	0xbcb6e767	-0.022327138
3	0x3cde063e	0.027102586
4	0xbdc61472	-0.096718684
5	0x3e0db73a	0.13839427
6	0xbd9b2e27	-0.07577162
7	0xbe15adbf	-0.1461706
8	0x3c9a837a	0.018861521
9	0xbcbb61ee	-0.022873845
10	0x3e090e6c	0.13384408
11	0x3d7c50c1	0.06160045
12	0xbe75a09b	-0.23987047
13	0x3dc49c94	0.096001774
14	0xbd784657	-0.060613956
15	0x3dbb594a	0.0914789
16	0xbd7673fa	-0.060169198
17	0xbdd8f220	-0.10593057
18	0xbdf57055	-0.11984316
19	0x3df43854	0.11924806
20	0x3e4bdeef	0.19909261
21	0xbde598fd	-0.11210821
22	0xbda68ce2	-0.0813234
23	0x3dae7eb1	0.08520258
24	0x3d94bf3d	0.07263038
25	0x3d11bf11	0.035582606
26	0x3e3437e4	0.17599446
27	0x3c20e132	0.009819316
28	0xbda15650	-0.07877791
29	0x3e19af3c	0.15008253
30	0x3e058042	0.13037208
31	0xbd7f5b88	-0.06234315
32	0xbc65e882	-0.014032485
33	0x3dd2af8f	0.102873914
34	0xbdc81f47	-0.09771591
35	0x3d955089	0.072907515
36	0xbe46d00e	-0.19415304
37	0x3d2bc704	0.041937843
38	0x3d43a884	0.04776813
39	0x3b01a9d3	0.001978506
40	0x3e2c42d2	0.16822365
41	0x3dc603cc	0.09668693
42	0xbd85cde2	-0.0653341
43	0xbd7946ab	-0.06085841
44	0x3cbe9e52	0.023268852
45	0x3d81557c	0.06315133
46	0xbe055b6f	-0.1302316
47	0x3d750caa	0.05982653
48	0xbe053373	-0.13007908
49	0x3d820e6c	0.06350407
50	0x3ca189ed	0.019719088
51	0xbce73a16	-0.02822594
52	0xbdc449bf	-0.095843785
53	0x3d2791a9	0.040910397
54	0x3d8b7948	0.06810242
55	0xbe505553	-0.20345049
56	0xbd20a932	-0.039223857
57	0xbe36176b	-0.17782371
58	0x3c3ffa15	0.011717339
59	0x3e01e480	0.12684822
60	0x3d1fba59	0.038996074
61	0xbd1dee6d	-0.03855746
62	0xbe06c24c	-0.13160056
63	0xbd9e71d5	-0.077365555
64	0x3d8804cf	0.06641542
65	0x3c8351d4	0.01603023
66	0xbe628459	-0.22120799
67	0x3d211e75	0.039335687
68	0x3d077c7c	0.033077702
69	0x3e193745	0.1496249
70	0xbd98fa00	-0.07469559
71	0x3d3bf3da	0.04588685
72	0xbda32d81	-0.079676636
73	0xbdf381e9	-0.11890013
74	0xbda75e5b	-0.08172294
75	0xbc56f450	-0.013119772
76	0x3c837ee6	0.01605172
77	0x3e18a7ad	0.14907713
78	0x3d815c70	0.06316459
79	0x3d9d0bbf	0.07668256
80	0xbe299075	-0.16559012
81	0x3df22c4d	0.11824856
82	0x3e1a9931	0.150975
83	0xbdaed5be	-0.08536862
84	0x3d866ac9	0.065633364
85	0x3df882a3	0.12134292
86	0x3e14b7dd	0.14523263
87	0x3c877e9b	0.016539862
88	0xbdba3d27	-0.09093695
89	0x3de33731	0.11094511
90	0xbd8ec9ae	-0.06972061
91	0x3d78ab80	0.06071043
92	0x3e108b00	0.14115524
93	0x3e381551	0.17976882
94	0xbd18ebc6	-0.037334226
95	0x3d93b956	0.072130844
96	0x3ccd2579	0.025042282
97	0xbdb75995	-0.08952633
98	0x3da42987	0.08015733
99	0xbde0d540	-0.10978174
100	0xbd018793	-0.031623434
101	0xbc97e36f	-0.018541066
102	0xbc1e348c	-0.009656083
103	0x3df69a01	0.12041093
104	0xbe2467fa	-0.16055289
105	0xbd04552b	-0.032307785
106	0xbd5c4abd	-0.053782213
107	0xbb7b99e5	-0.0038391289
108	0x3cbed5f4	0.02329538
109	0xbe15c75a	-0.14626828
110	0x3c780260	0.015137285
111	0x3dd98385	0.106207885
112	0x3dc13cff	0.09435462
113	0x3ddf3294	0.10898319
114	0xbcd69dfc	-0.02619838
115	0xbc225dab	-0.0099100275
116	0x3d3ac563	0.0455984
117	0xbd92c447	-0.07166343
118	0xbd0ca11f	-0.034333345
119	0xbc48e856	-0.012262424
120	0x3e030d29	0.12797989
121	0xbd11fdb7	-0.035642352
122	0xbe249d2d	-0.16075583
123	0xbd7f970d	-0.062399913
124	0x3d47d193	0.04878385
125	0xbde5e33d	-0.11224983
126	0xbd31d3e5	-0.04341497
127	0xbdb363b0	-0.08759248
128	0x3e19dea3	0.15026335
129	0x3c3fee9c	0.011714604
130	0x3cf0b557	0.029383345
131	0x3e35f3b4	0.17768747
132	0x3e238d23	0.15971808
133	0x3d40cbb3	0.047069263
134	0x3d460dd7	0.048353042
135	0x3db65aa5	0.08904008
136	0x3e4c3108	0.19940579
137	0xbd9b68df	-0.07588362
138	0xbdb156fc	-0.08659169
139	0xbd76a97e	-0.060220234
140	0x3d9f04ca	0.07764585
141	0xbdb5aa42	-0.08870365
142	0xbe2d1485	-0.16902359
143	0x3d34d73f	0.044150587
144	0xbdae1ac1	-0.08501197
145	0x3e5d58a5	0.21615846
146	0xbe42f312	-0.19038036
147	0x3d8480fd	0.06469915
148	0xbda0f58a	-0.07859333
149	0xbcae5ae9	-0.021283584
150	0x3a02c09d	0.0004987808
151	0x3c938cb1	0.018011423
152	0xbd8833d5	-0.06650511
153	0x3e8be8d3	0.27326068
154	0x394214f5	0.00018509089
155	0xbe1ca995	-0.15299065
156	0x3d9af741	0.07566691
157	0xbdf43dbd	-0.11925838
158	0x3d7d8b43	0.06190039
159	0x3e39f181	0.18158533
160	0xbde1ff52	-0.110350266
161	0x3d19397e	0.037408344
162	0xbdac3dc1	-0.08410216
163	0xbd93a564	-0.0720928
164	0xbe55954b	-0.20857732
165	0xbe09da20	-0.13462114
166	0xbd9971ee	-0.074924335
167	0xbb8546c8	-0.0040672757
168	0xbca9882e	-0.020694818
169	0x3da4c4e7	0.08045369
170	0xbca7d855	-0.020488897
171	0xbdff3556	-0.12461345
172	0x3e07c2e8	0.13257945
173	0x3d5805ac	0.052739784
174	0x3b5bd703	0.0033544905
175	0x3d9e4093	0.0772716
176	0xbd1a8f74	-0.037734464
177	0xbb7692d3	-0.0037624135
178	0x3d9990d5	0.07498328
179	0xbd04f380	-0.032458782
180	0x3d5985ca	0.053106107
181	0xbe149101	-0.1450844
182	0xbdd620a8	-0.104554474
183	0xbd413cbd	-0.047177065
184	0xbdcf5f2f	-0.10125577
185	0x3d7e90f5	0.06214996
186	0x3db39665	0.0876892
187	0xbd83cc45	-0.06435446
188	0xbd506253	-0.05087502
189	0xbe3425cd	-0.17592545
190	0x3cf72fd7	0.030174179
191	0xbd8eb316	-0.06967752
192	0xbe8155cb	-0.25260767
193	0xbc7282d4	-0.0148017
194	0x3de150e5	0.110017575
195	0x3b78c7f1	0.0037960971
196	0x3da18379	0.078864045
197	0x3c260ce7	0.010134912
198	0x3e09a4a9	0.13441719
199	0xbd117a37	-0.035516944
200	0x3d37108b	0.04469351
201	0xbda6b941	-0.08140803
202	0xbe502075	-0.20324881
203	0xbb9ea405	-0.00484133
204	0x3c6f70a4	0.014614258
205	0x3e8c4b59	0.27401236
206	0xbb131be1	-0.0022447037
207	0xbbabd2dc	-0.0052436423
208	0xbdd04977	-0.10170262
209	0xbdaf4f46	-0.08560042
210	0x3c315a73	0.010824787
211	0xbca392eb	-0.019967517
212	0xbddddf09	-0.10833556
213	0xbd480abe	-0.04883837
214	0x3d3bc26d	0.045839716
215	0xbdd354ee	-0.103189334
216	0x3da0bd35	0.078485884
217	0x3c989827	0.01862724
218	0xbde83eb7	-0.11340087
219	0x3ca32767	0.01991625
220	0x3d331335	0.04371949
221	0x3d3ac25c	0.04559551
222	0x3e1edef4	0.15514737
223	0x3e2cc4aa	0.16871896
224	0xbd3429b9	-0.043985102
225	0x3d80cdb4	0.06289235
226	0x3db21ff1	0.086974986
227	0x3e175f3a	0.1478242
228	0x3e131879	0.14364804
229	0x3bc3469b	0.0059593446
230	0x3d12096c	0.035653517
231	0xbce4c0a6	-0.027923893
232	0xbd9be07a	-0.07611175
233	0x3e139c17	0.14415012
234	0x3e4095cc	0.18807143
235	0x3d8ca202	0.06866838
236	0xbe1fde0b	-0.15612046
237	0xbda5a233	-0.08087578
238	0x3c59b7b7	0.01328843
239	0x3e240b04	0.16019827
240	0xbe285c86	-0.16441545
241	0x3d7fcfff	0.06245422
242	0x3e596b2c	0.21232289
243	0xbda15c35	-0.07878915
244	0xbcc933dc	-0.024560861
245	0x3e435ce0	0.19078398
246	0xbd3b76d1	-0.04576761
247	0xbdb5a465	-0.088692464
248	0xbd04700c	-0.03233342
249	0x3d961317	0.0732786
250	0xbdec2b97	-0.115317516
251	0xbbc2a0d9	-0.0059395847
252	0xbd000601	-0.031255726
253	0xbdee075a	-0.11622496
254	0xbd0dfd2b	-0.034665268
255	0xbdfadb3a	-0.122488454

reconstruction.bias f4 [31]
0	0x3dc319bb	0.09526392
1	0xbdac3572	-0.084086314
2	0xbdca4f5d	-0.098784186
3	0xbe3b1816	-0.18270907
4	0x3df6cd2c	0.12050852
5	0xbdfe6f42	-0.124235645
6	0xbca98313	-0.020692384
7	0x3e712e93	0.23552923
8	0x3c8a6b52	0.016896877
9	0xbd57c5ac	-0.05267875
10	0xbd93e319	-0.0722105
11	0x3d10dd8e	0.03536754
12	0x3d0483a6	0.032352112
13	0xbe515929	-0.20444168
14	0xbea9d3a1	-0.33169273
15	0x3db7d14f	0.08975469
16	0xbe29d13f	-0.16583727
17	0x3cb333e2	0.021875326
18	0x3c16b852	0.009199219
19	0xbd8dc8a8	-0.06923038
20	0xbd919f38	-0.07110447
21	0xbe31f8cd	-0.17380066
22	0xbdb69600	-0.08915329
23	0xbe1433ee	-0.14472935
24	0xbca561d3	-0.020188248
25	0xbdbf679f	-0.09345936
26	0xbe4dc7ea	-0.20095792
27	0xbdeb4335	-0.11487428
28	0xbce5bd67	-0.028044416
29	0xbcf8179b	-0.030284693
30	0xbe122534	-0.14272004

protein_head.weight f4 [1, 64]
0	0xbd9f9180	-0.07791424
1	0x3cf6b350	0.0301148
2	0x3dc18198	0.09448546
3	0x3d90ad50	0.07064307
4	0xbdcae834	-0.099075705
5	0x3cfaa190	0.030594617
6	0x3d276b9c	0.04087411
7	0xbd459a84	-0.04824306
8	0xbd2708f0	-0.040780008
9	0x3df68aa8	0.12038165
10	0xbdad2dda	-0.08456011
11	0x3d83b096	0.064301655
12	0x3dd5dfd4	0.104430825
13	0x3dbbf5f8	0.09177774
14	0xbd7c09d4	-0.06153281
15	0x3de86e22	0.11349131
16	0xbdef5dfc	-0.11687848
17	0x3c817260	0.015801609
18	0x3d626880	0.05527544
19	0xbd919acc	-0.07109603
20	0xbad71b00	-0.0016411245
21	0x3d8d3670	0.06895149
22	0x3ce210d0	0.027595907
23	0x3b43c280	0.002987057
24	0x3c789b70	0.015173778
25	0x3dff96dc	0.12479946
26	0xbdc9b8e2	-0.09849717
27	0x3d8beddc	0.068324775
28	0x3d13a37c	0.036044583
29	0xbcd08660	-0.0254547
30	0xbdbdffdc	-0.09277317
31	0xbdd53184	-0.10409835
32	0xbd92aacc	-0.07161483
33	0xbb5cd200	-0.0033694506
34	0x3d61e778	0.055152386
35	0xbd8ddc06	-0.06926732
36	0x3daa46c4	0.08314279
37	0x3cafd090	0.021461755
38	0xbdc6eeba	-0.09713502
39	0xbd8f3cb0	-0.06993997
40	0xbde473b4	-0.11154881
41	0x3dbc5efe	0.09197806
42	0xbdbb27e2	-0.091384664
43	0xbdbb1118	-0.0913412
44	0x3be88a40	0.007096559
45	0xbd70e744	-0.058814302
46	0x3b2f6000	0.0026760101
47	0x3da93f2a	0.08264001
48	0xbb33e680	-0.002745062
49	0xbdd59a8c	-0.10429868
50	0xbdf90328	-0.12158805
51	0x3c4ffb80	0.01269424
52	0xbd4ae4a8	-0.04953447
53	0xbdd1bc6e	-0.10241018
54	0x3dcf5a20	0.10124612
55	0x3dc9aef0	0.0984782
56	0xbde9cddc	-0.11416218
57	0x3d9331a2	0.07187201
58	0xbdac3d16	-0.08410089
59	0x3dce5fee	0.10076891
60	0x3da91320	0.08255601
61	0xbda9adc0	-0.08285093
62	0x3d6bbac8	0.057551175
63	0x3d68d954	0.056847885

fiber_head.weight f4 [1, 64]
0	0x3d0643a8	0.032779366
1	0x3de4fb3a	0.1118073
2	0xbda829ba	-0.08211084
3	0xbd89b32e	-0.06723629
4	0x3dea164a	0.114300326
5	0x3d87cbb0	0.06630647
6	0x3ce67ef0	0.0281367
7	0x3aa76100	0.0012769997
8	0xbdf92278	-0.121647775
9	0x3d8f6aa8	0.07002765
10	0xbdfd85d4	-0.12379041
11	0xbd615e1c	-0.05502139
12	0x3d9de55c	0.077097625
13	0x3d436868	0.04770699
14	0xbc224600	-0.009904385
15	0xbd0eca7c	-0.034861073
16	0x3da7d80c	0.081955045
17	0x3d948946	0.07252745
18	0x3c1f4180	0.009720206
19	0xbc8699f0	-0.016430825
20	0x3dbe258c	0.09284505
21	0x3d95857e	0.07300852
22	0x3df8eeaa	0.121548966
23	0xbcec4988	-0.028843656
24	0xbcd49948	-0.025951996
25	0xbda4951a	-0.08036251
26	0xbd055800	-0.032554626
27	0xbd9e56c6	-0.077313945
28	0xbde51a3a	-0.11186643
29	0xbd7d9b30	-0.061915576
30	0x3aefe900	0.0018303692
31	0x3cb511d0	0.02210322
32	0xbd8fd93c	-0.07023856
33	0xbcc25d10	-0.023726016
34	0xbd90cc28	-0.0707019
35	0xbd9e1dca	-0.077205256
36	0xbcf630b0	-0.030052513
37	0xbca479b8	-0.020077571
38	0x3ddee45a	0.10883398
39	0xbcc6b2c8	-0.024255171
40	0xbd6dc9a0	-0.058053613
41	0x3c6d51e0	0.014484853
42	0xbd13fa80	-0.036127567
43	0x3d698530	0.057011783
44	0x3dcd45a0	0.100230455
45	0xbdb44a84	-0.08803275
46	0x3caf89a0	0.02142793
47	0xbdcff836	-0.10154764
48	0xbd67b79c	-0.056571588
49	0x3dbb40d4	0.09143224
50	0x3ddbd08e	0.10733138
51	0x3dd04eb6	0.10171263
52	0x3d8cf83e	0.06883286
53	0xbdc7b5c8	-0.09751469
54	0xbdf232a2	-0.11826064
55	0x3c13ece0	0.009028643
56	0xbd9b7488	-0.07590586
57	0xbce72070	-0.02821371
58	0x38ea6800	0.00011177361
59	0x3dc0e89a	0.09419365
60	0x3d253288	0.040331393
61	0x3da7292a	0.08162148
62	0xbc5b3af0	-0.013380751
63	0xbdccab48	-0.09993607
